rnn.pth (torch_old, 309162 bytes, 14 tensors)

lstm.weight_ih_l0 f4 [240, 13]
0.028529849 0.033014696 -0.053373262 -0.12698296 0.14421093 -0.15664797 0.022400297 -0.23532529
-0.07288269 -0.17838724 -0.1704205 -0.055063695 -0.22650173 -0.1477878 0.16657394 0.048700128
0.116020866 0.08318884 0.13079286 0.041714612 0.22484237 0.15144116 0.029060828 -0.05017493
0.18085323 -0.1395986 0.065047964 0.024286237 0.052728117 0.12726079 0.13688813 0.26979068
-0.022790426 0.013559936 0.018132087 -0.18461458 0.08672919 -0.07960783 0.067924455 0.113748714
-0.25255302 0.21812986 0.051317606 0.0763261 -0.09214603 0.0455458 -0.019401649 0.09226676
-0.13401318 -0.026588766 -0.1316475 -0.031033106 0.010915773 0.028519828 0.14492726 -0.02358916
0.035147265 -0.020095268 0.19279502 -0.20445748 0.051339224 -0.14291821 -0.11286337 -0.13529064
0.027526043 -0.09481134 0.063598074 -0.03996613 0.06912366 -0.030995002 -0.02661851 -0.17794931
-0.027063997 -0.04350918 0.05506037 0.019318594 -0.078411855 -0.05608562 -0.16408598 0.15233435
-0.08826761 0.100066684 -0.112688765 -0.0498833 -0.13575311 0.025465775 -0.04379323 0.13555954
-0.0138920685 0.10786531 0.022276418 -0.21032116 0.18502946 -0.0884036 0.033797104 0.022164846
0.014543323 -0.18095562 0.024233133 -0.11661427 0.2218729 -0.078663416 0.023830686 -0.11561659
-0.039330456 -0.015039529 -0.13367307 -0.12820956 -0.08191757 -0.036470983 -0.050328676 0.013511449
-0.20625521 -0.13384055 0.09650466 -0.16043048 0.119960845 -0.10074418 -0.069394894 0.14534688
0.14670831 -0.010864177 -0.2032821 0.07309212 -0.14508729 -0.111461625 0.09291783 -0.11742003
0.12973034 -0.20840761 -0.072999075 0.16369876 0.07368007 -0.008137282 -0.09985411 -0.04982767
-0.0754133 0.03999625 -0.055207267 0.15958756 -0.07935424 0.07623219 -0.12826577 0.085412286
-0.04795969 0.017109465 -0.036285345 0.11987991 -0.22787683 -0.14304912 -0.13957174 -0.09323574
0.108614296 -0.17659004 0.039327007 -0.15154584 -0.08323598 0.13874763 -0.07628718 0.027085679
0.13386154 -0.21920326 0.09023729 -0.11991389 -0.039541274 -0.08870608 -0.12925301 0.038367417
-0.028406847 -0.05991954 -0.014552367 0.0033778702 -0.23357567 -0.08201905 -0.006742509 0.057555724
-0.06471676 -0.13143153 0.05428668 -0.06791659 0.05831143 -0.12199532 0.030048978 -0.13832554
0.046177726 0.015391643 0.13848737 0.09285764 0.0419037 -0.09772903 0.08718692 -0.3345178
-0.10780602 -0.002341081 -0.18874379 0.037800968 -0.014999777 -0.0077066664 -0.033990435 0.20811236
-0.096464075 0.0741235 -0.021466177 -0.034378484 -0.13223493 -0.105037265 -0.0064345384 0.15705268
0.21218233 -0.26363698 -0.015930459 -0.13335599 0.07805236 0.13150865 0.042300627 0.09083992
0.038712524 -0.06369658 0.033882033 -0.04895434 0.23339252 0.019465692 -0.08707896 0.08979564
0.10326039 -0.024529345 -0.15113968 -0.026399625 -0.0017840131 0.2711165 -0.103311725 -0.068061136
-0.27626806 0.12948444 0.036589634 -0.036349494 0.017618118 -0.16987854 -0.036148246 -0.13161288
0.1308485 -0.13154167 -0.10453454 -0.040449664 -0.050016284 0.01521538 0.088825464 0.09153805
-0.15502943 0.030136742 -0.16672312 0.022621943 -0.105238594 0.12673333 0.07651398 0.11694807
00000000: 6eb7 e93c 6b3a 073d ec9d 5abd d207 02be
00000010: 08ac 133e 5368 20be d480 b73c 1df9 70be
00000020: 8543 95bd 25ab 36be b682 2ebe 788a 61bd
00000030: 12f0 67be af55 17be 5c92 2a3e c979 473d
00000040: 599c ed3d e95e aa3d 90ee 053e f1dc 2a3d
00000050: 143d 663e 6413 1b3e f910 ee3c 3a84 4dbd
00000060: 9731 393e eff2 0ebe de37 853d eef3 c63c
00000070: 70f9 573d a750 023e 672c 0c3e 0122 8a3e
00000080: fdb2 babc 7e2a 5e3c be89 943c 9b0b 3dbe
00000090: 139f b13d 6e09 a3bd fa1b 8b3d 16f5 e83d
000000a0: a14e 81be 6f5d 5f3e 6932 523d dc50 9c3d
000000b0: 0fb7 bcbd 3c8e 3a3d 35f0 9ebc 5bf6 bc3d
000000c0: c03a 09be afd0 d9bc 9ace 06be 2439 febc
000000d0: 12d8 323c 6aa2 e93c d067 143e 0e3e c1bc
000000e0: 94f6 0f3d d59e a4bc 0f6c 453e 4d5d 51be
000000f0: 1449 523d 2759 12be e924 e7bd a189 0abe
00000100: 4c7e e13c 732c c2bd b53f 823d 86b3 23bd
00000110: b590 8d3d 3be9 fdbc 100f dabc 5838 36be
00000120: 51b5 ddbc af36 32bd fc86 613d 0742 9e3c
00000130: 6596 a0bd 09ba 65bd 2806 28be 89fd 1b3e
00000140: a6c5 b4bd c3ef cc3d 5ec9 e6bd 6e52 4cbd
00000150: dd02 0bbe 9a9d d03c 8860 33bd 1fd0 0a3e
00000160: 8f9b 63bc 7de8 dc3d 097d b63c 6e5e 57be
00000170: 5d78 3d3e f20c b5bd d56e 0a3d 0d93 b53c
00000180: 1e47 6e3c 6e4c 39be 9084 c63c 76d3 eebd
00000190: a632 633e 491a a1bd 9238 c33c 64c8 ecbd
000001a0: f918 21bd 5b68 76bc 98e1 08be 5e49 03be
000001b0: 66c4 a7bd 9962 15bd 7125 4ebd 205f 5d3c
000001c0: 9134 53be 7f0d 09be 3ca4 c53d e347 24be
000001d0: 08ae f53d f752 cebd e91e 8ebd d0d5 143e
000001e0: b43a 163e a9ff 31bc 2f29 50be 52b1 953d
000001f0: c391 14be fe45 e4bd b44b be3d ea79 f0bd
00000200: 08d8 043e ce68 55be 8a80 95bd a6a0 273e
00000210: 94e5 963d 3c52 05bc 5080 ccbd 1918 4cbd
00000220: 4a72 9abd 1cd3 233d 0421 62bd ec6a 233e
00000230: 7a84 a2bd 9f1f 9c3d 1a58 03be a3ec ae3d
00000240: 6171 44bd 2629 8c3c f19f 14bd 9983 f53d
00000250: 8b58 69be 787b 12be e5eb 0ebe 61f2 bebd
00000260: 2c71 de3d 05d4 34be 5b15 213d d52e 1bbe
00000270: a077 aabd dc13 0e3e 743c 9cbd c9e2 dd3c
00000280: 0013 093e d276 60be 54ce b83d 6a95 f5bd
00000290: 08f6 21bd 89ab b5bd e75a 04be 2727 1d3d
000002a0: 7ab5 e8bc 316e 75bd 0d6d 6ebc 425f 5d3b
000002b0: 762e 6fbe 9bf9 a7bd 44f0 dcbb 8dbf 6b3d
000002c0: 388a 84bd fd95 06be b65b 5e3d da17 8bbd
000002d0: f7d7 6e3d afd8 f9bd 4629 f63c 36a5 0dbe
000002e0: db24 3d3d 3b2d 7c3c a2cf 0d3e 252c be3d
000002f0: 37a3 2b3d 2826 c8bd 0e8f b23d eb45 abbe
00000300: 67c9 dcbd d26c 19bb 0d46 41be 30d5 1a3d
00000310: a0c1 75bc 3488 fcbb 8e39 0bbd 681b 553e
00000320: f58e c5bd 10ce 973d d6d9 afbc 74d0 0cbd
00000330: 9868 07be c71d d7bd d2d8 d2bb 6bd2 203e
00000340: 5346 593e 6dfb 86be 9880 82bc 798e 08be
00000350: ead9 9f3d 34aa 063e 6c43 2d3d 480a ba3d
00000360: 0691 1e3d 5a73 82bd e3c7 0a3d 5984 48bd
00000370: 73fe 6e3e 8476 9f3c 7456 b2bd c7e6 b73d
00000380: 2f7a d33d c4f1 c8bc 5cc4 1abe 0744 d8bc
00000390: 8cd5 e9ba c8cf 8a3e 1995 d3bd a363 8bbd
000003a0: 0273 8dbe 9297 043e 03df 153d 35e3 14bd
000003b0: df53 903c a4f4 2dbe 2f10 14bd 87c5 06be
000003c0: 26fd 053e dcb2 06be 3416 d6bd 8cae 25bd
000003d0: e0dd 4cbd ee49 793c 20ea b53d 4d78 bb3d
000003e0: 09c0 1ebe 54e1 f63c 77b9 2abe a751 b93c
000003f0: 5587 d7bd 62c6 013e 5db3 9c3d 7882 ef3d

lstm.weight_hh_l0 f4 [240, 60]
-0.087082416 -0.029645242 -0.08713039 -0.045078836 -0.040115148 0.048147574 -0.044844523 0.116740584
0.016716242 -0.07834663 0.0882736 0.1271594 0.12560542 -0.10623665 0.11431529 -0.019615076
0.0003079027 -0.10153597 0.013959646 -0.040592365 0.068136826 -0.12638876 -0.06587576 0.0692015
0.07155478 0.00018155575 -0.00832431 0.102194384 0.006918475 -0.09820534 -0.014302239 -0.09715062
-0.07116851 -0.12870857 0.0132353455 0.01130034 -0.059814297 -0.0835488 -0.10863283 0.030182555
-0.078590065 -0.00019396842 0.0062491894 -0.11731386 -0.03773161 0.10381612 -0.063279584 0.0022686124
-0.08333032 -0.09836283 0.017218262 0.032722548 -0.11938603 -0.102648675 -0.033215642 0.067351356
0.10932298 -0.031066604 0.067702785 -0.049313396 -0.033006266 0.05494097 -0.1248805 0.056195498
-0.076261 0.061170176 0.06264487 0.007634014 0.038925767 0.04461491 -0.021285936 -0.122067526
0.08144939 0.1071299 -0.027694874 -0.12803856 -0.025840856 0.09564185 0.12571801 0.093743935
-0.033570237 -0.023245893 0.023461744 0.043425336 0.106148854 0.099796176 0.075772 -0.11299898
0.087212354 -0.10563941 -0.029235855 0.06058812 -0.020006426 -0.05877942 -0.11613655 0.09131405
-0.025265396 -0.12006997 0.046014443 0.032070562 0.09996377 -0.055171147 -0.0032357872 -0.025018208
-0.10683505 0.043389916 0.049179822 0.08751224 0.00093637407 0.05659768 -0.04420889 0.029708415
-0.09119691 0.07507174 -0.11676201 -0.0406076 0.06707288 0.055316538 0.09970227 0.061401114
0.044264376 0.0823808 -0.121113785 -0.023084223 -0.0089455545 0.018193156 0.04774168 -0.006591551
-0.09187536 0.06887038 -0.0017501563 -0.111551225 -0.07173593 0.110587865 0.1039346 0.013659999
0.053706348 0.0931761 0.092032894 0.12742333 -0.033403136 0.03738731 -0.087119445 0.016980082
-0.056213528 0.0071354806 0.047201216 -0.12904587 0.01856345 0.07782976 -0.04245788 -0.07016588
-0.08335678 -0.120935805 -0.034400754 0.07738873 -0.11351691 0.113078475 -0.06910486 0.05648096
-0.11458235 -0.086762205 -0.05665493 -0.10236796 -0.074283496 -0.07470867 0.10233304 -0.09002821
0.08950721 0.0053028464 0.011688784 0.069600016 0.06402396 0.07694556 0.012662679 0.0056544393
-0.0677459 0.05874467 -0.05121526 0.1174202 0.055134654 0.12788792 -0.059915423 0.08974995
-0.1092168 0.05262178 -0.055504814 0.10314287 -0.08097762 0.09759925 0.047862038 -0.06562026
-0.06588885 0.05705385 0.037537172 -0.10682385 -0.02020754 0.055996954 0.12187575 0.031777576
0.05773449 0.09157336 -0.030556 0.09945558 -0.12394943 -0.083310306 -0.010430828 0.03462194
-0.09198232 0.023838222 -0.11212168 -0.042098664 -0.057017617 0.08218402 -0.012528911 -0.1073695
0.08953613 0.028470501 -0.046219327 -0.066298425 0.092896804 -0.12680916 0.08736715 0.06390095
-0.07132581 0.008270159 0.083788484 0.06025879 0.1270342 -0.06834606 -0.10300853 0.12764747
0.10788211 -0.00406684 -0.017275713 -0.045188747 0.10662323 0.0059188902 0.051503375 -0.08358925
0.120551735 0.10446744 0.12226553 0.054624036 -0.053737953 -0.018739209 -0.06736353 0.08886832
0.12686352 -0.11195327 -0.03791041 0.05189149 0.049448997 -0.088661574 0.09716311 -0.07775111
00000000: 4458 b2bd 94da f2bc 6b71 b2bd 96a4 38bd
00000010: c84f 24bd 6436 453d e4ae 37bd b015 ef3d
00000020: 80f0 883c 3374 a0bd cac8 b43d 1336 023e
00000030: b59e 003e 9a92 d9bd 221e ea3d ccaf a0bc
00000040: 006e a139 17f2 cfbd 00b7 643c 2e44 26bd
00000050: 528b 8b3d 0e6c 01be dfe9 86bd 84b9 8d3d
00000060: 508b 923d 0060 3e39 b062 08bc 4a4b d13d
00000070: 60b4 e23b e21f c9bd f053 6abc e7f6 c6bd
00000080: ccc0 91bd 2ecc 03be 10d9 583c 1025 393c
00000090: d6ff 74bd a21b abbd e47a debd 6841 f73c
000000a0: d4f3 a0bd 0064 4bb9 00c6 cc3b 4042 f0bd
000000b0: 768c 1abd 8c9d d43d ba98 81bd 00ad 143b
000000c0: 16a9 aabd 7472 c9bd 500d 8d3c 1408 063d
000000d0: aa80 f4bd 7839 d2bd 200d 08bd 82ef 893d
000000e0: bae4 df3d 647f febc c2a7 8a3d d8fc 49bd
000000f0: 9431 07bd c809 613d 59c1 ffbd 402d 663d
00000100: ba2e 9cbd 948d 7a3d f44b 803d c026 fa3b
00000110: a070 1f3d 20be 363d d85f aebc 8afe f9bd
00000120: f0ce a63d ec66 db3d 5ce0 e2bc 8a1c 03be
00000130: 34b0 d3bc e0df c33d 39bc 003e d2fc bf3d
00000140: f280 09bd 2c6e bebc d832 c03c c4de 313d
00000150: 9264 d93d f061 cc3d 5a2e 9b3d 026c e7bd
00000160: 649c b23d 7a59 d8bd 0880 efbc 402b 783d
00000170: 84e4 a3bc b0c2 70bd 00d9 edbd dc02 bb3d
00000180: 60f9 cebc 3fe7 f5bd a479 3c3d 6c5c 033d
00000190: ceb9 cc3d 24fb 61bd 800f 54bb fcf2 ccbc
000001a0: 56cc dabd a0b9 313d c870 493d 9e39 b33d
000001b0: 0077 753a f8d2 673d 6214 35bd 105f f33c
000001c0: 72c5 babd 36bf 993d ec20 efbd 2854 26bd
000001d0: 825d 893d 9893 623d b430 cc3d bc7f 7b3d
000001e0: 904e 353d 44b7 a83d 810a f8bd 201b bdbc
000001f0: 6090 12bc d009 953c c88c 433d f0fd d7bb
00000200: 2629 bcbd ea0b 8d3d 8065 e5ba f874 e4bd
00000210: 4aea 92bd e47b e23d aadb d43d 30ce 5f3c
00000220: 30fb 5b3d 1cd3 be3d be7b bc3d 437b 023e
00000230: bad1 08bd 7023 193d ae6b b2bd d019 8b3c
00000240: 2840 66bd c0d0 e93b 1056 413d 9a24 04be
00000250: 6012 983c 3665 9f3d 50e8 2dbd 21b3 8fbd
00000260: f6b6 aabd 31ad f7bd cee7 0cbd fc7d 9e3d
00000270: 8e7b e8bd b095 e73d d986 8dbd 9458 673d
00000280: 27aa eabd 62b0 b1bd 000f 68bd 4ba6 d1bd
00000290: f221 98bd dc00 99bd fc93 d13d b660 b8bd
000002a0: 8e4f b73d 80c3 ad3b 5082 3f3c 748a 8e3d
000002b0: fe1e 833d a295 9d3d 2077 4f3c e048 b93b
000002c0: 5dbe 8abd 409e 703d 18c7 51bd 007a f03d
000002d0: e0d4 613d 0df5 023e e069 75bd d2ce b73d
000002e0: 0fad dfbd f089 573d 0459 63bd 923c d33d
000002f0: 98d7 a5bd 1ee2 c73d fc0a 443d ea63 86bd
00000300: bcf0 86bd 4cb1 693d 94c0 193d 76c6 dabd
00000310: 488a a5bc 105d 653d fe99 f93d 3429 023d
00000320: 007b 6c3d d08a bb3d 9450 fabc 5eaf cb3d
00000330: 33d9 fdbd 989e aabd 10e6 2abc bccf 0d3d
00000340: 3a61 bcbd 6048 c33c 0da0 e5bd a66f 2cbd
00000350: 4e8b 69bd 1850 a83d 1046 4dbc 8ae4 dbbd
00000360: b85e b73d f83a e93c 7a50 3dbd 78c7 87bd
00000370: ae40 be3d 43da 01be 8ced b23d 80de 823d
00000380: 4413 92bd 907f 073c 4c99 ab3d ecd1 763d
00000390: 4115 023e 05f9 8bbd 23f6 d2bd 05b6 023e
000003a0: 4cf1 dc3d 2043 85bb cc85 8dbc d617 39bd
000003b0: 485d da3d 40f3 c13b 34f5 523d d730 abbd
000003c0: d4e3 f63d 06f3 d53d 5a66 fa3d 74bd 5f3d
000003d0: 541c 5cbd f882 99bc e4f5 89bd 9800 b63d
000003e0: 83e8 013e c247 e5bd f247 1bbd 2c8c 543d
000003f0: 088b 4a3d 3394 b5bd 74fd c63d f93b 9fbd

lstm.bias_ih_l0 f4 [240]
0.020903643 -0.08908342 -0.0051241023 0.22314078 0.06276058 -0.0816422 -0.05272982 -0.082234904
0.02542875 -0.028117985 0.03925953 -0.073545925 0.06732747 -0.09612798 0.021920495 -0.004891498
0.15484813 0.093659684 0.17147054 0.22578196 0.042706113 0.042970076 -0.080726944 -0.118734665
0.09258195 -0.08659892 -0.12123962 0.03470717 -0.04741541 -0.021157723 0.019312447 -0.06799496
-0.075533845 -0.006738618 -0.012623327 -0.03540479 -0.18535429 0.07256314 -0.006659489 0.16819452
-0.03510073 0.15254137 -0.14201178 0.009489737 0.1458555 0.07839927 -0.14619416 -0.22641726
0.03490623 0.09463948 -0.14309673 -0.10802153 0.13521117 0.13941783 0.1589963 0.0034533003
0.0390141 0.14541036 -0.0827532 0.026412887 -0.033266567 -0.10289131 -0.046282917 -0.010297656
7.522106e-05 -0.017135367 0.09111568 0.120286316 0.10477768 -0.04327976 0.027703688 -0.010933861
-0.07049696 0.0050073266 -0.07654783 0.09170121 -0.10011924 0.04979731 0.068312466 0.08958888
0.06258629 0.11169897 -0.05647356 -0.11250247 0.013678819 -0.110857345 0.1250328 0.091679275
-0.12639844 -0.008895442 -0.122752085 0.07908228 0.120681345 0.07761711 -0.028943464 -0.026233546
-0.0011982471 0.01979132 0.077180356 -0.052828208 -0.038957424 -0.09558496 0.12044568 -0.0030269474
-0.08145732 0.11430308 0.078861356 0.020665467 0.088747635 0.044159055 -0.10819875 -0.053605862
-0.060490906 -0.032358967 0.022089183 -0.07051255 0.12507935 -0.038502783 0.07598704 -0.11685264
0.04995158 0.10583871 0.03344879 0.10545569 -0.12534267 -0.024228746 0.08673632 0.10770876
-0.12904936 -0.019481327 -0.16109833 0.11986772 0.011542504 -0.11826198 -0.116362475 -0.11012852
-0.26873642 0.08919708 -0.016491514 -0.008792557 0.12736438 0.0019087155 0.0062693395 0.068639986
0.13809489 0.08832966 -0.04738539 -0.022576224 0.059538413 0.16411206 0.107209064 -0.11801163
0.047933668 -0.08191393 -0.11135062 0.11110522 0.086639985 0.038082715 -0.079153016 0.14575392
0.06133162 0.10449961 0.013575928 -0.08745968 0.08983932 -0.049606502 0.09629787 0.049277462
0.10519398 0.12004991 -0.18968639 -0.13359505 0.02600972 0.060442995 -0.021183344 0.053158984
0.22576556 0.024736322 0.20392159 0.17444743 0.058087535 -0.08651408 0.15038744 0.10899391
0.07706067 -0.16860081 -0.027546985 0.07753 0.094338834 0.09259762 -0.11014525 -0.07509515
0.18084562 0.07259753 -0.10556792 -0.008339163 -0.014528084 0.11650113 0.057675436 -0.07488603
0.19781142 -0.067876875 -0.0026581925 0.021523766 -0.05400864 0.034799848 0.040179074 -0.0735476
0.04276795 -0.026758667 0.23771143 0.008802029 0.016146256 0.1072968 -0.18197148 0.039973445
-0.0031246557 0.0063810037 -0.038333718 0.012081176 -0.07483758 0.03236451 -0.15274559 -0.015731417
-0.0371637 -0.035418827 0.03284553 -0.10217774 0.078225106 0.14138532 0.17015035 0.23106869
-0.06059333 0.19495285 -0.03437752 -0.12929219 -0.03437829 0.10333788 0.0064921873 -0.08657796
00000000: 1e3e ab3c 5e71 b6bd 16e8 a7bb 047f 643e
00000010: 9e88 803d 0734 a7bd 39fb 57bd c66a a8bd
00000020: f44f d03c b057 e6bc 9ace 203d 3f9f 96bd
00000030: fce2 893d bfde c4bd 9c92 b33c dc48 a0bb
00000040: 8290 1e3e a6d0 bf3d f995 2f3e 6333 673e
00000050: 9bec 2e3d 6401 303d 2b54 a5bd 292b f3bd
00000060: 9b9b bd3d c65a b1bd 7a4c f8bd 1b29 0e3d
00000070: a936 42bd f652 adbc 2335 9e3c f140 8bbd
00000080: 7db1 9abd a0cf dcbb 12d2 4ebc 9d04 11bd
00000090: 84cd 3dbe fc9b 943d d837 dabb 2f3b 2c3e
000000a0: c8c5 0fbd ce33 1c3e 896b 11be d87a 1b3c
000000b0: 255b 153e cc8f a03d ecb3 15be edd9 67be
000000c0: d6f9 0e3d 58d2 c13d f387 12be 643a ddbd
000000d0: cc74 0a3e 8cc3 0e3e edcf 223e c450 623b
000000e0: 40cd 1f3d 74e6 143e 827a a9bd d75f d83c
000000f0: 8642 08bd aeb8 d2bd 2893 3dbd 80b7 28bc
00000100: 00c0 9d38 785f 8cbc dc9a ba3d ac58 f63d
00000110: ae95 d63d 1e46 31bd d8f2 e23c f023 33bc
00000120: b660 90bd 8014 a43b 1cc5 9cbd d8cd bb3d
00000130: 510b cdbd 44f8 4b3d 68e7 8b3d 607a b73d
00000140: 3e2d 803d 6ec2 e43d d250 67bd b267 e6bd
00000150: 201d 603c 2d09 e3bd 9908 003e 58c2 bb3d
00000160: 986e 01be 30be 11bc 7265 fbbd e4f5 a13d
00000170: c827 f73d b8f5 9e3d d81a edbc bce7 d6bc
00000180: 800e 9dba 6821 a23c bc10 9e3d 6462 58bd
00000190: d291 1fbd 0cc2 c3bd 3aac f63d c05f 46bb
000001a0: 18d3 a6bd bc17 ea3d 1082 a13d a04a a93c
000001b0: 52c1 b53d 20e0 343d 4e97 ddbd d291 5bbd
000001c0: 50c5 77bd d68a 04bd 60f4 b43c e268 90bd
000001d0: cd14 003e 18b5 1dbd 189f 9b3d 7050 efbd
000001e0: 079a 4c3d f7c1 d83d 9901 093d 27f9 d73d
000001f0: d459 00be 5d7b c6bc d0a2 b13d 6996 dc3d
00000200: 8425 04be 4e97 9fbc f6f6 24be 357d f53d
00000210: c51c 3d3c 5633 f2bd 734f eebd 108b e1bd
00000220: d297 89be f5ac b63d 3619 87bc a80e 10bc
00000230: cf6b 023e dd2d fa3a 086f cd3b 1f93 8c3d
00000240: bf68 0d3e 2ee6 b43d 2f17 42bd c6f1 b8bc
00000250: 8dde 733d fe0c 283e 6d90 db3d 15b0 f1bd
00000260: 1856 443d 7ec2 a7bd cb0b e4bd 228b e33d
00000270: 4e70 b13d 9ffc 1b3d fa1a a2bd 8440 153e
00000280: dd36 7b3d e403 d63d 926d 5e3c 101e b3bd
00000290: adfd b73d 3030 4bbd d137 c53d 2ad7 493d
000002a0: f16f d73d badc f53d 263d 42be 24cd 08be
000002b0: 5612 d53c 1393 773d b188 adbc 3cbd 593d
000002c0: 162f 673e d4a3 ca3c d2d0 503e 59a2 323e
000002d0: 32ed 6d3d 4b2e b1bd 2aff 193e 3338 df3d
000002e0: fcd1 9d3d b1a5 2cbe 37aa e1bc 0cc8 9e3d
000002f0: b834 c13d d2a3 bd3d d593 e1bd 7ccb 99bd
00000300: 982f 393e 04ae 943d fe33 d8bd fca0 08bc
00000310: 3307 6ebc 2598 ee3d 143d 6c3d d95d 99bd
00000320: 148f 4a3e 0803 8bbd 1235 2ebb 9c52 b03c
00000330: 2a38 5dbd 498a 0e3d d092 243d 20a0 96bd
00000340: 722d 2f3d fe34 dbbc a06a 733e 6336 103c
00000350: 2745 843c 6dbe db3d bb56 3abe 32bb 233d
00000360: 06c7 4cbb bd17 d13b d103 1dbd 20f0 453c
00000370: 7244 99bd a690 043d 5769 1cbe 2cdf 80bc
00000380: f738 18bd 5513 11bd 0989 063d 9042 d1bd
00000390: 7c34 a03d 50c7 103e e53b 2e3e 459d 6c3e
000003a0: b630 78bd b8a1 473e 71cf 0cbd 2c65 04be
000003b0: 40d0 0cbd cfa2 d33d 6abc d43b c94f b1bd

lstm.bias_hh_l0 f4 [240]
-0.059740793 -0.0047427723 0.11329621 0.19804552 0.048875958 -0.12316391 -0.20922257 -0.12839422
0.027017541 0.08663869 -0.19536169 0.05729896 -0.033068508 -0.07722578 0.05389759 0.15193737
0.20669115 0.11125614 0.072229505 0.21725304 0.238653 0.028259074 -0.18556374 0.06651529
0.027618326 0.021701831 -0.052413765 0.0074435617 -0.020728875 -0.10085527 0.058271077 -0.11242142
-0.15044057 0.19617769 -0.12078315 -0.014798267 0.035405114 -0.0901094 0.0034154425 0.09910069
0.08452864 0.12879203 0.06390483 0.10056709 0.009714888 0.17562574 0.03755415 -0.041472852
-0.04141617 0.1336389 0.03849413 0.10167743 0.12987591 -0.025353597 -0.02758883 -0.22268705
0.06930841 0.07950141 0.06938665 0.050068714 -0.117348365 -0.08631703 0.023883715 0.08853416
0.050491184 -0.027879275 0.0077595413 -0.09160644 0.0795486 0.11226079 -0.119382955 -0.11807501
0.10939476 -0.048043214 0.0820072 0.07101837 -0.013139777 0.020913288 0.123840496 0.06653978
-0.11403475 -0.06929146 0.034220442 0.061674014 -0.060352772 -0.009374358 0.027860895 0.08877234
-0.11719178 -0.07870677 0.084965095 -0.024472356 0.06513685 -0.10146673 0.006649658 0.057676733
-0.08567481 0.008503109 -0.07397844 -0.011547625 -0.08113228 0.10040511 -0.10522783 0.024124667
-0.035006434 -0.028659627 0.08824888 -0.117815584 0.058046103 0.026508883 0.022444814 -0.06637434
-0.11920557 0.11829308 0.0972496 0.10109323 -0.11409072 -0.08590794 -0.015627764 0.058444887
-0.11134524 0.17744838 -0.01001617 0.01881783 -0.08340469 0.0064201877 0.0090773925 -0.10869231
-0.0051310826 0.05157861 -0.15160787 0.03431534 0.051925953 -0.023852754 -0.067401394 -0.12245816
-0.043888073 -0.027477931 0.03248378 0.0982511 0.10825961 -0.08071644 0.10128277 0.007061485
0.013044377 0.05221577 0.1022851 -0.016733991 -0.07058943 0.069951594 0.03811538 -0.021223938
0.17822902 -0.12788431 -0.19805244 0.07275705 0.17025973 0.083062984 -0.11334108 0.038581494
-0.13584194 0.14723226 -0.00889227 -0.07647252 0.021743463 0.04004748 0.11088108 0.17855172
-0.021019826 0.0519888 -0.07859396 -0.15806381 0.005673368 -0.013990577 -0.04575037 -0.07267462
-0.001229354 -0.0029964198 0.1735475 0.19990441 -0.022898607 -0.031146945 0.06611419 0.20251854
0.05153542 0.03438255 -0.0076625952 0.04228817 -0.070622556 0.06801309 -0.2081071 0.1145472
-0.0077524185 -0.072513126 0.107731804 0.11828257 0.07687002 0.10107418 0.17478865 -0.041488875
0.07698692 -0.10536741 0.009987036 0.047912654 -0.00727288 0.12445862 0.018303515 -0.13337429
0.06918014 -0.03481105 0.20572905 0.14141455 -0.1525522 0.23777278 -0.06327317 0.20985729
-0.10943057 -0.025964564 0.011197617 0.207718 0.012725989 -0.053557616 -0.00053443917 -0.08202729
0.14990202 -0.13069732 -0.08545494 -0.11717211 0.024009364 0.0065173693 0.0066965027 0.075569704
-0.016069945 0.1027795 -0.041816745 -0.043819703 0.013524936 -0.10588301 -0.06673619 -0.18000716
00000000: c3b2 74bd 4269 9bbb d807 e83d 72cc 4a3e
00000010: 2832 483d 5c3d fcbd 713e 56be c679 03be
00000020: e453 dd3c a06f b13d e50c 48be 50b2 6a3d
00000030: d872 07bd 8d28 9ebd b8c3 5c3d 7895 1b3e
00000040: d8a6 533e 42da e33d 10ed 933d 9577 5e3e
00000050: 7461 743e 937f e73c 6c04 3ebe 2b39 883d
00000060: d43f e23c 0ac8 b13c d1af 56bd 1fe9 f33b
00000070: 9acf a9bc 358d cebd a7ad 6e3d 343d e6bd
00000080: 180d 1abe cee2 483e 285d f7bd 6e74 72bc
00000090: f404 113d 478b b8bd 9ed5 5f3b 4df5 ca3d
000000a0: 5a1d ad3d 0fe2 033e 89e0 823d 1ef6 cd3d
000000b0: 322b 1f3c 3cd7 333e 61d2 193d 70df 29bd
000000c0: 00a4 29bd a3d8 083e 05ac 1d3d 423c d03d
000000d0: 31fe 043e 59b2 cfbc f801 e2bc 1308 64be
000000e0: 91f1 8d3d a3d1 a23d 971a 8e3d da14 4d3d
000000f0: 5754 f0bd fcc6 b0bd c8a7 c33c 6651 b53d
00000100: d8cf 4e3d 1463 e4bc c043 fe3b 289c bbbd
00000110: 60ea a23d fce8 e53d 0d7f f4bd 50d1 f1bd
00000120: 5c0a e03d f6c8 44bd 64f3 a73d 1472 913d
00000130: 3848 57bc 5852 ab3c 16a0 fd3d 0246 883d
00000140: 0d8b e9bd aee8 8dbd bc2a 0c3d e49d 7c3d
00000150: 7834 77bd e896 19bc 883c e43c 46ce b53d
00000160: 3e02 f0bd 0431 a1bd 2e02 ae3d 407a c8bc
00000170: 7866 853d cacd cfbd 60e5 d93b 703e 6c3d
00000180: 4676 afbd a050 0b3c 0282 97bd 4032 3dbc
00000190: ae28 a6bd 32a1 cd3d b081 d7bd 18a1 c53c
000001a0: e862 0fbd 98c7 eabc d4bb b43d 4c49 f1bd
000001b0: c0c1 6d3d 2829 d93c 30de b73c 45ef 87bd
000001c0: 0d22 f4bd a443 f23d cc2a c73d f809 cf3d
000001d0: 65a8 e9bd 81f0 afbd cc05 80bc e863 6f3d
000001e0: f908 e4bd 07b5 353e dd1a 24bc da27 9a3c
000001f0: 14d0 aabd 7060 d23b 58b9 143c 139a debd
00000200: a422 a8bb 1844 533d 183f 1bbe 3e8e 0c3d
00000210: 4fb0 543d da66 c3bc be09 8abd 58cb fabd
00000220: fbc3 33bd 6619 e1bc b60d 053d df37 c93d
00000230: 37b7 dd3d a94e a5bd 576d cf3d 0864 e73b
00000240: 15b8 553c 34e0 553d da7a d13d b915 89bc
00000250: 3191 90bd c842 8f3d df1e 1c3d d3dd adbc
00000260: ab81 363e 1bf4 02be 42ce 4abe a601 953d
00000270: 9158 2e3e ed1c aa3d 5e1f e8bd a107 1e3d
00000280: 261a 0bbe 0ec4 163e e2b0 11bc a09d 9cbd
00000290: 591f b23c d408 243d 9f15 e33d 43d6 363e
000002a0: c531 acbc 35f2 543d dff5 a0bd 7bdb 21be
000002b0: a9e7 b93b bc38 65bc bd64 3bbd 6ed6 94bd
000002c0: 4622 a1ba 955f 44bb 70b6 313e beb3 4c3e
000002d0: dc95 bbbc e127 ffbc e066 873d 0561 4f3e
000002e0: ce16 533d b7d4 0c3d 8216 fbbb 5c36 2d3d
000002f0: 8fa2 90bd 724a 8b3d 071a 55be b997 ea3d
00000300: 0008 febb c381 94bd 7ea2 dc3d 223e f23d
00000310: 076e 9d3d fbff ce3d ccfb 323e 3df0 29bd
00000320: 51ab 9d3d deca d7bd aaa0 233c 0f40 443d
00000330: 5751 eebb 29e4 fe3d 41f1 953c 4593 08be
00000340: 51ae 8d3d 0896 0ebd a3aa 523e face 103e
00000350: a536 1cbe b57a 733e 5d95 81bd d4e4 563e
00000360: 221d e0bd a3b3 d4bc 3676 373c 07b4 543e
00000370: ab80 503c 3b5f 5bbd 9b19 0cba ecfd a7bd
00000380: ea7f 193e 85d5 05be 0003 afbd eef7 efbd
00000390: 49af c43c a88f d53b 566e db3b 4ac4 9a3d
000003a0: 1ea5 83bc 0f7e d23d 0948 2bbd 4a7c 33bd
000003b0: b197 5d3c 31d9 d8bd fcac 88bd cc53 38be

lstm.weight_ih_l1 f4 [240, 60]
0.1903508 0.17085408 0.104488775 -0.106536366 -0.35527217 -0.039966196 0.056337133 0.07294224
0.011445599 -0.18540798 -0.0027256624 -0.18753049 -0.0530822 0.032546546 0.0922311 0.023858031
-0.15489008 -0.12417906 0.17359045 -0.028295701 -0.065500185 -0.062353708 -0.104014136 -0.015736412
0.037512865 -0.029688908 -0.026515286 -0.1553253 -0.039367534 0.02854158 -0.032104235 -0.12191154
0.1820049 -0.052491654 0.14182168 0.043781444 0.12228137 0.0851138 -0.17816582 0.009304628
0.0012522835 -0.085603856 0.0901952 -0.19312541 0.053523038 0.103769585 -0.03086721 -0.10740377
0.21660435 0.05361393 -0.055847522 -0.09404235 0.042961814 -0.14759792 -0.036452647 -0.067554526
0.19904058 0.1889981 0.255515 0.11282727 -0.11224825 -0.0034135254 0.12924574 -0.015420707
0.035164677 -0.0803961 -0.018977476 -0.05017525 0.035584595 -0.006856805 0.024990719 -0.021794051
0.062240113 -0.034252338 0.111543514 0.107063144 -0.022499382 -0.024119865 -0.03989917 0.16080838
0.084619954 0.050923035 -0.2549133 0.12824665 0.110098876 0.13271794 0.03393519 0.19265352
-0.06618786 0.02864229 0.022228446 -0.044154357 0.12766737 -0.06950222 0.0024019023 0.2231771
0.012391927 0.09472965 -0.13936427 0.28927577 0.10169077 0.13743602 0.07369504 0.022333303
0.11908374 0.0629668 -0.0004198198 0.010785268 -0.0068790033 0.21590272 -0.010303635 -0.06632785
0.05551841 -0.035244707 0.30997643 0.12789741 0.18325663 0.2962021 0.0912377 -0.02875173
-0.1685921 -0.14588736 -0.10570864 0.055860583 -0.047324557 0.046684086 0.09175439 0.04510522
-0.05806945 -0.049116936 -0.030150486 0.011805908 -0.04627866 -0.24106091 -0.16094291 -0.047382824
-0.04689226 0.1358013 -0.07841858 0.015665341 0.24515086 0.08595749 0.16976002 -0.018660175
-0.18541957 -0.02619879 -0.010084204 -0.21786816 -0.07786509 -0.16569462 -0.27841902 0.060552534
-0.10925494 0.14276569 0.042905748 0.03470997 0.07259319 0.20342143 -0.09046036 0.13029201
-0.10071691 0.09563813 -0.028736483 0.26431918 -0.040478338 -0.12036713 -0.06254876 0.20253132
0.12448182 -0.15453294 -0.05879448 -0.053962164 0.0059503615 -0.05732992 0.14223234 -0.09513314
0.07750123 0.01250712 0.039840665 0.13606633 -0.0037597136 0.009044005 0.00908746 0.036483835
-0.11791214 0.09025671 0.07238645 -0.075338334 0.024521226 -0.102853924 -0.10661973 0.044641715
-0.12025425 0.08628257 0.07705515 -0.27458912 0.10748633 0.12869582 -0.0007804802 -0.23192877
0.0085726 0.048285455 0.010119525 0.048645593 -0.17798984 -0.055626627 0.041495346 0.022664752
0.16374703 0.1695418 -0.03798238 0.048024524 0.058521282 -0.067248605 -0.12689498 -0.07550493
-0.087051846 -0.070112705 -0.1376245 -0.31032068 -0.129833 0.040153775 0.12258905 -0.13291201
-0.029643688 -0.098781325 0.029664366 0.027000938 0.089603685 -0.19153054 0.08184347 0.06295519
0.04763171 0.031685375 0.07529224 0.093300514 -0.11328043 -0.09283157 0.12596789 -0.11896165
0.036539488 0.00978066 -0.10078341 -0.14110884 -0.29449788 -0.10056856 -0.02824772 0.02759647
0.10246313 -0.32467422 -0.12540305 -0.22058223 -0.08423972 -0.0007128343 0.27834907 -0.15392676
00000000: 52eb 423e 5ff4 2e3e 36fe d53d bd2f dabd
00000010: 3ce6 b5be 98b3 23bd c4c1 663d be62 953d
00000020: 5286 3b3c 97db 3dbe 07a1 32bb fe07 40be
00000030: b96c 59bd 874f 053d a9e3 bc3d eb71 c33c
00000040: 819b 1ebe 9751 febd b2c1 313e 63cc e7bc
00000050: f624 86bd 9a66 7fbd 5d05 d5bd a6e9 80bc
00000060: 17a7 193d 2736 f3bc 9636 d9bc 980d 1fbe
00000070: da3f 21bd 08d0 e93c bb7f 03bd c2ac f9bd
00000080: 7e5f 3a3e 7d01 57bd b439 113e 2c54 333d
00000090: a86e fa3d 2550 ae3d 1a71 36be 7072 183c
000000a0: a923 a43a 1351 afbd 43b8 b83d abc2 45be
000000b0: f93a 5b3d 2685 d43d 3bdd fcbc 82f6 dbbd
000000c0: 88cd 5d3e 489a 5b3d 5fc0 64bd 4799 c0bd
000000d0: baf8 2f3d e923 17be 5f4f 15bd 075a 8abd
000000e0: 4bd1 4b3e b888 413e ddd2 823e fc11 e73d
000000f0: 69e2 e5bd 74b5 5fbb ff58 043e 22a7 7cbc
00000100: d608 103d b6a6 a4bd a776 9bbc 9084 4dbd
00000110: 27c1 113d 0daf e0bb 56b9 cc3c 7089 b2bc
00000120: 7def 7e3d 2e4c 0cbd ed70 e43d ec43 db3d
00000130: a050 b8bc 0697 c5bc 506d 23bd f4aa 243e
00000140: 3a4d ad3d ac94 503d ff83 82be 1753 033e
00000150: 857b e13d 36e7 073e a0ff 0a3d f746 453e
00000160: 808d 87bd 3ca3 ea3c 6e18 b63c 33db 34bd
00000170: 3cbb 023e 2e57 8ebd 3c69 1d3b 8a88 643e
00000180: 8207 4b3c 9e01 c23d 82b5 0ebe f41b 943e
00000190: 4043 d03d 07bc 0c3e 6ded 963d 55f4 b63c
000001a0: 2de2 f33d bdf4 803d 421b dcb9 b1b4 303c
000001b0: 4369 e1bb 9a15 5d3e 94d0 28bc e5d6 87bd
000001c0: 4667 633d c15c 10bd 3bb5 9e3e 8af7 023e
000001d0: a0a7 3b3e cda7 973e d5da ba3d c088 ebbc
000001e0: 68a3 2cbe 7f63 15be c57d d8bd 11ce 643d
000001f0: 65d7 41bd d037 3f3d bae9 bb3d 40c0 383d
00000200: 3bda 6dbd d72e 49bd 27fe f6bc 916d 413c
00000210: b18e 3dbd acd8 76be 38ce 24be 7e14 42bd
00000220: 1912 40bd 7f0f 0b3e ec99 a0bd 9a54 803c
00000230: d408 7b3e 7b0a b03d 92d5 2d3e 39dd 98bc
00000240: a1de 3dbe d89e d6bc 3838 25bc d518 5fbe
00000250: bb77 9fbd daab 29be f08c 8ebe ef05 783d
00000260: 0ec1 dfbd 2b31 123e f0bd 2f3d 0b2c 0e3d
00000270: bdab 943d b54d 503e 4843 b9bd 456b 053e
00000280: ab44 cebd eddd c33d c668 ebbc d854 873e
00000290: 9dcc 25bd 0b83 f6bd 9019 80bd 5f64 4f3e
000002a0: 53f0 fe3d e23d 1ebe 7bd2 70bd 6e07 5dbd
000002b0: 40fb c23b c7d2 6abd 5ba5 113e 2ad5 c2bd
000002c0: f7b8 9e3d aaea 4c3c f72f 233d f954 0b3e
000002d0: 8765 76bb 4e2d 143c 92e3 143c 1370 153d
000002e0: ec7b f1bd 83d8 b83d 593f 943d fc4a 9abd
000002f0: bde0 c83c 14a5 d2bd 725b dabd 3bda 363d
00000300: dc47 f6bd ebb4 b03d 17cf 9d3d f296 8cbe
00000310: cb21 dc3d d6c8 033e 2499 4cba bc7e 6dbe
00000320: 1774 0c3c f8c6 453d 5dcc 253c 9a40 473d
00000330: f842 36be bfd8 63bd 06f7 293d 6eab b93c
00000340: 4dad 273e 5e9c 2d3e 6993 1bbd 5db5 443d
00000350: 03b4 6f3d a3b9 89bd c2f0 01be 54a2 9abd
00000360: 3d48 b2bd 4097 8fbd 70ed 0cbe 5ae2 9ebe
00000370: f1f2 04be 4978 243d f80f fb3d 161a 08be
00000380: 52d7 f2bc dd4d cabd af02 f33c 1231 dd3c
00000390: 2382 b73d 9520 44be 8d9d a73d a7ee 803d
000003a0: 7819 433d 86c8 013d d132 9a3d 5714 bf3d
000003b0: 92ff e7bd 7a1e bebd bafd 003e 2aa2 f3bd
000003c0: 6eaa 153d 103f 203c 8867 cebd d67e 10be
000003d0: 6dc8 96be e4f6 cdbd c367 e7bc fe11 e23c
000003e0: 31d8 d13d b33b a6be a869 00be 4fe0 61be
000003f0: e085 acbd 80dd 3aba c583 8e3e fa9e 1dbe

lstm.weight_hh_l1 f4 [240, 60]
0.03229867 -0.007960722 -0.024169706 -0.024492458 -0.12168315 -0.10405226 0.024847746 0.029783338
-0.05398479 -0.08469869 -0.09603791 -0.035223268 -0.069449246 -0.062521495 -0.09907611 -0.030688658
-0.08771274 -0.04347059 0.07536855 0.04536502 0.0036129802 0.060871422 -0.010704383 0.11541246
0.071892396 -0.10594669 0.05759296 0.08849113 0.11804561 -0.06800214 0.02150847 0.027186215
0.111024246 -0.041337684 0.098590076 0.06567302 0.1234843 -0.03164962 0.12831695 -0.08984889
0.087638155 0.12909286 0.04760611 -0.10068088 0.016611546 -0.049601622 -0.07764846 -0.0694361
-0.10363129 -0.03432782 0.08231117 -0.028129652 0.10686748 0.0023473054 -0.012357824 0.0076478124
-0.06505528 -0.045632668 -0.030571818 0.005212575 -0.07436408 0.052550256 -0.10150388 -0.03029126
0.0379733 -0.06000182 -0.013617955 0.09346099 -0.10910603 0.07259239 0.111239985 -0.07443279
0.081863865 0.038806364 -0.12076459 0.077096194 0.052901626 0.010110766 0.009643689 -0.05312773
0.008237764 -0.048745252 0.12356754 0.11503029 0.04169205 0.078358054 0.09216608 -0.08829466
0.013100296 -0.114237204 -0.0020858496 0.09794162 -0.12209834 -0.013416231 0.021142721 0.040755168
-0.04965815 0.05261448 0.11083451 0.107379094 -0.076685295 0.0342374 -0.12035711 0.019624129
0.03670451 -0.047793157 -0.05291596 0.034757912 -0.06977872 0.12194382 0.072987705 0.09224993
-0.09887271 0.06620768 -0.12574805 0.08238679 -0.002848059 -0.03764672 -0.07971327 -0.08556834
-0.10895231 0.06774941 -0.044626802 0.100110054 0.058687195 -0.07345177 0.047833696 0.026811734
0.032213345 -0.037031695 0.044387087 -0.06385082 -0.08690111 -0.117117554 0.10337272 0.016413853
0.027471036 -0.051091604 -0.07312447 0.05824144 -0.12164069 -0.05038096 -0.04742776 0.035048142
0.1044534 0.06781742 0.10672061 -0.077147275 0.060471296 -0.052538864 0.010500401 0.03415589
-0.107669026 -0.022146985 -0.025903322 0.084630355 0.07900007 0.1205685 -0.008503675 -0.0746043
0.007297069 -0.1014348 0.11129266 0.011729717 0.06097737 -0.105683 -0.008349165 0.03692566
0.007843271 -0.019823208 -0.05758678 -0.112334415 -0.07135117 -0.1161567 -0.030676484 -0.036869824
0.101683766 0.010136247 -0.0050669834 0.04109113 -0.014827386 0.069979504 -0.05263313 0.11087473
-0.07687935 0.06668447 -0.024321817 0.015703201 0.0972117 -0.10165015 0.0061385483 0.017820492
0.010479793 -0.013993658 0.1171439 -0.05867686 -0.009924516 0.058601886 -0.10605234 0.076343596
-0.10127542 0.11571109 -0.019056194 0.025267974 0.05025722 -0.086878926 -0.1277683 0.09418106
0.12881689 0.10868107 0.1074941 -0.08094235 0.10977957 0.010005876 0.08514343 0.063748285
0.07189819 0.002502501 -0.04718723 0.041536376 -0.118833825 0.101264685 0.0588928 0.010727942
0.04051867 -0.0678 0.022435918 -0.08539331 0.12271212 0.114750534 -0.07797207 -0.106448814
0.013600573 -0.027264893 0.028551325 -0.007740818 -0.04561942 0.039961725 -0.094016686 -0.0793884
0.11078885 0.09240043 0.08665556 0.057573795 -0.060676463 -0.0038336068 -0.05735811 -0.109019145
0.09526195 -0.010839567 0.084827036 0.07462162 0.073832154 0.08137035 0.08365348 -0.020942003
00000000: 9c4b 043d b06d 02bc 8cff c5bc 68a4 c8bc
00000010: 0435 f9bd 5a19 d5bd 808d cb3c 30fc f33c
00000020: 281f 5dbd 8276 adbd 86af c4bd 4646 10bd
00000030: 683b 8ebd 450b 80bd 6ae8 cabd c866 fbbc
00000040: bda2 b3bd 380e 32bd d45a 9a3d acd0 393d
00000050: c0c7 6c3b 5054 793d 7061 2fbc 5e5d ec3d
00000060: 523c 933d 94fa d8bd 98e6 6b3d d63a b53d
00000070: e6c1 f13d b544 8bbd 8832 b03c a0b5 de3c
00000080: ae60 e33d b451 29bd 98e9 c93d 947f 863d
00000090: 56e5 fc3d 08a3 01bd 8565 033e b202 b8bd
000000a0: a27b b33d eb30 043e a0fe 423d c731 cebd
000000b0: f014 883c 122b 4bbd 2806 9fbd 8434 8ebd
000000c0: a43c d4bd 549b 0cbd c292 a83d 2870 e6bc
000000d0: 56dd da3d 40d5 193b 7878 4abc 809a fa3b
000000e0: b43b 85bd 52e9 3abd c071 fabc 40ce aa3b
000000f0: 324c 98bd f03e 573d 44e1 cfbd 6025 f8bc
00000100: e489 1b3d 78c4 75bd d81d 5fbc 7a68 bf3d
00000110: fb72 dfbd 52ab 943d cad1 e33d 3870 98bd
00000120: 3ea8 a73d 6cf3 1e3d 6d53 f7bd 9ce4 9d3d
00000130: 60af 583d a0a7 253c 9000 1e3c 769c 59bd
00000140: b0f7 063c 1aa9 47bd fa10 fd3d 0095 eb3d
00000150: 48c5 2a3d 307a a03d 92c1 bc3d d5d3 b4bd
00000160: a0a2 563c 32f5 e9bd c0b2 08bb 9e95 c83d
00000170: b20e fabd c0cf 5bbc 8033 ad3c e4ee 263d
00000180: 5866 4bbd 4882 573d 34fd e23d 92e9 db3d
00000190: 2e0d 9dbd 843c 0c3d ca7d f6bd c8c2 a03c
000001a0: 7857 163d c2c2 43bd 68be 58bd 505e 0e3d
000001b0: 25e8 8ebd aebd f93d 947a 953d 88ed bc3d
000001c0: c67d cabd e497 873d 19c4 00be 68ba a83d
000001d0: 80a6 3abb 7233 1abd b640 a3bd 743e afbd
000001e0: 6422 dfbd 34c0 8a3d 98ca 36bd 8006 cd3d
000001f0: fc61 703d e26d 96bd 44ed 433d 48a4 db3c
00000200: 24f2 033d 8cae 17bd 3ccf 353d 38c4 82bd
00000210: 36f9 b1bd 54db efbd 14b5 d33d 5876 863c
00000220: f00a e13c 6e45 51bd 48c2 95bd 948e 6e3d
00000230: c11e f9bd 445c 4ebd 9c43 42bd a48e 0f3d
00000240: aaeb d53d dce3 8a3d 5690 da3d 64ff 9dbd
00000250: c0b0 773d fe32 57bd e009 2c3c 0ce7 0b3d
00000260: 9481 dcbd 986d b5bc 3433 d4bc ae52 ad3d
00000270: caca a13d 9eec f63d 0053 0bbc 24ca 98bd
00000280: 401c ef3b 0cbd cfbd 68ed e33d 002e 403c
00000290: 68c3 793d 5470 d8bd f0ca 08bc 5c3f 173d
000002a0: 1081 003c 4864 a2bc 1ee0 6bbd 960f e6bd
000002b0: 9020 92bd 90e3 edbd 404d fbbc d004 17bd
000002c0: 943f d03d 8012 263c f008 a6bb 2c4f 283d
000002d0: 90ee 72bc 6a51 8f3d d695 57bd 4a12 e33d
000002e0: ec72 9dbd de91 883d 8c3e c7bc 00a4 803c
000002f0: ee16 c73d f42d d0bd e025 c93b 48fc 913c
00000300: 70b3 2b3c a845 65bc 24e9 ef3d 2657 70bd
00000310: 709a 22bc 8808 703d f831 d9bd 085a 9c3d
00000320: 7d69 cfbd f0f9 ec3d bc1b 9cbc c8fe ce3c
00000330: 84da 4d3d 94ed b1bd b1d5 02be 00e2 c03d
00000340: 93e8 033e 2e94 de3d de25 dc3d 1ac5 a5bd
00000350: 1cd4 e03d b0ef 233c ae5f ae3d 768e 823d
00000360: 5c3f 933d 0001 243b 6647 41bd 0c22 2a3d
00000370: 265f f3bd dc63 cf3d 9439 713d 40c4 2f3c
00000380: e8f6 253d bada 8abd 88cb b73c b0e2 aebd
00000390: 7e50 fb3d 5402 eb3d d2af 9fbd d601 dabd
000003a0: f0d4 5e3c a05a dfbc 78e4 e93c b0a6 fdbb
000003b0: 6edb 3abd e8ae 233d d28b c0bd 6396 a2bd
000003c0: 44e5 e23d 703c bd3d 7878 b13d 80d2 6b3d
000003d0: e287 78bd 403d 7bbb 56f0 6abd 6e45 dfbd
000003e0: b218 c33d 7098 31bc ccb9 ad3d 38d3 983d
000003f0: 5035 973d 80a5 a63d 8452 ab3d 908e abbc

lstm.bias_ih_l1 f4 [240]
0.07642239 0.058355965 -0.03900285 0.026057828 0.0033159133 0.08578341 -0.16910598 0.10436134
0.11898724 0.09044071 0.0906132 0.07543305 0.24172166 0.087888926 0.33481094 0.23064435
-0.026060775 -0.07915973 0.03403348 0.10620451 0.087832265 0.097168535 -0.027799884 0.03571464
0.3026332 -0.13390528 0.11411589 0.039183617 0.042205155 0.21148054 0.034689598 0.33884707
0.057562113 0.029222243 -0.018368185 -0.14090437 0.0826542 0.08656755 0.21113166 -0.03753064
0.03361007 0.08181321 -0.04805239 0.18520796 0.05759976 -0.023216931 -0.04026401 0.29454395
-0.04907037 -0.079652116 0.1818022 -0.081896864 0.13507135 -0.16202228 -0.09820379 0.050639562
-0.044174302 0.20678397 0.019496068 0.09864683 0.05508119 0.08004691 0.0022988915 -0.06107132
-0.11913216 -0.047457933 0.0364504 -0.01643978 0.109806836 -0.120054334 -0.060340554 -0.0814829
-0.12905852 -0.11362168 0.084261775 0.07366651 -0.015860073 -0.010274097 0.10538313 -0.018271603
-0.011292271 -0.011481971 -0.052677713 0.03206794 -0.05390338 0.0050414503 -0.09030622 0.1079296
0.08718842 -0.06117428 -0.1193932 0.113219306 -0.060347997 0.07869631 -0.02593378 0.00903815
-0.005626872 -0.03282497 0.039872766 -0.015035763 -0.021953486 -0.11200215 0.0712861 0.076471135
0.042740002 0.10039763 -0.07801005 -0.001448527 0.12319793 0.114408135 0.08087213 -0.017339945
0.0105616 -0.019424424 -0.05659669 -0.10134209 0.12565292 -0.018470503 0.10171923 -0.088718906
-0.08662063 0.04967351 0.0734213 -0.0037919325 -0.06456165 0.070707284 0.12452448 0.028405566
0.025209984 -0.09259044 -0.13041112 -0.032704167 -0.065999456 0.10060261 -0.06169556 -0.036930203
-0.06376162 -0.16009656 0.02869904 0.16571641 -0.015233444 -0.09279773 -0.14067914 0.014973575
-0.1235802 -0.015145263 0.0004997023 -0.03455184 -0.11983361 -0.01618968 -0.09247099 0.017813621
0.04771687 -0.06135464 0.09131579 0.1046648 -0.15582407 0.1329435 0.04988217 0.037083484
-0.22139782 -0.100354925 -0.038167614 0.01673696 0.18841057 0.0017911319 0.07355017 0.0132494075
0.0055382084 0.064503714 0.03187837 -0.051613785 -0.042955346 0.1200111 -0.034012437 -0.09102081
-0.1007101 0.11883565 0.041733034 -0.14757751 0.30739555 0.1702926 -0.119725294 -0.026889445
0.18201807 0.077746555 -0.23516403 0.32562128 0.059898265 0.11257616 0.22211061 0.14513722
0.07514325 0.022600785 0.35467803 0.18675801 0.08003826 -0.114519656 -0.008480683 -0.052061062
0.019856455 0.13936362 -0.1360908 -0.04790693 0.09567652 -0.22387174 0.15564974 0.017193139
0.032700308 0.15134418 0.16051477 0.25984067 -0.074899875 -0.037633773 -0.02921465 0.034421664
0.21574572 0.015392857 0.05818044 -0.110900916 -0.065435715 -0.0074780174 0.06927265 0.18624268
-0.07516265 0.11880914 0.15550984 0.3041282 0.025141895 -0.04584778 0.090727516 -0.042173672
-0.024932392 -0.07726358 0.045637358 0.08663723 0.024726259 0.14245151 0.09037641 0.09862147
00000000: 5883 9c3d aa06 6f3d 74c1 1fbd 3a77 d53c
00000010: cb4f 593b 36af af3d 1e2a 2dbe 66bb d53d
00000020: 95af f33d fb38 b93d 6a93 b93d a57c 9a3d
00000030: e285 773e 1cff b33d 576c ab3e 082e 6c3e
00000040: 687d d5bc 7f1e a2bd b166 0b3d c081 d93d
00000050: 67e1 b33d 4c00 c73d 95bc e3bc 8449 123d
00000060: bdf2 9a3e 771e 09be 97b5 e93d 007f 203d
00000070: 50df 2c3d 5b8e 583e ae16 0e3d 5d7d ad3e
00000080: 40c6 6b3d 7c63 ef3c e078 96bc 3c49 10be
00000090: 9b46 a93d 544a b13d e632 583e bab9 19bd
000000a0: b6aa 093d af8d a73d 95d2 44bd 28a7 3d3e
000000b0: baed 6b3d 6f31 bebc e0eb 24bd 77ce 963e
000000c0: 03fe 48bd a620 a3bd 5b2a 3a3e 8bb9 a7bd
000000d0: 2550 0a3e 2be9 25be 121f c9bd 6e6b 4f3d
000000e0: 1df0 34bd 2dbf 533e 38b6 9f3c 5907 ca3d
000000f0: d09c 613d a2ef a33d 00a9 163b ec25 7abd
00000100: 90fb f3bd 4063 42bd 044d 153d b8ac 86bc
00000110: 68e2 e03d 0cdf f5bd a827 77bd 82e0 a6bd
00000120: eb27 04be 7cb2 e8bd 7091 ac3d 78de 963d
00000130: fcec 81bc b054 28bc 1cd3 d73d 54ae 95bc
00000140: 3803 39bc e01e 3cbc 96c4 57bd ac59 033d
00000150: cac9 5cbd c032 a53b 78f2 b8bd 320a dd3d
00000160: d88f b23d e291 7abd 6c84 f4bd 86df e73d
00000170: 762f 77bd 882b a13d 1473 d4bc c014 143c
00000180: a061 b8bb 7a73 06bd a051 233d 9058 76bc
00000190: ccd7 b3bc 6261 e5bd 72fe 913d e69c 9c3d
000001a0: 2410 2f3d 469d cd3d bcc3 9fbd 80dc bdba
000001b0: 324f fc3d d04e ea3d 4aa0 a53d 800c 8ebc
000001c0: 900a 2d3c f81f 9fbc eed1 67bd 718c cfbd
000001d0: 29ab 003e 744f 97bc 2c52 d03d 42b2 b5bd
000001e0: 2866 b1bd 7376 4b3d e85d 963d 1282 78bb
000001f0: e638 84bd fbce 903d b106 ff3d cab2 e83c
00000200: 2b85 ce3c 0ea0 bdbd 7e8a 05be cef4 05bd
00000210: b92a 87bd be08 ce3d 7cb4 7cbd 2044 17bd
00000220: 7495 82bd 5af0 23be 401a eb3c 90b1 293e
00000230: b295 79bc bc0c bebd 310e 10be ba53 753c
00000240: 9e17 fdbd d623 78bc 74fe 023a 3b86 0dbd
00000250: 536b f5bd 38a0 84bc 6e61 bdbd dfed 913c
00000260: c472 433d 014f 7bbd c603 bb3d 805a d63d
00000270: 5890 1fbe 5722 083e 3f51 4c3d dae4 173d
00000280: 1cb6 62be e286 cdbd a555 1cbd f31b 893c
00000290: b3ee 403e 6ac4 ea3a 79a1 963d 0b14 593c
000002a0: dc79 b53b 861a 843d e592 023d fa68 53bd
000002b0: f2f1 2fbd 61c8 f53d a050 0bbd 1e69 babd
000002c0: 1941 cebd 1b60 f33d 42f0 2a3d 8f1e 17be
000002d0: f362 9d3e 2f61 2e3e 8932 f5bd 4147 dcbc
000002e0: f262 3a3e 9639 9f3d d7ce 70be d5b7 a63e
000002f0: e257 753d 548e e63d f770 633e da9e 143e
00000300: b4e4 993d 4825 b93c 5c98 b53e 7e3d 3f3e
00000310: 19eb a33d 4889 eabd 90f2 0abc fb3d 55bd
00000320: 01aa a23c 56b5 0e3e 635b 0bbe 0f3a 44bd
00000330: 0df2 c33d a23e 65be a562 1f3e a0d8 8c3c
00000340: c2f0 053d f8f9 1a3e fc5d 243e d609 853e
00000350: 1b65 99bd df25 1abd 9053 efbc bbfd 0c3d
00000360: 72ec 5c3e 5232 7c3c 9d4e 6e3d 0520 e3bd
00000370: 2903 86bd 280a f5bb d2de 8d3d 67b6 3e3e
00000380: e0ee 99bd 3552 f33d f93d 1f3e b1b6 9b3e
00000390: 60f6 cd3c e2ca 3bbd 59cf b93d 4dbe 2cbd
000003a0: 043f ccbc 5e3c 9ebd 3dee 3a3d dc6e b13d
000003b0: b98e ca3c cfde 113e 4417 b93d 0efa c93d

lstm.bias_hh_l1 f4 [240]
0.08568695 0.06876476 -0.07131865 -0.15906088 0.20567344 0.17655551 -0.0018505699 0.08283842
0.080654815 0.22488274 0.09083447 0.05181259 0.09464829 0.10842214 0.41128594 0.113106035
0.022588314 0.052714247 -0.04731242 0.016096251 0.00923948 0.23083878 0.015758608 -0.12401543
0.21375549 -0.10919155 0.1180988 0.028301854 0.0052060913 0.07415263 0.22401564 0.24662152
0.050485034 -0.0924423 0.09572092 -0.111604065 0.04076179 0.004423593 0.1331435 -0.025374364
0.17572442 0.031685155 -0.11219508 0.07070181 -0.067494996 -0.04923249 0.04743479 0.14308904
0.081183895 0.079026744 0.13045365 0.022166464 0.15408574 -0.06911351 0.11772395 0.014587182
-0.011376517 0.13589992 0.096070655 -0.03099853 0.026187986 0.123640046 0.016777843 0.0868009
-0.036541052 0.055588752 -0.10569298 -0.028962135 0.09863727 -0.036210738 -0.015456058 0.10380407
0.046223253 0.004566461 0.124139294 0.109333694 -0.09744969 0.060351953 0.077134535 -0.12167807
-0.00597585 -0.0022177994 0.06369293 0.06498201 -0.03371001 -0.055672377 -0.06395479 -0.12795721
-0.043283902 -0.08242642 0.122678205 0.12812717 0.03261374 0.10081437 -0.022480115 -0.12037038
-0.0044772625 0.10734494 -0.08789836 0.06880349 0.103384614 -0.12707503 -0.06678121 -0.04678732
0.06642665 0.052448496 -0.032790855 0.032450527 0.028819367 -0.12803735 0.022813112 -0.12228654
-0.097770184 -0.011101134 -0.03616803 -0.115062945 -0.117055945 -0.08068323 0.04654084 0.02913396
0.1527343 0.054624025 0.046055946 -0.10978272 0.062427823 0.14599079 0.13251607 -0.06920266
0.015401784 0.116652355 0.034984663 0.1981152 -0.10457415 -0.045077085 0.17860962 0.020558087
-0.027811484 -0.0438163 -0.032353487 0.08193242 0.024166944 0.009083668 0.032017693 -0.18787934
-0.06327547 -0.072398975 0.031782497 0.015279161 -0.13290097 0.07355852 0.05116996 -0.20967537
0.13239653 -0.0450399 0.014356954 0.15912431 -0.17999318 0.053302933 0.06996828 -0.15762596
-0.06899533 -0.08904021 -0.038728658 0.016652873 0.018851241 -0.03554562 0.0140742315 -0.13120972
-0.045413688 -0.15826769 -0.02776795 -0.06382242 0.06518918 0.00016625272 -0.16049793 -0.033335086
-0.087739326 0.033191368 0.15623204 0.029149964 0.21983314 0.039723523 0.042934537 -0.058322646
0.13507533 0.05521857 -0.030290866 0.26374578 0.16285875 0.1316741 0.088254504 0.096192956
0.14180824 -0.02860839 0.22492099 0.030445416 0.06671274 -0.11488542 0.083450496 -0.088588655
0.020191224 0.2050396 -0.10774018 -0.121041186 0.1050938 -0.2146036 -0.0012768675 0.12588303
0.080935 0.22836614 0.2453391 0.30307704 0.012901005 -0.06730576 -0.010243367 0.091409124
0.10984673 -0.052013837 -0.012663436 -0.14804287 -0.008245042 -0.051555693 0.056908995 0.13136382
0.10533528 -0.07032707 0.12334747 0.24125114 -0.033732396 -0.005472184 0.1823462 0.02096818
0.06162911 -0.03313998 0.13680108 0.019716661 0.04189714 0.09521977 0.09275983 -0.10798047
00000000: a47c af3d 8ad4 8c3d 830f 92bd dbe0 22be
00000010: 0f9c 523e f8ca 343e d28e f2ba 31a7 a93d
00000020: 5a2e a53d a947 663e 6c07 ba3d 7039 543d
00000030: f6d6 c13d 6d0c de3d 1294 d23e 23a4 e73d
00000040: 210b b93c e5ea 573d abca 41bd 49dc 833c
00000050: 3061 173c 0061 6c3e 3218 813c cdfb fdbd
00000060: b8e2 5a3e d29f dfbd c9dd f13d 4ad9 e73c
00000070: dc97 aa3b 56dd 973d 5b64 653e 5a8a 7c3e
00000080: 65c9 4e3d 6352 bdbd 5409 c43d ac90 e4bd
00000090: d6f5 263d caf3 903b c556 083e e6dd cfbc
000000a0: 1af1 333e 4bc8 013d 89c6 e5bd 1ccc 903d
000000b0: d13a 8abd 02a8 49bd fb4a 423d ef85 123e
000000c0: be43 a63d c6d8 a13d a495 053e 7296 b53c
000000d0: a7c8 1d3e 628b 8dbd 4119 f13d 13ff 6e3c
000000e0: 9264 3abc 5929 0b3e b1c0 c43d a1f0 fdbc
000000f0: 3088 d63c fe36 fd3d b071 893c acc4 b13d
00000100: 12ac 15bd 08b1 633d 9075 d8bd 0042 edbc
00000110: 5602 ca3d b651 14bd 683b 7dbc 3a97 d43d
00000120: 9854 3d3d 40a2 953b be3c fe3d 58ea df3d
00000130: b493 c7bd 9c33 773d b6f8 9d3d 5a32 f9bd
00000140: 10d1 c3bb 8058 11bb 7071 823d 4a15 853d
00000150: 8213 0abd b808 64bd bbfa 82bd 3707 03be
00000160: 764a 31bd 2fcf a8bd b63e fb3d c533 033e
00000170: fc95 053d c477 ce3d 3828 b8bc bf84 f6bd
00000180: 00b6 92bb aad7 db3d 0e04 b4bd d8e8 8c3d
00000190: 50bb d33d f51f 02be 96c4 88bd 10a4 3fbd
000001a0: b20a 883d 3cd4 563d b44f 06bd d8ea 043d
000001b0: 9816 ec3c 391c 03be 90e2 ba3c 5e71 fabd
000001c0: bc3b c8bd 88e1 35bc ee24 14bd 1fa6 ebbd
000001d0: 07bb efbd 403d a5bd 9ca1 3e3d 58aa ee3c
000001e0: 6166 1c3e 71bd 5f3d 29a5 3c3d c3d5 e0bd
000001f0: 51b4 7f3d 9c7e 153e 4bb2 073e 20ba 8dbd
00000200: c457 7c3c 6ee7 ee3d 144c 0f3d b6de 4a3e
00000210: f92a d6bd c0a2 38bd 71e5 363e 6f69 a83c
00000220: e9d4 e3bc b878 33bd 1785 04bd 2fcc a73d
00000230: c1f9 c53c aad3 143c fc24 033d 7163 40be
00000240: 9296 81bd ea45 94bd 5d2e 023d 7255 7a3c
00000250: 3117 08be d9a5 963d 9897 513d 24b5 56be
00000260: f592 073e c27b 38bd 6e39 6b3c 7cf1 223e
00000270: 2250 38be 2d54 5a3d 884b 8f3d b368 21be
00000280: 6c4d 8dbd b75a b6bd f1a1 1ebd 9b6b 883c
00000290: eb6d 9a3c 4998 11bd 9b97 663c d75b 06be
000002a0: b403 3abd ed10 22be 9d79 e3bc 54b5 82bd
000002b0: e881 853d 2054 2e39 9259 24be 5f8a 08bd
000002c0: adb0 b3bd acf3 073d 4bfb 1f3e e8cb ee3c
000002d0: f01b 613e 22b5 223d 20dc 2f3d bae3 6ebd
000002e0: 3051 0a3e de2c 623d 8d24 f8bc b009 873e
000002f0: 72c4 263e 93d5 063e c7be b43d d000 c53d
00000300: 2e36 113e 245c eabc b051 663e aa68 f93c
00000310: b0a0 883d 0c49 ebbd 18e8 aa3d f86d b5bd
00000320: 1168 a53c e7f5 513e e2a6 dcbd 71e4 f7bd
00000330: 6b3b d73d 0cc1 5bbe 905c a7ba 7be7 003e
00000340: 40c1 a53d d0d8 693e 2c3a 7b3e ea2c 9b3e
00000350: bd5e 533c 9ad7 89bd ccd3 27bc b534 bb3d
00000360: 53f7 e03d 760c 55bd 4d7a 4fbc 8d98 17be
00000370: 3616 07bc 102c 53bd 6819 693d 3d84 063e
00000380: 06ba d73d a407 90bd 999d fc3d 8a0a 773e
00000390: fb2a 0abd 0250 b3bb f6b8 3a3e 76c5 ab3c
000003a0: ce6e 7c3d cabd 07bd 9515 0c3e d684 a13c
000003b0: 569c 2b3d 9502 c33d def8 bd3d dd24 ddbd
