rnn.pth (torch_old, 309162 bytes, 14 tensors)

lstm.weight_ih_l0 f4 [240, 13]
00000000: c57a 263e ca10 eb3d 8adf 87be a7f9 493e
00000010: 6db0 a83e 4ece 873d c3ab 9f3c ced6 453e
00000020: b844 c5bc 6e7e f5bd c8a9 bb3d 1c7f 943e
00000030: 35d3 083f dc03 72ba 8674 0c3e 0f6d 023e
00000040: 9f1f 643d cd38 0c3e dc87 be3e 88ff 89bd
00000050: 797c 3e3e 03f6 a6bd b97e 0a3f d9eb e13d
00000060: 487c 1e3f b053 36be 62a9 9b3d 7200 3e3e
00000070: 7f05 fbbd 6f38 803c e3ab 4dbc 9a9f 35be
00000080: e97b f8bd b767 c93c 0be4 f43d 23fb f33d
00000090: 0e19 97be 7e2d 103e 379c e03c 2ce1 a53e
000000a0: 6192 8cbe 5236 573d 7f76 a0bd 90bd 07be
000000b0: 944b c7bc 398d d2bd b1a4 373c f367 c23e
000000c0: 7cc5 8a3b 28cf a6bd 3214 2ebe b910 a63e
000000d0: 02c5 ac3e 6e0e 2fbe d9d1 de3d cc31 b63c
000000e0: 6f13 babd 3c67 163e 803c 7f3d 35e3 ccbd
000000f0: 608c 163e 562f 4bbe 36c7 283d f0f2 5ebd
00000100: efa1 dd3e 8801 acbd 6f03 32be a768 d2bd
00000110: d723 4dbe 6c14 70be e900 da3d d942 95bc
00000120: 16d0 0dbe 7ccf eabb 39ba 8f3e 9d4d 1bbf
00000130: 4762 223f 6455 44bf 1b29 ab3d 1323 35be
00000140: 714c 7c3e 7a3a 7e3e 2455 1e3e 34f3 833d
00000150: be6e 7fbd 3b20 643e 2db3 893e 6ddb 9b3d
00000160: 9d59 ca3d c6c2 a93d baaa e93d df49 483e
00000170: 9651 a3bd 92b8 5bbd fefc 083e f125 253e
00000180: f9ce 86ba 42a7 6e3e 0112 973d 43d0 403e
00000190: b898 9dbc 40ac 1c3d 8770 0fbe 9db9 8c3c
000001a0: cae8 c3bb 1aa9 bd3d 6f01 03bf de4d 9bbd
000001b0: a3aa e3bd 0d45 e33d 2e11 10be b258 0fbe
000001c0: 878c 65be e4c3 323e 5dcc 31bc 6611 993d
000001d0: f474 013e 0f91 09be 9c30 31be 5673 573c
000001e0: f481 70be 8b3d 45be eced e6bd b02f 1cbe
000001f0: b368 30be 92ed 963b b475 553e a778 e7be
00000200: 2346 a53e 55f8 6abe 7eb2 bfbd 43be 373e
00000210: 6dfb ecbc 6c98 223e 22ac a2bd a9b9 2bbe
00000220: 2748 ffbc 529c 6abd e903 92bc 46b9 343e
00000230: 9989 963d ceeb 30be b1ff 1dbd cf7d c13c
00000240: 5b4d cd3d d1f5 3cbe a28b c7bc 5a6d 2a3c
00000250: 2c70 ddbd 85ac 0abe a81b f03a 1ace 3fbe
00000260: b148 09bd aa50 243d 7949 0cbe b190 253d
00000270: 5681 a0bd 68ae 7f3e 1a22 73bd e7ca 0cbc
00000280: 6115 933d 59be 3cbd 5d38 8cbe b259 02be
00000290: be3d 30be 76e1 6f3e 9ea1 1ebe cca9 933c
000002a0: b623 a23d 46ae acbd 564e 81bd ae48 e1bc
000002b0: d2a4 aa3d 8c37 2c3e ae0c 773e dda8 64bd
000002c0: db96 ff3d 6961 94bc 8520 2dbd 4de8 0e3e
000002d0: c472 2d3d feb6 df3c 32a7 863e 36ed 3f3e
000002e0: 0599 f1bd f5a7 963d 4241 f03d f31c 4dbe
000002f0: 42b3 273d ca0c 9fbe a951 37bd 419b e33d
00000300: 0e87 6abd e84b 4ebc a92e 103f 0931 e7bd
00000310: 3f6a dd3d 77e9 d6bd 16e9 debd 286c 54be
00000320: a5a9 60bc 621c 4bbe c0e1 a0bc 3f8f 0abe
00000330: aefc b5b9 d042 afbd e56b 183d b051 333b
00000340: 7e05 5a3c 201f b3bd fa2e d23d 574c c33a
00000350: 054f 9f3d 21be 613d 4087 2d3e 98fe 993d
00000360: 3cbf b93d 6555 f2bd b869 4b3e 0910 663d
00000370: d29d 17bd 78e4 c8bd 2277 00be 74b7 9c3b
00000380: e928 d1be c432 5bbe e665 523e 4312 a8bd
00000390: d679 ccbd 1788 45be d052 f83c 1fe9 9ebe
000003a0: 5b36 c33e 18b8 a9be da18 8b3c 1f2e 4c3e
000003b0: 2220 84be a03b 7abe fedf a2bd c5d9 1bbe
000003c0: 87fb 5bbd 4de8 08bd 776d 9ebd 4cc5 8d3d
000003d0: e2fd 7ebd 6226 a63e 1175 5d3e 7716 aebe
000003e0: 8976 5bbb 2aa3 bd3d 1017 923e cdab 85bc
000003f0: cd10 c23c 079b cabd 04c6 b23e 307e 253e
0.1625777 0.11477812 -0.26537734 0.19724141 0.32947102 0.06631146 0.019491082 0.19320223
-0.02408062 -0.11987005 0.091632426 0.29003227 0.53447276 -0.00092321425 0.13716325 0.12736915
0.05569422 0.13693543 0.37213027 -0.06738192 0.1860217 -0.08152392 0.54099613 0.110313125
0.6190839 -0.17805362 0.076006666 0.18554857 -0.12256908 0.01565191 -0.012553188 -0.17736664
-0.12133009 0.024585588 0.11957558 0.11913135 -0.29511303 0.14079854 0.027418239 0.32398355
-0.27455428 0.05254204 -0.07835101 -0.13255906 -0.02432803 -0.10280842 0.011208699 0.37969932
0.0042349678 -0.08144981 -0.16999891 0.32434633 0.33744055 -0.17095348 0.10879869 0.022240542
-0.09085738 0.14687818 0.062313557 -0.10004274 0.14701986 -0.19842276 0.041205607 -0.054430902
0.43287608 -0.083987296 -0.17384122 -0.10273867 -0.20033203 -0.2344529 0.10644705 -0.018220352
-0.1384891 -0.0071658473 0.28071764 -0.60665303 0.6343121 -0.76692796 0.083574496 -0.17689161
0.24638535 0.24826995 0.15462166 0.06442872 -0.06236147 0.2227792 0.26894513 0.076102115
0.098803736 0.08289103 0.11409517 0.1955943 -0.07974546 -0.053642817 0.13377759 0.16127755
-0.0010285071 0.23305991 0.07376481 0.18829446 -0.019237861 0.038250208 -0.1400777 0.017178351
-0.0059786784 0.09260769 -0.5117406 -0.07583211 -0.11116531 0.11097155 -0.14069054 -0.13998678
-0.22416888 0.17457539 -0.010851947 0.074740216 0.1264227 -0.13434242 -0.173037 0.013150057
-0.23487073 -0.19261758 -0.11275849 -0.15252566 -0.1722744 0.0046059573 0.20845681 -0.45209238
0.32280073 -0.22946294 -0.093602166 0.17943673 -0.028928483 0.15878457 -0.07942988 -0.16770042
-0.031162335 -0.057277985 -0.01782413 0.17648801 0.073504634 -0.17277452 -0.038573924 0.02361956
0.1002452 -0.18453147 -0.024358574 0.010402048 -0.10812411 -0.13542373 0.0018318789 -0.18730965
-0.03351659 0.04011599 -0.13699903 0.04042119 -0.07837169 0.24968874 -0.059358694 -0.008593298
0.07181812 -0.046079967 -0.27386752 -0.12729529 -0.17211053 0.2342585 -0.1549134 0.018025301
0.079169676 -0.084316775 -0.063137695 -0.027500477 0.08332218 0.16818064 0.2412593 -0.055825103
0.12479945 -0.018112855 -0.04226734 0.13955803 0.042345777 0.027308937 0.26299435 0.18742833
-0.11796764 0.07356254 0.11731197 -0.20030575 0.040942438 -0.31064445 -0.04475561 0.11113597
-0.057257704 -0.01259134 0.563212 -0.112886496 0.108112805 -0.10493749 -0.10884301 -0.20744383
-0.013712321 -0.19835046 -0.019638896 -0.13531207 -0.0003471127 -0.08557665 0.03721227 0.0027361922
0.0133069735 -0.08746171 0.10262866 0.001490007 0.07778744 0.05511296 0.16946125 0.07519263
0.09069678 -0.11832694 0.19864547 0.056167636 -0.037015744 -0.09809202 -0.12545446 0.0047826115
-0.40851524 -0.21406084 0.20546684 -0.08206608 -0.09984176 -0.19290195 0.030312926 -0.31037232
0.38127407 -0.33148265 0.016979624 0.19939469 -0.25805765 -0.24436808 -0.07952879 -0.15219791
-0.053706672 -0.033424664 -0.077357225 0.06922397 -0.06225384 0.3245116 0.21626689 -0.34001514
-0.00334874 0.09259637 0.2853322 -0.016317273 0.023689652 -0.0989285 0.349167 0.16161418

lstm.weight_hh_l0 f4 [240, 60]
00000000: ba51 61bd 30c4 39bd 88c4 e1bc 0a98 ed3d
00000010: 706d a33d c42f b93d 2106 9bbd 56fa 91bd
00000020: 4fbe b1bd f4a5 583d 48d9 303d 6463 7a3d
00000030: 3084 d8bb 6a8e 803d 1ba4 80bd 6072 9f3b
00000040: 14f8 a03d 466b a03d 50cb d3bb a83f d3bc
00000050: 624f 29bd 10fb a63c 4666 aabd e237 96bd
00000060: de8c c23d be9b 58bd 0405 493d 1040 c2bd
00000070: 9c49 a7bc 8840 ebbc 1e14 dabd 382a f8bc
00000080: c2e4 dd3d 887b abbc 4018 8e3d 32e0 823d
00000090: 319e fdbd 66b0 c23d 3c17 16bd 58b7 ad3d
000000a0: e035 ad3d 50ed 873d a4e1 833d 206c edbd
000000b0: d44e f9bc e465 e8bd 3091 92bd fedc 8d3d
000000c0: 2041 d53c dcb5 d03d 8685 5bbd 5660 bd3d
000000d0: 1072 eb3d 36c1 2dbd b066 52bc e082 8b3b
000000e0: 8844 153d 400f 723c 08f1 073d 0e04 873d
000000f0: 6331 033e 1019 2e3d 4a92 95bd 000d 54bb
00000100: 6a2c 2bbd 6a76 a33d 3129 fcbd 869c 01be
00000110: 24b8 bcbd 507b 12bc 6880 8c3c c9b2 c2bd
00000120: 1e64 7abd 7490 adbd a88f aa3d 8060 013b
00000130: 5cbd e23d a894 4a3d 44ef 3e3d ae96 b4bd
00000140: fc58 bd3d d806 1bbd 1a4d 8fbd 8cf2 b13d
00000150: b28e dfbd 78ec e73d 0470 6f3d 586e ea3c
00000160: e69e a73d a0d7 8e3c 8c4a cebc 601c 4d3d
00000170: 0032 e2bd 808c 4f3d dc81 2b3d ecad 36bd
00000180: 6486 de3d c029 4e3b 84e7 853d da89 f4bd
00000190: 5fd9 94bd 8814 2c3d 99ef cbbd b8a0 a93d
000001a0: ba0d acbd 2834 afbd bcfe 46bd 2068 c8bc
000001b0: e2c8 03be 382f ba3d d8a1 98bd 78d5 b43c
000001c0: 0c27 09bd 2080 c0bc a299 88bd e4a3 b73d
000001d0: 40b5 dc3d 822e b4bd 84c3 363d ca1d 67bd
000001e0: 4e0b ac3d de6b d9bd 4807 97bc 52fd e43d
000001f0: a3e4 d4bd 6232 60bd b44c 67bd 3e28 c5bd
00000200: 6fd0 01be da13 16bd 9272 f53d 9a8e fdbd
00000210: 2263 fa3d 305b 38bd d661 14bd f094 863c
00000220: 64a9 a33d 3a12 a73d 8625 82bd 8c3d 84bc
00000230: d7ed eebd 0074 d73c a5da 023e d8d3 553d
00000240: 0563 013e bc85 1fbd b8b2 34bd 9aa1 cebd
00000250: 6415 5b3d e801 8d3d 2081 b33b 149e 593d
00000260: b81d bd3c d09c b13d 560d 8abd 7c6e b4bc
00000270: 20ca f23d 70cf 003c aaa8 a3bd f8ed a9bd
00000280: bd00 e0bd 80b3 c4bc 705f 133c 624e 9f3d
00000290: 54ba 223d 341c 0dbd e8ba 1e3d a0fb a5bc
000002a0: 164a d83d a8f9 1e3d 2aef b33d 181e ca3c
000002b0: a018 e83d 0c1b d1bc 3e89 1dbd 98b7 cabd
000002c0: 388f e53d 8caf 393d 86ac 8d3d 6855 813c
000002d0: a183 fbbd 547a 913d a828 34bc e2bc c03d
000002e0: 003e 523b 6ec5 f13d 3a0e 85bd 32bf fd3d
000002f0: 12a0 5fbd f82e 89bd 661f e4bd 34ad 043d
00000300: 7e6e dbbd f7e3 cabd 34a8 50bd e0f8 4e3d
00000310: a263 893d 46be 813d da59 aebd c1a6 02be
00000320: c38e 013e e254 8ebd 36ce cfbd ff60 87bd
00000330: 5be6 00be b241 50bd 56cf 35bd 202e 823d
00000340: 9c09 113d 8c04 373d 8c4a 0f3d be40 97bd
00000350: ac87 883d d40e acbd 78e8 23bd c0d3 b13c
00000360: 5fa4 acbd 3a3f ed3d 00ad 83bc 48e3 a53c
00000370: 862d f2bd e3f4 d2bd 7cf7 25bd 7cad 483d
00000380: 8cf0 4d3d 087e 5f3d 081c b1bd e224 4dbd
00000390: f0b4 39bd 7a32 e8bd 70ef e1bd 9cda 8d3d
000003a0: 4a16 fa3d 3a5b ac3d 007b 2dbb 344c d03d
000003b0: 68ce 36bc 70b7 843d 8817 f73c a0f1 85bb
000003c0: be25 f03d ba8c 843d a027 903b 90b3 dd3c
000003d0: ec20 b53d b8d8 46bd 7218 fd3d 6ce6 103d
000003e0: 5094 213c 5de4 8dbd c47d e03d a624 fb3d
000003f0: 587d de3d 0296 8c3d 4ac4 7cbd 32d5 edbd
-0.05500958 -0.045353115 -0.027559534 0.11601265 0.07979858 0.09042314 -0.07569528 -0.07127826
-0.086788766 0.05289264 0.043175966 0.061129943 -0.006607555 0.06277163 -0.06281301 0.0048659295
0.07859817 0.07832961 -0.0064634457 -0.02578719 -0.04133547 0.020383388 -0.08320288 -0.073348776
0.094995245 -0.052882902 0.04907705 -0.09484875 -0.020420842 -0.028717294 -0.10648368 -0.030293569
0.10834648 -0.020932928 0.06938219 0.06390418 -0.12383688 0.095063016 -0.03664325 0.08482236
0.084575415 0.06637061 0.06439522 -0.11592889 -0.030433096 -0.11347559 -0.071565986 0.069269165
0.02603203 0.10190937 -0.053594135 0.0924689 0.11496365 -0.04242059 -0.012841865 0.004257545
0.03644231 0.014774144 0.03318885 0.0659257 0.12811808 0.04250437 -0.07303293 -0.0032356381
-0.041790403 0.0798157 -0.12312544 -0.12657365 -0.092148095 -0.008940533 0.017151073 -0.09506757
-0.061130635 -0.08474818 0.083281815 0.0019741356 0.11071274 0.049458176 0.0466149 -0.08817802
0.09245488 -0.037848324 -0.06997128 0.0868884 -0.10915889 0.113244 0.058456436 0.02861707
0.08184604 0.017436802 -0.025182031 0.05007589 -0.11044693 0.0506711 0.04187189 -0.04459946
0.10865477 0.003145799 0.06538299 -0.119403556 -0.07268023 0.042011768 -0.09957809 0.08282608
-0.08401056 -0.0855487 -0.048582777 -0.024463713 -0.128696 0.090910375 -0.07452744 0.022074446
-0.033484504 -0.023498595 -0.06669928 0.089668065 0.10776758 -0.08797933 0.044620052 -0.056424893
0.08400594 -0.10616277 -0.01843609 0.111811295 -0.103951715 -0.05473555 -0.056469634 -0.09626816
-0.12677167 -0.036640026 0.11984743 -0.12380715 0.12225939 -0.04500884 -0.036226116 0.01642844
0.07991293 0.08157773 -0.06354813 -0.01614263 -0.11666458 0.02630043 0.12778719 0.052203983
0.12635429 -0.0389459 -0.044115752 -0.10089417 0.053487197 0.06885129 0.0054780394 0.05312927
0.02308546 0.08672488 -0.06740825 -0.02202534 0.118549585 0.007861957 -0.079911545 -0.08297342
-0.10937641 -0.024011374 0.008994922 0.07778622 0.039728478 -0.034450725 0.038752466 -0.020261586
0.10561006 0.03881231 0.08785851 0.024672553 0.11332822 -0.025525592 -0.038460962 -0.09898299
0.112089574 0.04533343 0.06917672 0.015787795 -0.122809656 0.0710341 -0.010996021 0.094110265
0.0032080412 0.11805235 -0.06496854 0.12389983 -0.054596014 -0.06698412 -0.11138801 0.032391742
-0.10714434 -0.09906762 -0.05094166 0.050530314 0.067084566 0.0633512 -0.085132316 -0.12758924
0.12652116 -0.06949784 -0.101467535 -0.066102974 -0.12587874 -0.050843902 -0.044387184 0.06356454
0.035409555 0.04468207 0.034983203 -0.073853955 0.06666502 -0.08401266 -0.04001662 0.021707416
-0.08429789 0.11584325 -0.016073704 0.020249978 -0.11825089 -0.10300615 -0.040519223 0.048993573
0.05027823 0.054563552 -0.08647925 -0.050084002 -0.04533857 -0.11337753 -0.11031997 0.06926462
0.122112826 0.084158376 -0.0026471019 0.101707846 -0.0111576095 0.064803004 0.030162588 -0.004087642
0.11725949 0.06472154 0.004399255 0.027063161 0.0884417 -0.048546523 0.12358178 0.035375997
0.009862021 -0.069283225 0.10961488 0.122628495 0.10863751 0.06864549 -0.061710633 -0.116129294

lstm.bias_ih_l0 f4 [240]
00000000: f128 703e 482e 87bd a4c1 4fbc 8944 0d3e
00000010: 5f9d b03e e04c 37be 5adf d63d bd90 803e
00000020: 0b6f 6abe 0670 cfbc 5f0f 9cbc f02c 4abe
00000030: 9ef3 82be 07b8 df3d bb2f 6f3d 41e3 7cbe
00000040: e903 52bd b956 2ebe 3164 e53d 1bc5 6abe
00000050: 5ae6 f33d cdf0 373d 2d43 97bd 65a8 2b3e
00000060: dcdd 713e 87f4 86bd 7ede c3bd 5eb6 35be
00000070: cd6c c23d 13ff 143e d3c0 64be ccb7 823c
00000080: 3f32 823e 79f5 b6be 6c1b 16be 909a 4a3e
00000090: 7d27 ed3d 0ac9 873e 864e 063e faf8 e53c
000000a0: 68ab 863e 3af0 143e 4313 3c3e df0f 0a3e
000000b0: 5d76 503e eba5 843c bbd1 a83d 75cf 42be
000000c0: 4bf0 92bd 7787 7dbe 27f5 8bbe b819 34be
000000d0: bc1c 1a3c 083f 03be 3093 4dba d22e e53c
000000e0: bff0 bb3e 1edb 8abd 7c2a 443d 8b5f 163d
000000f0: 2644 d9bd b401 783d b023 733d 2090 503c
00000100: b054 b13d 00ad fb3c 5eb5 f83d 0063 51ba
00000110: 25f7 cebd dcc2 4fbd 19bb dfbd 009f bcbd
00000120: d60d 84bd 3049 d6bb 7e59 c93d f01e 5fbd
00000130: d8b9 c6bd c83f d1bd 241a d5bd 31d8 f6bd
00000140: e6ef e1bd 6625 b6bd a891 8cbc 94aa 93bc
00000150: d4ce edbd a8bb dfbd d83d f7bd 7e4e 8cbd
00000160: 607e e13b dfdd cdbd 5c5f 90bc 6061 263d
00000170: e403 d73d 9e48 ce3d b93d fbbd 1834 73bd
00000180: 844f 77bd 7820 283d 93e6 bfbd 9a02 cd3d
00000190: baf6 35bd 407f 8dbb 9628 df3d 5ad6 853d
000001a0: cc66 f73d a402 3c3d ac2a dc3d 0c21 333d
000001b0: 002f 5e3d 7a44 d1bd 0088 44ba 9298 f2bd
000001c0: 0843 ff3c 45b6 01be c09b 593d 3174 013e
000001d0: fd3f 003e c270 843d 9ea3 853d 000a 913b
000001e0: 018f eebd 9315 863d 8884 a7bd 0028 53be
000001f0: 6c3c fd3c d87c 18bd 6dec 9bbe 4f1e 513e
00000200: c72b 133e 0453 043e f14f 713d 8398 b83d
00000210: 3515 e43c 2002 e1bd e7f8 123a 6563 2a3d
00000220: faae 2ebe dcd2 0dbe abde bbbd d9d4 493e
00000230: 8904 a0bc 18f0 28be 4fbb 32bd e5b8 7e3d
00000240: 8ec9 d5bd 45de 3f3c ce61 8cbd 8c92 0c3c
00000250: 72e0 92bd c420 2fbe 877f 8ebe 1744 a83d
00000260: 7c01 e5bd 3c0f c43c f010 bb3d 4bb9 1f3d
00000270: 17b6 843d 4ade 153d 0ca2 98be 3e1d a03d
00000280: afb6 33be 4296 5abd 3363 2c3e 7855 58be
00000290: a46b 2a3e 9a35 013e bbf3 5dbe 2eac 0e3e
000002a0: 7105 373e d75f 86bd 0182 b2bd 24ac b3bd
000002b0: 0fa6 ff39 f1ee 70be fe19 08bc 21d3 873d
000002c0: 1c17 46be 53b3 033e 78e9 263e 4bd4 4fbc
000002d0: 82a9 b13e 047e 343e 143e 3bbc 32f5 a23e
000002e0: f43d 0d3e 82c1 3abe 8395 99be 86d9 853e
000002f0: b76e 8dbe 14ed 7f3e 9770 f4bd bf93 00be
00000300: 36e5 18be 83af c3bd fe13 8f3e f7c2 15bd
00000310: e747 3dbd 5514 acbb ed5e 123e 551e 6f3e
00000320: 6123 f23d 50d1 89bd 581b 313d a273 7c3d
00000330: f48f 753e 223e 383e c811 84be ed09 f6bd
00000340: 347f 3fbd b924 493e 2595 193e d688 83be
00000350: 4dfa aa3e 637c 4e3e 17ad 0cbe 6737 4e3e
00000360: 05c6 a43e dd2f 03bd f4b9 14be 6fd8 90bd
00000370: c6bc 3a3e 4840 b23d 104f 113e 9c1b 933e
00000380: 550c 423e 588a 4a3b fda1 bbbd 4995 1abe
00000390: 3545 afbc 803b 503b 3758 1abe de18 8cbd
000003a0: 5b46 42be 9cd4 64be b9b3 56bc 9abc feba
000003b0: 4a59 a93e 17dd 70be ade6 9e3d db34 3a3d
0.23453118 -0.06600624 -0.012680445 0.13795675 0.34495065 -0.17900419 0.1049182 0.25110427
-0.22893922 -0.025321972 -0.019050298 -0.19743705 -0.2557649 0.10923772 0.05839513 -0.24696065
-0.05127326 -0.1702527 0.112007506 -0.22926752 0.119091704 0.04490738 -0.0738586 0.16763456
0.23619789 -0.06589609 -0.095639214 -0.17745349 0.09493408 0.14550428 -0.22339182 0.015956782
0.2542896 -0.35734156 -0.14658898 0.19785523 0.115797974 0.26520568 0.13115892 0.028072823
0.26302648 0.14544764 0.18366723 0.13482617 0.20357652 0.016192397 0.08243128 -0.19024451
-0.071747385 -0.24758707 -0.27335474 -0.17587936 0.009406265 -0.12817013 -0.0007842062 0.027976427
0.36707112 -0.067800745 0.04789208 0.03671221 -0.106087014 0.0605485 0.059360206 0.012729675
0.08658731 0.030722141 0.12143968 -0.00079874694 -0.10105733 -0.05072294 -0.10924358 -0.09210014
-0.064479515 -0.0065394863 0.098315224 -0.054472864 -0.09703416 -0.102172434 -0.104053766 -0.12052954
-0.11032085 -0.08893852 -0.017159298 -0.018025674 -0.11611715 -0.109244645 -0.12072343 -0.06850909
0.00688152 -0.10052084 -0.017623596 0.040620208 0.10498789 0.100724444 -0.12267632 -0.059375852
-0.060378566 0.04104659 -0.093701504 0.10010262 -0.04442475 -0.004318148 0.10896413 0.06535025
0.12080154 0.045900956 0.107503265 0.043732688 0.05424404 -0.10218139 -0.0007497072 -0.11845507
0.031159893 -0.12667187 0.05312705 0.1264198 0.1252441 0.06466819 0.06525348 0.004426241
-0.116483696 0.06547084 -0.08179575 -0.20620728 0.0309126 -0.037228435 -0.30453816 0.20421718
0.14372168 0.12922293 0.05891413 0.09013464 0.027842144 -0.109867334 0.00056065473 0.041598696
-0.17058936 -0.13849968 -0.0917333 0.19710101 -0.019533413 -0.16497838 -0.043635663 0.062188048
-0.10438834 0.011710708 -0.06854592 0.008579861 -0.07171716 -0.17102343 -0.2783167 0.08216112
-0.11181924 0.023933046 0.0913409 0.03899507 0.064800434 0.036588944 -0.29811132 0.078180775
-0.17550157 -0.053365953 0.16834716 -0.21126354 0.16642624 0.12618104 -0.21675007 0.13932869
0.1787317 -0.06561249 -0.087162025 -0.087730676 0.00048761113 -0.23528649 -0.008306978 0.066320665
-0.19344753 0.12861376 0.16299999 -0.012684892 0.34699637 0.17626196 -0.011428375 0.31827694
0.13793164 -0.1823788 -0.2999688 0.2614252 -0.2762353 0.24992782 -0.11935537 -0.1255636
-0.14931187 -0.095549606 0.2794494 -0.036562886 -0.04621115 -0.005251447 0.14294024 0.23351415
0.11823154 -0.06729376 0.043238968 0.061633714 0.23980695 0.17992452 -0.25794816 -0.12013612
-0.04675217 0.19642915 0.149983 -0.25690335 0.3339409 0.20164637 -0.13737904 0.20138322
0.32182327 -0.032028068 -0.1452406 -0.070725314 0.18236074 0.08703667 0.14190316 0.28732002
0.18950017 0.0030905213 -0.09161756 -0.1509601 -0.021395305 0.0031773746 -0.15072714 -0.068406805
-0.18972151 -0.22346729 -0.013104373 -0.001943487 0.33075935 -0.23521839 0.07758842 0.045460563

lstm.bias_hh_l0 f4 [240]
00000000: d20d 2f3e 1799 273e 2345 943d 5465 863e
00000010: 6ce9 713e ba3a 28bd f0d5 d13d 79c3 0c3e
00000020: 7426 b2bd 1ea0 c2bd 063d d1bd 66df 4cbe
00000030: f784 20be 5976 6dbc 16a8 c83d 1356 50be
00000040: 8014 f43c ddec fabd 1cac 0d3d 4c77 a7be
00000050: 64ca 2b3e e4d4 043d 2199 fabc dfd0 9e3d
00000060: bc51 b83d 91db 56bd 2611 20bc c727 533b
00000070: 12de 043e 90bf 4c3e a490 81be 5714 293c
00000080: a39a 813e 095b b0be 40c9 91bd b61d 173e
00000090: fef9 853e 2cd1 093e d2d1 f13d ef13 dfbd
000000a0: 646c dd3d dd3e ee3d a3ad f93d 82e1 043d
000000b0: 1c57 843e 2ac8 febd d266 273e ef83 c7bd
000000c0: 93bb b13d 836e 06be 4e47 84be 8dd2 eb3c
000000d0: c3b1 763d 601a d9bd 688b 113d e004 b13c
000000e0: 5ed0 a83e 9d6c 81bd b113 dc3d aa2f c7bd
000000f0: 410e dcbd c0cc 88bd 103d 243c 5c8d 5abd
00000100: 38f2 6ebd 1018 08bc 2a62 b83d dc6a d13d
00000110: 80c5 65bb f4f7 df3d a42b 5f3d 988a 65bc
00000120: c090 7bbc 0040 6cb8 b2e9 d4bd 005c 96ba
00000130: 4424 afbc 7e33 fb3d ac8d a83d e4a7 653d
00000140: 406e 8e3d 4463 8ebd 3213 65bd 9f1c 033e
00000150: 6eb0 d43d 63ee cdbd 9cc5 91bc 5041 b3bb
00000160: 044c f2bc dab8 943d baf8 8dbd d2ea 22bd
00000170: 949d db3d 943e 8dbd 3a8b 00be 0a58 94bd
00000180: 26a2 9abd d8b9 9a3c b222 9ebd bbc6 babd
00000190: 6ccd c03d 80d0 893c 8d43 f4bd 7089 143d
000001a0: e8e3 cc3c 5a46 55bd ecd5 84bd 6c83 b2bc
000001b0: 6427 bc3d d89f cf3d b860 773d c0c3 383b
000001c0: 289a b63d 58c6 e4bd 7a86 b6bd 2c9d e13d
000001d0: 4b45 a7bd 4ce7 253d 7045 19bc d6e6 a5bd
000001e0: 6a89 59bd e533 26bd 2629 4fbd 7c0b 79be
000001f0: 4e5b ba3d d0ae 1dbd 43a7 92be 62a2 8d3e
00000200: fe90 a8bc f673 563d 064b 773e 2963 2ebd
00000210: d292 df3d d3f8 043e 3d97 ae3d 11e7 a53d
00000220: 0e3d a4bd eb87 b3bd 04d7 1bbe 9435 2c3e
00000230: 7578 8fbd 08ac 37bd 82b3 07be 57e6 453d
00000240: 28ea d8bd 5550 3a3c 3713 18bd 62a2 bf3d
00000250: ac0f a23d d486 51be 519f 9dbe 74b6 26bb
00000260: bbdd 6abe bf3c e43d e4db f03d 3dea 003d
00000270: b235 1c3e c4e9 223e 209d 87be b501 913d
00000280: e4f9 88be c26a 49be 208d 933d a15b 97bd
00000290: 544b cc3c 3b12 2f3d 935b 4dbe 0dd7 8c3e
000002a0: 9994 2d3e 3f6a 423d 38ca c23d 57de 05be
000002b0: 8011 903d c742 09be b786 0c3d 7ab2 073e
000002c0: 974d a3bd 6176 65bd 366d 093e 90d6 c1bc
000002d0: 6bec 923e 4f3a 853e ba84 c9bd ead1 843e
000002e0: 8e6d 103c ba22 c4bd 5d7f 5bbe 29ae 273d
000002f0: 2489 46be 1f8d a73d 40d7 e6bd c450 243d
00000300: 5250 ffbd 7795 8ebd 5921 cd3e 698b 52be
00000310: 0779 ebbd d9e2 acbd 3ae7 033e a83b 123e
00000320: 5db1 a63d 5aee 8fbd 123e ee3d 9edd 563c
00000330: cacf fb3d 6721 5b3d 1d21 7cbe 936a 12bd
00000340: f2aa babc ded1 ee3d 1b77 823e 7382 aebc
00000350: 63a4 d13d e4a9 223e c95f c7bd a956 fe3d
00000360: d8ab 343e a7f4 79bd a27e 50bd ac6f d13d
00000370: 2241 583d 6ad1 883d 71c5 543e 47a3 7b3e
00000380: e359 3a3e 399b 9fbd 7342 b3bd 280f 10bd
00000390: ace0 c63c d2ce 30bd 7513 f8bc 32b3 12bd
000003a0: 8b18 abbd 095b 48bd a22b d8bd 01a0 bb3d
000003b0: 7de8 963e 67b1 45be 222b 7c3e 03d0 193d
0.17095116 0.16366993 0.07239749 0.26249182 0.236242 -0.04107163 0.102458835 0.13746442
-0.086987406 -0.09503196 -0.102167174 -0.20007095 -0.15675722 -0.014493548 0.09797685 -0.20345335
0.029794931 -0.12252209 0.034587964 -0.32708204 0.16776425 0.03242959 -0.030590596 0.07754683
0.089999646 -0.05245549 -0.0097697135 0.0032219754 0.12975338 0.1999495 -0.25305665 0.010319791
0.2531329 -0.34444454 -0.071184635 0.14757428 0.2616729 0.13458699 0.11807598 -0.10892474
0.108116895 0.11633084 0.12191322 0.032441624 0.2584771 -0.12440522 0.16347817 -0.09741961
0.08678355 -0.13128094 -0.2583565 0.028786922 0.06022812 -0.10600734 0.03553334 0.02160877
0.32971472 -0.063195445 0.10745943 -0.09725888 -0.10744906 -0.06679678 0.010024324 -0.053357467
-0.058336467 -0.008306518 0.09003098 0.1022546 -0.0035060346 0.10935965 0.05448498 -0.014010094
-0.015354335 -5.632639e-05 -0.10396136 -0.001147151 -0.021379597 0.12265681 0.08230147 0.056068316
0.06954622 -0.06952527 -0.05592651 0.12803887 0.10385214 -0.10055234 -0.017794423 -0.0054704323
-0.029577263 0.0726182 -0.069322065 -0.039774723 0.10723415 -0.068967015 -0.1255311 -0.072433546
-0.075504586 0.018887445 -0.07721461 -0.09119936 0.09414181 0.016823053 -0.11926947 0.036263883
0.025011018 -0.052069046 -0.06486115 -0.021791182 0.09187201 0.1013791 0.060394973 0.0028192848
0.08916122 -0.111706436 -0.08912368 0.11016306 -0.081675135 0.040503785 -0.009354934 -0.08100669
-0.053109564 -0.040576834 -0.05057635 -0.24320787 0.09099446 -0.038496792 -0.28643236 0.2766295
-0.02057695 0.052356683 0.24149713 -0.042575035 0.109166756 0.12985544 0.0852494 0.08100713
-0.08019458 -0.08766159 -0.1521874 0.16817313 -0.07005397 -0.044841796 -0.1325207 0.048315372
-0.10591537 0.011371692 -0.0371277 0.09357144 0.079131454 -0.20461589 -0.3078561 -0.002543834
-0.22936146 0.11144399 0.11760691 0.031473387 0.15254858 0.15909487 -0.26487064 0.07080404
-0.2675315 -0.19669631 0.07204652 -0.07390524 0.024938263 0.042741995 -0.20054464 0.2750782
0.16951217 0.047464605 0.095112264 -0.13073097 0.07034588 -0.1340438 0.03430816 0.13251677
-0.079737835 -0.056021098 0.13420567 -0.023661882 0.28695998 0.26021048 -0.09839769 0.25941402
0.008815182 -0.09576936 -0.21435304 0.040937576 -0.19388252 0.081812136 -0.112715244 0.040116087
-0.12466492 -0.06962102 0.40064505 -0.20560993 -0.114976935 -0.08441705 0.12881175 0.1428057
0.08139298 -0.07027884 0.11632933 0.013114361 0.12295492 0.05349865 -0.24622007 -0.03574617
-0.022786591 0.11661123 0.25481495 -0.021302437 0.102364324 0.1588512 -0.097350664 0.12418873
0.17643678 -0.061024334 -0.050902016 0.10226378 0.05279649 0.066805676 0.20778443 0.24574004
0.18198352 -0.07793278 -0.087529086 -0.035170704 0.024277054 -0.04316599 -0.030282715 -0.035815425
-0.083542906 -0.048914943 -0.10555197 0.09161378 0.2947425 -0.19305955 0.24625829 0.03755189

lstm.weight_ih_l1 f4 [240, 60]
00000000: af42 b3be 521c 103f 42bd 5f3e 2c52 3abd
00000010: aff7 a53e 3290 c8be 2508 213e d8b3 043e
00000020: 3f2f e03e 748b ca3e 406e 143e 859f 8e3d
00000030: 4933 013e 7a87 3e3d f868 3cbd 0034 ec3d
00000040: aea7 dfbc e501 debe ec6a 983d a011 c9bc
00000050: 9fac d2bd 74f6 ffbd 0f4b b0be 6839 673e
00000060: b9bb a6bd d8f0 0e3d 8f3a 813e 3610 17be
00000070: 5b03 9dbd 305d 6c3e e125 8e3d 1977 45bd
00000080: cdaf 2fbf 793c 2cbd fa04 c3bd 6a40 dfbc
00000090: 516a 993e 8cf8 aa3e b84c 8a3d 3d27 c83e
000000a0: 5439 fcbd 9860 62be 05db 2fbd 7d48 e33c
000000b0: 0d95 76bd 57e8 8bbe aed0 40be fde2 7abe
000000c0: 50f5 cabd e58f 6abc 7f9c 11be 2369 af3d
000000d0: ecaf 98bc 08fc debd a4bd 20bf 95f5 3d3e
000000e0: 337a 39be 27cd 483d 05de 623d fc8c 4d3e
000000f0: c0a5 96be 6c2f b33e 8896 853e 8d64 59be
00000100: 5969 bb3e 1951 0b3f c99e f43d cf7a 4a3e
00000110: ed51 ef3c 4d9f 4cbd 393f 963d e5a0 c9bc
00000120: b666 813e 34bc 13be b6e3 0fbe f5f3 8b3c
00000130: e264 ffbd aac4 9f3e b73b 493c f9b4 5dbd
00000140: f941 11bf 1b61 973d 7b6e 41be d24d e63d
00000150: d686 fb3d 6556 78bd 2be8 2ebe edb9 28be
00000160: b4d5 15bd 55be e9bd bb8c 62bd 524d 58bd
00000170: c25c fdbe 1214 ebbd 96cd 2e3e 9f21 40be
00000180: 3f50 863d 2d46 d93a 943a adbe 39ed 22be
00000190: b5d0 a7be e2c3 de3d 3a29 133e 3173 e3be
000001a0: de98 d0be 0f1d ec3c a024 743d 2119 16be
000001b0: 95e1 c23e 3366 083e c995 3d3e e394 a3bc
000001c0: 0eaf 683b 55ba 02be ad76 1c3f e1a1 ff3d
000001d0: fd08 2abf e9b7 10be 9615 0cbe e261 533d
000001e0: 6f1c ccbe 922a 683e 2fdb 94be 9de2 fcbe
000001f0: 86eb 4ebd 3f85 bfbe 0814 203e b116 613e
00000200: 7f42 4ebd 46bd bbbc 11fb 39bc 37c4 e33c
00000210: 44fb 55bd 497c 8abd 3155 99be 3803 4ebd
00000220: 5cb8 823d 55ab ab3d c842 1fbe 2b5c 02bf
00000230: 5f3f f8be 4cb3 b6bc 8aa8 81bd e8bb adbe
00000240: 69d9 24be 3b3e b73e 79a7 0d3e f9f8 b13d
00000250: 0e99 e0be 53b6 e5be 4e03 d2bd c63d ec3a
00000260: 062e febd 6d4f 583e 1cc4 cb3e 4a6e d33e
00000270: d63a b63e d706 8ebe 191b 77be 1595 6e3e
00000280: 3058 94be 7c16 e4be 402f 303f 776f 39bf
00000290: 69fe 823e e0f2 803f 3f45 643e 69ef c03d
000002a0: 4a6e 973e 8dc2 393c 5df1 3e3e 6f52 b73d
000002b0: 0a5a 2abe 4548 873d 5147 a1be 082e 933d
000002c0: 0f51 c6be 8515 6dbe b658 ab3e 8d8d 8fbe
000002d0: ea66 5bbe 247a a83e 9d7d 7c3e 8304 ce3d
000002e0: 6eeb 373d 2612 ecbe 85fb 10be 6e51 67be
000002f0: c1f1 343e 7032 0ebe 0dcc 9b3d 7b96 3cbd
00000300: 34e1 823d 4330 b5bd c699 913c 4d0a 113e
00000310: a272 fb3c c23d b3be 81f1 763e 8385 07be
00000320: 46a4 733d 2823 01be 4fb4 953e 1d4e c83e
00000330: 25bb 803e 4c23 49bd b87f 1bbe ea1d 12be
00000340: 09be 253e 2952 bb3d 585f 5cbe 70bd f2bc
00000350: b807 d73d 6074 8bbe 7aa2 8fbe 61c0 3dbe
00000360: 18dd f6bd 7faa 21bd 452d c23d 04d1 b73e
00000370: ee4c 0abd 9609 463e a91b 41be ce1e 283e
00000380: c5af 5d3d 3102 fcbd c638 783e 820a 08bd
00000390: a000 72bd 63e7 f73c 21b1 543e 88c0 093e
000003a0: 9998 ba3d 865e 893c b96a 0fbe 9cbf 0e3e
000003b0: d202 8bbe e3e6 4fbd 0656 a3bd 06b5 5f3e
000003c0: ac39 a4be 2823 683e 86ed cd39 228d 8ebe
000003d0: 08aa 29bd c223 23bf 3f75 293e 2123 6c3e
000003e0: 2c7d c93e dbbb ae3d 1a53 eebc c52e 723d
000003f0: 2216 6d3e 27bf 9c3e ad5b 26be e516 483e
-0.35011813 0.56293213 0.2184954 -0.04548852 0.3241553 -0.39172512 0.15725763 0.1295923
0.43786046 0.3955952 0.14495182 0.0696402 0.1261722 0.04651592 -0.045998544 0.11533356
-0.027301636 -0.4336082 0.07442269 -0.024544537 -0.10286831 -0.12498179 -0.34432265 0.22580492
-0.08141274 0.034897655 0.2523999 -0.14752278 -0.07666656 0.23082423 0.069408186 -0.048209284
-0.68627626 -0.04204986 -0.095224336 -0.027252395 0.29963925 0.3339275 0.06752914 0.39092436
-0.12315622 -0.2210716 -0.042933483 0.027744526 -0.06020074 -0.273257 -0.18829605 -0.24500652
-0.09910071 -0.014316534 -0.14219855 0.08564975 -0.018638574 -0.10887915 -0.6278937 0.18550713
-0.18113022 0.049023774 0.055387516 0.20073313 -0.29423332 0.34997118 0.2609141 -0.21229763
0.3660381 0.5442062 0.11944348 0.1977341 0.02921387 -0.04995661 0.073362775 -0.024612853
0.25273675 -0.14427263 -0.14051709 0.017084101 -0.12470414 0.3120473 0.012282304 -0.054127667
-0.5674129 0.07391568 -0.18889801 0.11245312 0.12281577 -0.060629267 -0.17080753 -0.16477175
-0.036580756 -0.11413256 -0.055309992 -0.052808113 -0.4948483 -0.114784375 0.17070612 -0.18762825
0.065582745 0.00165767 -0.33833754 -0.15910806 -0.32776418 0.108772054 0.14371195 -0.44423822
-0.40741628 0.02882245 0.05960524 -0.14658023 0.3806273 0.13320236 0.1851417 -0.019968456
0.0035504731 -0.12766393 0.61118585 0.12482048 -0.66419965 -0.14132656 -0.1368011 0.05160702
-0.39865443 0.2267249 -0.29073474 -0.49391642 -0.05051758 -0.37406346 0.15632641 0.21981312
-0.050356384 -0.022917401 -0.011351363 0.027803523 -0.05224158 -0.06761987 -0.29947808 -0.05029604
0.0638282 0.08382288 -0.15552819 -0.5092189 -0.48485848 -0.022302292 -0.063309744 -0.33932424
-0.1609856 0.35789666 0.13833417 0.08690066 -0.4386677 -0.44865665 -0.102545366 0.0018023781
-0.12411122 0.21124049 0.39798057 0.4129508 0.35591763 -0.27739593 -0.2413143 0.23299058
-0.28973532 -0.44548404 0.688221 -0.72435707 0.25584725 1.007412 0.2229204 0.09420664
0.2957633 0.011337888 0.1864676 0.0895127 -0.1663591 0.06605581 -0.31499723 0.07186514
-0.38733718 -0.2315274 0.3346612 -0.28037682 -0.21425977 0.32905686 0.24657293 0.10059454
0.044902258 -0.46107596 -0.14158447 -0.22589657 0.17670347 -0.13886428 0.07607279 -0.046041947
0.0639061 -0.08847096 0.01777352 0.14164086 0.03069431 -0.35008055 0.24115564 -0.13234524
0.059482835 -0.12611067 0.29239127 0.39122096 0.2514278 -0.049105927 -0.1518544 -0.14269224
0.16185774 0.0914653 -0.21520746 -0.029631346 0.10499519 -0.27237225 -0.28053647 -0.18530418
-0.12053889 -0.03946924 0.09481291 0.35901654 -0.033764772 0.19339594 -0.18858208 0.16418001
0.054122705 -0.123051055 0.24240407 -0.033213146 -0.059082627 0.030261701 0.20770694 0.13452351
0.09111137 0.016768705 -0.14005555 0.1394028 -0.2715059 -0.0507573 -0.07975392 0.21846399
-0.3207525 0.22669661 0.00039277616 -0.2784205 -0.04142192 -0.6372644 0.16548632 0.23060276
0.3935331 0.08531924 -0.02909236 0.059126634 0.23152974 0.30614588 -0.16245909 0.19539984

lstm.weight_hh_l1 f4 [240, 60]
00000000: 2a4a 84bd 6079 0c3d 6b7c f6bd 004d 1cbb
00000010: 0c0a 79bd f851 9d3d 0d6e a0bd aa0e a1bd
00000020: a803 b83d 94ec 103d da45 853d 555b 01be
00000030: bcc0 0e3d e446 673d e8c4 63bd 0027 3bba
00000040: 584f fd3c c496 103d 06e8 dbbd cafb 8e3d
00000050: 3e2c ba3d 6ea4 17bd dcce b0bd 6a75 fa3d
00000060: fa08 35bd 208c 03bd abdd dcbd 48c7 9ebd
00000070: d249 f33d d09b 433d 0668 4dbd 48b2 75bc
00000080: 6c1c 8d3d 82b5 d13d 5cac 063d 00c0 22b7
00000090: 616c abbd 12c8 d53d fcf0 d13d 8e61 6fbd
000000a0: 8319 d1bd 06d6 8abd 5c44 4c3d c0b0 b5bc
000000b0: 82f4 a7bd e4f6 1e3d 249f c0bc e83b 8e3d
000000c0: bf2c cbbd 5a69 9a3d 151f f1bd 7889 893d
000000d0: 5c47 5a3d d6d3 a2bd 0cca 163d 1421 e2bd
000000e0: d083 fa3c 8a00 babd 0cbc 4bbd 9eae 02be
000000f0: 609c fbbd 103d 143d ea44 33bd f409 db3d
00000100: 99cf a1bd b61a 2ebd 76e2 49bd 92e7 df3d
00000110: 897c f7bd 5c55 993d 1a1f dd3d 7c63 7dbd
00000120: 6c73 eebd e879 ad3c 38b5 c13d 2cee 523d
00000130: bc16 44bd 65c9 c0bd b217 acbd 2bfa e4bd
00000140: 488a a93d d576 aebd 686f 34bc d908 aebd
00000150: f835 b23d 00a6 273b ce56 f8bd dc7b 373d
00000160: 0e2e 6abd 0c24 c23d 96ff fabd 2d24 edbd
00000170: e0e5 b83b b219 f83d e750 99bd 80be 0a3d
00000180: 80ab 13bb 0a5e 00be 5c11 4b3d f482 9c3d
00000190: 3e03 3cbd 8bd4 d3bd c583 003e c07b 6b3c
000001a0: 1de1 003e 402b ee3c b8e8 883c e2e2 babd
000001b0: e4fe 16bd eadf f13d f80e 6cbd 1859 e13d
000001c0: 28ce e1bd 1617 f53d 6830 4abc ac8d 9fbc
000001d0: eb70 cdbd 18d3 2cbc 3cae 263d 920d d93d
000001e0: e84a fd3c 7820 433d 28b7 553d 2204 8f3d
000001f0: 0888 74bd 2017 b1bd 2889 01be 5abf e23d
00000200: e019 1fbd 3084 df3c 4682 8d3d f02c 153c
00000210: e039 9c3b c09e 0a3b aaa1 8abd 0033 f0bc
00000220: 0071 3e3c 6271 98bd fc02 aa3d 8044 bd3b
00000230: 724d fd3d f042 22bd 2c0f 5b3d ace8 203d
00000240: 1072 d03c 4c83 4c3d 5633 c23d c49b b6bd
00000250: 2c8c f73d 341b 0b3d e8e1 363d 44e2 13bd
00000260: 70e6 4abc e04c ac3b 201a e43d 36f0 f13d
00000270: cece d4bd a834 af3c bcab b9bd 1cfb cbbd
00000280: d8e8 d93d 36a2 31bd a229 cabd 0070 e7b9
00000290: 466a 81bd da27 febd d23d f83d 6a5e 27bd
000002a0: 58c7 a63c fb06 f8bd fb30 c1bd 9a48 02be
000002b0: a0df d13b e48a 95bd f0ef 94bc 108e 0fbd
000002c0: f7a2 dfbd d8ad f13c f857 213d 2caf d93d
000002d0: 9081 a03c 5e48 903d 142c 73bd 8a8f b13d
000002e0: 229e 6fbd 7a13 e43d 16d2 f4bd 6228 fc3d
000002f0: d550 c8bd 5254 7ebd 3030 d23d c277 aabd
00000300: c24d dd3d 3c78 9b3d d19e d7bd 003b 763a
00000310: d207 62bd 00c1 dd3b ca8e c83d 68d8 20bc
00000320: af07 85bd 9162 dbbd 60fd adbd 9e53 c33d
00000330: 002a e63c f29b d43d 1c2d b83d b4dd 88bd
00000340: 14c5 c93d 9ed4 f53d e594 c1bd 8048 ebbd
00000350: 7e7b 24bd a2fc b73d c83a c4bc 5a6e d6bd
00000360: 1284 ccbd 049b e23d 7880 5bbc 5625 01bd
00000370: f4eb 8d3d 26b9 a1bd 3a01 943d 4875 863c
00000380: 62b3 92bd c0ac 4b3c ed5c d5bd 98d8 7b3d
00000390: 2ea3 a73d 80dd 74bb 180c f5bc 94dc bb3d
000003a0: 0850 5b3d 568f 9f3d 7783 87bd 7428 7a3d
000003b0: 1e7f efbd 868f c6bd a8c2 973d 803b ddbd
000003c0: 4123 04be f802 d2bd bec0 e2bd 5085 c7bb
000003d0: 32d2 6bbd 007b 0cba 68bc 4e3d bacb d53d
000003e0: e032 903c 40cb e9bc 04f3 f9bd 54b0 993d
000003f0: b657 f53d 308a 89bd 4c3c b1bd e4ac 523d
-0.06459458 0.03429544 -0.120354496 -0.0023849607 -0.060800597 0.0768165 -0.078334905 -0.07864125
0.089850724 0.03538187 0.06507464 -0.12632497 0.034851775 0.05646409 -0.055607706 -0.00071392953
0.030921623 0.03530003 -0.10737614 0.06981619 0.0909047 -0.037022047 -0.08633205 0.12229426
-0.044198014 -0.032116055 -0.10784467 -0.07752854 0.118793145 0.047756016 -0.050148033 -0.014996119
0.06890187 0.10239698 0.03287922 -9.700656e-06 -0.08370281 0.10438551 0.10251042 -0.058442645
-0.10209944 -0.06779103 0.04986988 -0.022179008 -0.08200933 0.038809672 -0.023513384 0.0694502
-0.09920644 0.075396255 -0.117735066 0.06715673 0.05329071 -0.07950561 0.03681378 -0.110414654
0.030580431 -0.09082134 -0.049739882 -0.12761924 -0.122856855 0.036191046 -0.043766893 0.10695258
-0.07900924 -0.042505942 -0.049288236 0.109328404 -0.120843 0.07486984 0.10796948 -0.061862454
-0.11643109 0.021176293 0.09458393 0.05149667 -0.047873244 -0.09413413 -0.08402957 -0.11180528
0.08278328 -0.08518759 -0.011012889 -0.08497781 0.087017 0.0025581121 -0.12125932 0.044795856
-0.057172827 0.09479532 -0.122557804 -0.115791656 0.0056426376 0.12114276 -0.07486134 0.03387308
-0.0022532642 -0.12535873 0.049577102 0.07642165 -0.04590153 -0.10343274 0.12550266 0.014372766
0.12585874 0.029073358 0.016712531 -0.09125306 -0.036864176 0.11810286 -0.057631463 0.110033214
-0.11025649 0.11967294 -0.0123406425 -0.019476734 -0.10031303 -0.010548376 0.040693507 0.105982915
0.030919507 0.047638386 0.052176625 0.0698321 -0.059700042 -0.08646989 -0.12649977 0.11071654
-0.038843036 0.027284712 0.06909613 0.009104952 0.0047676414 0.0021151751 -0.06769116 -0.029321194
0.011623621 -0.07443501 0.083013505 0.005775988 0.12368287 -0.039614618 0.053481266 0.039284393
0.025445014 0.049929902 0.09482448 -0.08916429 0.120872825 0.03396149 0.044649035 -0.036104456
-0.012384042 0.0052581877 0.111377954 0.11813395 -0.10391007 0.021387413 -0.09065959 -0.09960005
0.106401145 -0.043367587 -0.09871222 -0.000441432 -0.06319098 -0.12409945 0.12121166 -0.040861525
0.020358726 -0.121107064 -0.094331704 -0.12723008 0.006404832 -0.07301882 -0.018180817 -0.03504759
-0.10919755 0.02950184 0.039390534 0.106291145 0.01959303 0.07045053 -0.059368208 0.08669956
-0.058500417 0.11136527 -0.11954133 0.1231239 -0.097810425 -0.062092133 0.10263097 -0.08323623
0.10805847 0.07591292 -0.10528339 0.0009392947 -0.05518324 0.006767392 0.0979286 -0.00981722
-0.06495606 -0.107121594 -0.08495593 0.09537433 0.028096199 0.10381307 0.08992979 -0.066829115
0.09852043 0.12003444 -0.094522275 -0.11488438 -0.040156834 0.08983733 -0.02395381 -0.10470267
-0.09986128 0.11064723 -0.013397329 -0.031529747 0.0692977 -0.078966424 0.072267964 0.016413346
-0.07163121 0.0124313235 -0.10418115 0.061485857 0.08185421 -0.003736347 -0.029912993 0.09172931
0.05354312 0.07791011 -0.06616872 0.061073735 -0.116941676 -0.09695344 0.074101746 -0.10802364
-0.12904073 -0.102544725 -0.11071919 -0.00608889 -0.057573505 -0.00053589046 0.050472647 0.104392484
0.017602384 -0.0285393 -0.12204555 0.07504335 0.1197962 -0.0671581 -0.08654079 0.051434413

lstm.bias_ih_l1 f4 [240]
00000000: ea3c 003e acfe 193d 6aaf 9dbc 0ac4 76bd
00000010: bd54 bc3e 7361 ddbd 3537 5dbd 13f1 613e
00000020: dfc3 a3bc 3829 ec3c da08 f43d c2fc 653e
00000030: aff0 85bd b99a 173b f9e7 e1bd 3f19 92bd
00000040: 68d6 853c 9227 83ba 7c76 33bd f6f9 323e
00000050: a4a8 46be 67a3 583d 597a 963e 8d94 4fbd
00000060: 5986 fabd 4807 6bbe cb85 57be 15c6 05be
00000070: 2b76 6ebd 8ef7 453e 885c 743e 3514 f43c
00000080: 0a25 e4bc eaf1 cb3d 91aa 74bd d339 9cbc
00000090: ab5f 5fbd 5c85 ae3c a385 98bd f85f 2d3e
000000a0: 9d88 09be f1b4 563e 0694 d9bd e1e6 873d
000000b0: 174b 14be c562 0dbd 9e08 0f3c 18c4 283c
000000c0: 05d6 a5bc 2182 ddbd 1472 21be 1ce9 19be
000000d0: cb56 bb3e 6880 5dbd bcb7 eb3c b68c 113e
000000e0: 1bcc 49bd 399d 2f3e 0925 283e 1306 983c
000000f0: 982b 333d c016 4c3b d080 51bc 7c12 bd3d
00000100: c030 3f3b d03a bebd 4a08 8fbd c0f8 c43b
00000110: ccbc a7bd 403a a93b 5053 febb bc27 773d
00000120: af33 023e 20d2 873c 7c63 493d 5e64 f2bd
00000130: d85d 10bd 4eca 64bd 581d e83c ac48 e73d
00000140: 2e51 28bd 0469 9cbd 88b6 6c3d a819 ed3c
00000150: 2f67 febd a838 763d e243 85bd 703c 1fbd
00000160: f4fc 493d 4472 263d b0a0 b93c 0e4b 8f3d
00000170: bc09 99bd 48eb 7abd 30b6 04bc 063a ce3d
00000180: ecaf b33d ee30 d0bd 7842 f43d b656 a0bd
00000190: 4057 85bd ec2f 1d3d 0cbe a6bc c622 9fbd
000001a0: b4d8 ac3d 9808 943d 3cc4 c8bc 93a0 fabd
000001b0: 282f 8b3c bc08 233d 988f 23bc c8ff 05bc
000001c0: ded5 aebd cc72 933d 7059 01bc 6a26 97bd
000001d0: c40f 2cbd 9865 dfbc 03b4 abbd b0ad c63c
000001e0: 0a3d 64be ffbd bcbc c61c 0dbe 80e3 14bd
000001f0: 59fc 29bc 9ac3 17bd 705a eabd c4b6 19be
00000200: f351 00be f873 c83d b8b2 3cbd f2b3 84bc
00000210: 1d6f 253d c388 b3bd 5bd3 a9bd f275 093c
00000220: 6cb7 1c3d 6b6e 74bd 6c59 3e3e 9615 33bd
00000230: 197b bb3d 0e85 20bd 9088 66be 884f f03c
00000240: 610e 4dbd 00a5 5f3e bfe3 c0bd 2ca5 6ebe
00000250: 177b 13be eb1b c23d dab4 243e 3887 88bd
00000260: ba5b 3c3e 80da 843d f10a 8dbd 4db3 373d
00000270: a1ed 593e 9e3e f83c da79 55bd cf3c 18bb
00000280: 9ad5 653d 160d d0bc 1c2a 0fbe 5f11 79bb
00000290: d87c f5bd 7f2d eabd ca4d 093e df46 383d
000002a0: f466 c1bd 2aed 243c 7390 56bd a0d2 92bd
000002b0: a1f5 ad3c 8cf3 6abc 1c9f 53bd 4712 9f3d
000002c0: 166b 6c3d c1a6 4fbe c694 1b3e 6aa1 403d
000002d0: b3c9 153e 2c82 d4bd 43f7 0dbd 6f13 60be
000002e0: b8c1 bf3e 46e6 7dbe 54b6 4dbd 0b17 943e
000002f0: 7efc 83be 275d 373e f24d 4dbd b511 8e3d
00000300: 1f59 6fbe d9c3 1c3c 4a4c 96bd a91f a93b
00000310: 7325 25be 0dfc 423c 6294 1ebe a9c4 f43d
00000320: ff4a 9dbd 7c5e 293d b834 813d 6017 873d
00000330: baf9 69be 30cc e5bd 6e4e 76be fd68 25be
00000340: 63bd 213d 3994 b53e df8d 663e 6bbf d7bd
00000350: ccbd bcbb 8c12 0c3e 84df 9abd 1b18 0bbe
00000360: 59ac 8a3d bc95 2a3d 9c06 3d3d 692b 123e
00000370: b1b5 7ebe 7a44 933e 1b89 3ebc a7b7 753d
00000380: 4618 ad3a fb56 e9bc dec2 60bc 0483 2d3e
00000390: d888 55be 337f a7bd fbe3 5fbe fa50 1bbe
000003a0: 8f91 ad3e 5100 143e c817 f0bc 9118 563e
000003b0: f565 a83a a51f 24bd e2b7 2b3e 22cf ac3c
0.12523237 0.03759639 -0.019248683 -0.06024555 0.367834 -0.108096026 -0.054007728 0.22064619
-0.01999086 0.028828248 0.11915751 0.224597 -0.065400474 0.0023132993 -0.110305734 -0.071337216
0.016337588 -0.00100063 -0.043814167 0.17478165 -0.19400269 0.052890208 0.2939022 -0.05067878
-0.12232656 -0.22951996 -0.21047132 -0.13063844 -0.058218163 0.19332716 0.23863423 0.029794792
-0.027849693 0.09958251 -0.059732977 -0.019070541 -0.054534595 0.021303825 -0.07447364 0.1693114
-0.1343102 0.20967461 -0.10623936 0.066358335 -0.1448177 -0.034518022 0.008730082 0.010300659
-0.020243654 -0.10815836 -0.15766174 -0.1503033 0.36589655 -0.054077536 0.028774135 0.14213833
-0.049266916 0.1714982 0.16420378 0.018557584 0.043742746 0.003114149 -0.012787059 0.09232041
0.0029173344 -0.09288561 -0.06984003 0.0060110986 -0.08190307 0.0051644146 -0.0077613965 0.060340628
0.12715028 0.016579688 0.04916714 -0.1183555 -0.035245746 -0.055856995 0.028334305 0.11293158
-0.041093044 -0.07637218 0.057791263 0.028942898 -0.124220245 0.060112625 -0.06507088 -0.038875997
0.0493135 0.040636316 0.02265963 0.069967374 -0.0747256 -0.061259538 -0.0081000775 0.10069661
0.08773789 -0.101655826 0.119267404 -0.07829039 -0.06510782 0.03837578 -0.020354293 -0.077703044
0.0843977 0.07228202 -0.024507634 -0.12237658 0.01699026 0.03980325 -0.009982966 -0.008178659
-0.08536886 0.0719963 -0.007894859 -0.07380374 -0.042007223 -0.027270123 -0.08383944 0.024252743
-0.2228891 -0.023039816 -0.13780507 -0.036349773 -0.010375106 -0.037051775 -0.11443031 -0.15011126
-0.12531261 0.09787744 -0.046068877 -0.016199086 0.04038917 -0.087663196 -0.08292266 0.008389937
0.038260862 -0.059675615 0.18588799 -0.043721758 0.091543384 -0.03918939 -0.22513032 0.029334798
-0.05006254 0.21840286 -0.09418439 -0.23305196 -0.14402424 0.09477981 0.16084614 -0.06666416
0.18394366 0.06486988 -0.068868525 0.04484873 0.21282054 0.030303296 -0.05211816 -0.0023229604
0.05611191 -0.025396865 -0.13980907 -0.0038004739 -0.11986703 -0.11434459 0.1340858 0.044989463
-0.09443465 0.01006631 -0.05238385 -0.0716908 0.021235289 -0.014340293 -0.05166541 0.07767158
0.057719313 -0.20278455 0.15193471 0.047028936 0.14627723 -0.10376391 -0.034659635 -0.21882413
0.37452483 -0.24794874 -0.05022271 0.2892383 -0.25778574 0.17906629 -0.050123163 0.06936971
-0.23373841 0.009568178 -0.0733877 0.005161245 -0.16127567 0.011900914 -0.15486291 0.119515724
-0.0768032 0.041349873 0.063088834 0.06596255 -0.2284917 -0.11220586 -0.24053356 -0.16153331
0.039487254 0.35464647 0.22515057 -0.10534557 -0.0057599302 0.1367895 -0.075621635 -0.13583414
0.06771154 0.041646704 0.04614888 0.14274372 -0.24873997 0.2876318 -0.011629368 0.059989598
0.0013206087 -0.028483858 -0.013718335 0.1694451 -0.20852983 -0.08178558 -0.21864311 -0.15167609
0.33900115 0.14453246 -0.029308215 0.20907809 0.0012847768 -0.04006924 0.16769364 0.021094862

lstm.bias_hh_l1 f4 [240]
00000000: aafb 433e 605a 1bbe 6034 cbbc 5239 40be
00000010: 2f88 a03e 2c17 7cbe 850e 77be 3f84 c33e
00000020: 0458 25be 829d 923d c25f db3d fa74 503d
00000030: 849c 9abe e59f 0bbe 7139 0dbe f5f1 f5bd
00000040: 0b48 6cbe db67 60bd 2328 26be 9290 aa3d
00000050: 4400 9abe eb31 9dbd b365 803e e536 5b3d
00000060: a77a 83be a655 15bd 2692 99bd 528f 40be
00000070: fb7c 053d 3048 b23e 9662 803e d603 c1bc
00000080: 9fa0 c5bd 10f5 5dbd afad ccbc c83b 01be
00000090: da4e 0d3e 4c67 bd3c 0b01 e53d 19e8 79bd
000000a0: e440 80be e80f 263d 98b4 8e3d 3b19 603d
000000b0: 91bf 90bd 52c9 5bbd 1795 02bd 394e ec3d
000000c0: f75f 6fbd a73b 293c d80a a5bd 614e febd
000000d0: 8604 923e d6e2 8d3d c1b7 01be d8b9 053e
000000e0: b8d3 4e3c 049e 133e 8b57 9b3e d40b cabd
000000f0: 8403 0b3d f88f b23c b01b c13d 355f 95bd
00000100: f613 58bd 5a0c a03d 8efa ecbd 2813 983c
00000110: a496 67bd 9cc7 363d 143f fbbd e0d5 da3d
00000120: fee2 1bbd 6ed3 8dbd 64a4 16bd 0511 03be
00000130: d06a d33c ba2b aa3d d028 ffbb 04c6 c9bc
00000140: 8c5c ccbd e262 e23d 53cf d1bd ec40 9abd
00000150: c09d 563c 105b 79bd 8271 db3d 5a23 ee3d
00000160: 801a 04bd 9ba2 9bbd 963a b0bd baba 8bbd
00000170: 20e3 e5bb 00e0 fc3b 3000 a33c 4d95 9dbd
00000180: 9005 a63c c0de 893d b4f3 a4bd 86e8 8b3d
00000190: e710 00be b009 09bc 248e 773d 42e8 c43d
000001a0: 086e e43c e00f 093d 7296 edbd 109a 433c
000001b0: c8bf a3bd 40f8 ef3d d063 7c3d 80f7 6e3d
000001c0: 0039 98ba 4c77 a2bd 3a65 fb3d 141a 7b3d
000001d0: e83d 953c 24db 7dbd 8be9 ccbd 4226 debd
000001e0: a6a5 98bc 7445 17bd 83d3 69bd 6250 2e3e
000001f0: 43ca 853b 091c 963c 75a6 383c b244 073d
00000200: 600a 1c3d bd4d 7b3d f0c1 3e3d ab53 2c3d
00000210: 6499 5e3e 7f02 34bd b49e 40bd 0ab0 e3bd
00000220: 20a8 8bba 04a9 0e3e 8e98 df3c 2547 89bc
00000230: 2b0d e6bd 6169 20bb dd33 c0bd aa17 6e3d
00000240: 9eb5 ccbd ac11 8e3d da35 fb3c 5195 e7bc
00000250: 90eb 2d3d 48d3 2fba a53e 26bd e842 a1bd
00000260: a30b be3d 4aca a53d ccce 8dbd cfed 19bd
00000270: 4037 973d 493a 7ebd 2ea6 603d 1b27 33bc
00000280: 10a1 7f3c 4dce 60bb 646b 65be b4ba 2e3d
00000290: 0269 04bd 1360 94be b42c cf3d 1dce e4bd
000002a0: 32fe da3d 3451 c43c 8228 adbd a338 ebbd
000002b0: 6c27 d3bb 0a91 bdbd 6f57 2d3d d903 c33d
000002c0: ed24 443e cb2e 95ba 1921 de3d 229d ad3d
000002d0: 5f3c 843d 0874 0bbd bcc7 a53d ff60 7cbc
000002e0: 4ca1 e63e 42f0 b0be 758f 39bd 9f4a c43e
000002f0: 11a6 39be a470 063e 05b2 c2bc bbfb 613d
00000300: 74d8 21be d747 953d 5a6b 6dbd 3d59 03be
00000310: 7081 5abd f02c bb3d f7d6 7fbd c1e7 803e
00000320: 1e3a 76bd 57c0 c8bd 2470 453e b500 d83c
00000330: 8453 31be 3016 93be a42c 5abe 94bc 0ebe
00000340: bbfb 6cbd 038c cf3e ba01 053e 5569 a23c
00000350: 262b 2cbe a7b2 583d 0bdc b73c 5f07 6d3b
00000360: f3e7 293e de72 8d3d a4c0 513d 6bf5 1b3d
00000370: 9655 5dbe 1051 2f3e 1a2b de3c 5d2e 3fbd
00000380: 791f 8d3d 6501 28bd f052 9bbb 8b2d 083e
00000390: 0876 c6bc 791e 84bd 88cd 75be 280f 98bd
000003a0: 6544 a03e 859e 333e fc64 25be 7bfa 8f3d
000003b0: 2307 ae3d f900 2cbc f4b3 b23e 9f14 33bd
0.19138971 -0.15171194 -0.024805248 -0.18771866 0.313539 -0.24618214 -0.24126633 0.38186833
-0.16146857 0.071589485 0.10711624 0.050892808 -0.30197537 -0.13635214 -0.13791443 -0.1200904
-0.23074357 -0.054786544 -0.16226248 0.08328356 -0.30078328 -0.07675537 0.2507759 0.05351915
-0.25679514 -0.036458634 -0.07498579 -0.18804672 0.032589894 0.348207 0.25075215 -0.0235614
-0.09649777 -0.054188788 -0.024985163 -0.12620461 0.1379961 0.023120545 0.111818396 -0.06101236
-0.25049508 0.040542513 0.06968039 0.05471156 -0.070677884 -0.05365879 -0.031880464 0.11538357
-0.05844113 0.010329164 -0.08058709 -0.12417293 0.28519076 0.06928031 -0.12667753 0.13059175
0.01262372 0.14415747 0.30340227 -0.09865537 0.0339389 0.021797165 0.09429109 -0.0729355
-0.05275341 0.07814856 -0.11571227 0.018563822 -0.056540146 0.044623956 -0.122678906 0.10685325
-0.038058273 -0.06925093 -0.03677787 -0.12799461 0.025807768 0.083091214 -0.0077868477 -0.024630554
-0.099785894 0.11054017 -0.10244622 -0.07531914 0.013099134 -0.06087786 0.10715009 0.116278365
-0.032251835 -0.07599374 -0.086049244 -0.06822725 -0.007015601 0.0077171326 0.01989755 -0.076944925
0.020266324 0.06731939 -0.08054295 0.0683146 -0.12506448 -0.008364126 0.06043829 0.09614612
0.027884498 0.033462405 -0.11600961 0.011938587 -0.07995564 0.11717272 0.061618626 0.058341503
-0.0011613667 -0.0793291 0.12275167 0.061304167 0.018217996 -0.061976567 -0.10005482 -0.10847141
-0.018633675 -0.03693147 -0.05708648 0.17022851 0.0040829494 0.018323915 0.011270155 0.033024497
0.038095832 0.061353434 0.046571672 0.04207198 0.21738201 -0.043947693 -0.04702635 -0.11117561
-0.0010654964 0.13931662 0.027294423 -0.016757557 -0.1123298 -0.0024476873 -0.09384892 0.058128037
-0.09995578 0.069369644 0.030665327 -0.028269442 0.042460978 -0.00067072036 -0.040587086 -0.078740895
0.09279563 0.08095224 -0.06924209 -0.037580308 0.07383585 -0.062067304 0.05484598 -0.010934616
0.015602365 -0.0034302652 -0.22404248 0.042658523 -0.032326706 -0.2897955 0.10115948 -0.111721255
0.10693015 0.023964502 -0.08454992 -0.11485412 -0.0064439084 -0.0925618 0.04231971 0.09522218
0.19154711 -0.0011381743 0.108461566 0.08477236 0.06456827 -0.034046203 0.08094737 -0.015403985
0.45044935 -0.34558302 -0.045302827 0.3833818 -0.18129756 0.13128906 -0.023766527 0.05517171
-0.15805227 0.07289093 -0.057963707 -0.1282701 -0.053346097 0.091394305 -0.062460866 0.25176814
-0.06011402 -0.09802311 0.1928106 0.026367525 -0.17317015 -0.28727865 -0.21306092 -0.13939124
-0.057857256 0.40536508 0.1298894 0.019825617 -0.16813335 0.05290475 0.022443792 0.0036167724
0.16592388 0.06906675 0.051209107 0.038075846 -0.2161468 0.17120767 0.027120162 -0.046675075
0.068907686 -0.041016955 -0.0047401115 0.13298623 -0.024226204 -0.06451125 -0.24004185 -0.07424766
0.3130218 0.17540939 -0.16151804 0.07030197 0.08497455 -0.010498279 0.34902918 -0.043720838
