rnn.pth (torch_old, 309162 bytes, 14 tensors)

lstm.weight_ih_l0 f4 [240, 13]
00000000: 9db1 9cbd c618 8a3d 7028 5ebd 77d6 113e
00000010: 50d2 dd3c 8a4c 603e 63a1 3bbc ebf5 593e
00000020: 4b2e 553e 4520 a73c e6eb 983d a0a2 6bbc
00000030: b401 453e 98bd 523e 72b8 a0bd 21fd dd3c
00000040: 2565 5bbe 2a65 32bd 8df6 0ebd 7cdd 463e
00000050: 7002 d2bd d07d 10bc c8bd eabc 1f36 d03d
00000060: 944d 2ebd 8d8b cd3d 8851 3bbe 913f ed3d
00000070: 8686 79bd dd1d 433c 01be 273d 59e5 95bc
00000080: e107 01be 27bb d13b 8ae0 5e3c bee2 d13d
00000090: 2326 a7bc dd46 283e b547 f3bd 52f7 b6bd
000000a0: ad98 173e a775 b3bc a6b8 023e 7ac1 5c3d
000000b0: a008 32bc 203f fdbd ecde bf3d 801a 90bd
000000c0: a048 a73c a124 44bc 9003 a6bc 5d9b 1bbd
000000d0: 18c4 903c d375 ea3b fe88 3a3e a01c a038
000000e0: 3e95 953d 3be5 2f3b e828 fdbd f702 6f3e
000000f0: 80a6 743d 64be 2a3d 0418 4dbd 58d9 6bbd
00000100: 7bf7 abbd c2fb 6cbd 72f0 903d 0a34 f5bc
00000110: c748 ef3c 4b69 d0bc 7a7c 04be 2c24 c1bd
00000120: b42c 44be 0c47 47bd 706c 323e ceb7 01bd
00000130: 3683 5e3c 8c79 39be 0a66 0ebd 18be 9fbd
00000140: de6b 6abd bb15 92bd c1ab afbc e664 1a3e
00000150: ed79 0bbe 9aa1 173e 5820 533d 55d1 703e
00000160: 0b56 243d 7c33 1cbc 0b7b 18be 8346 afbd
00000170: 8f50 643c edb9 86bc 28db 7c3e 4360 213d
00000180: e032 783e 2bcf f9bd 917c 203e dfa9 323d
00000190: 7970 e43d 1b7a a23d c299 b5bc 5008 b9bd
000001a0: 7965 143e 693f 0fbe 776c b13c 11e0 a73c
000001b0: b504 953b f4ca 203e 102c 913d ecec 6dbc
000001c0: 9036 163e 545a 56be bbcd 4f3e dc71 873d
000001d0: fcc7 0a3d 9781 02be a127 e8bc bf50 20bd
000001e0: d989 c93d ded4 adbd 3c02 02be dfe6 6e3d
000001f0: 4b05 073e 3b04 00be abb6 383e 0cae babd
00000200: b368 e0bd 4f0e 0fbd f048 143d dc79 c83d
00000210: e969 0b3e 2b7b 023e e020 fc3d c3d1 043d
00000220: 65e9 d63d d7ff dd3d a6b7 513e 8175 49bd
00000230: 2765 58bd 1eb1 a53d 3f6e a5bd 6c3d aabd
00000240: 4760 c73d d9bc 8cbd 5de7 7dbd 0d40 47bd
00000250: 779f 40be 7585 f73c 5245 883d bf33 923c
00000260: 4ea8 aa3d 699a 1dbe bafc f33d 14ff a4bc
00000270: fdf6 0dbe 2f5a 343e c51d 1b3d ded6 42bd
00000280: c9b3 1abd 0f4f bcbd 8298 f23c 87bd e63d
00000290: 3e56 2cbe f105 b6bc 9780 883d 588d cc3a
000002a0: 8056 12be f392 003e f0b9 123e 0156 13be
000002b0: 4bcd 783d 1ff5 1bbe ae6a 0ebc 4adc d83d
000002c0: 9436 28bd 72a4 aebd cdbf 5abd 126e 5ebe
000002d0: d4b2 d43d 1e4f f83d cce8 eebd 4118 9dbd
000002e0: 0aa0 1fbe 568b 533c 98fd 9bbd 7a84 d9bc
000002f0: 3ad1 5f3b bcbe 993d ee89 95bd 795d 25be
00000300: 9dfc d0bd 1700 9bbe e5f0 7a3d 1e1c 1bbe
00000310: 2076 603d ac11 6cbd c895 143d 64f6 b0bc
00000320: e5ca 43bc bed9 4cbe 3ae7 803d 4cf1 59be
00000330: 7241 2e3e 65bc 543c 2e52 2c3c 68fb 9dbd
00000340: d425 0c3d cecd 033e 5c25 6cbe 4c66 10bd
00000350: c4e0 0abe df92 8f3d 6e8e 223c 8209 cb3c
00000360: 3b03 a5bd a909 f03b 58bc 13be 007d f3bd
00000370: b413 1e3d 4dca 63bd f3f6 bdbb 880f b83c
00000380: fd4f ffbc af53 f43c 6a70 88bd ad95 5ebd
00000390: 8993 213c 11db 56be 723d 383e e2a0 fe3c
000003a0: bbbb bc3d b71b 72be 4bdb 14bc d5f7 a43d
000003b0: da6d f03d d500 ab3d b51d eb3d 6848 debd
000003c0: db47 06be 2e67 873d 66fa 833d ee95 2e3d
000003d0: 308d e13c 45a8 343d ba80 993b 4b30 e83d
000003e0: 6aac 04bc ea4a 59be 8b2c 8bbd 869f d0bd
000003f0: 7cab 323d b8cc 043e de78 073d 9e9b 0abe
-0.076510645 0.067430064 -0.054237783 0.14241968 0.027077824 0.21904197 -0.011452052 0.21285217
0.2081844 0.02040113 0.07466869 -0.014382035 0.19238931 0.20580137 -0.0784768 0.02709824
-0.21425302 -0.04355351 -0.034903098 0.19420427 -0.10254371 -0.008819059 -0.028654948 0.10166573
-0.042554453 0.10036383 -0.1829282 0.1158439 -0.060919307 0.011908975 0.040952686 -0.018297838
-0.12600662 0.006400484 0.013603339 0.10248326 -0.020403927 0.16433282 -0.118789114 -0.08933891
0.14804335 -0.021906687 0.1276575 0.05389545 -0.010866314 -0.12365556 0.09368691 -0.070363045
0.020420372 -0.011971624 -0.02026537 -0.037989963 0.01767163 0.007155159 0.18216321 7.634726e-05
0.07303856 0.0026839513 -0.12361318 0.23340975 0.0597291 0.041685477 -0.05007173 -0.057580322
-0.083968125 -0.057857282 0.07077111 -0.02993204 0.029209508 -0.025440833 -0.12938109 -0.09430727
-0.19157678 -0.04865174 0.17424178 -0.03166943 0.013581088 -0.18112773 -0.03476528 -0.077999294
-0.057231776 -0.07133051 -0.021444203 0.15077552 -0.1362073 0.1480774 0.051544517 0.23517354
0.04012112 -0.009533759 -0.14890687 -0.08558371 0.013935222 -0.016446078 0.24692976 0.039398443
0.24238157 -0.12197717 0.15672518 0.043619033 0.11154265 0.07933446 -0.022168044 -0.090347886
0.14491834 -0.13989033 0.021658165 0.020492585 0.0045476803 0.1570242 0.070884824 -0.014521819
0.14669251 -0.20932895 0.20293324 0.06613514 0.033882126 -0.12744747 -0.028339209 -0.039139505
0.098407455 -0.08487867 -0.12696165 0.058325645 0.13185613 -0.12501614 0.18038432 -0.09115228
-0.1095747 -0.034925755 0.03620237 0.09788868 0.1361462 0.12742297 0.12310958 0.032426607
0.10493735 0.10839813 0.20480213 -0.049184326 -0.05283084 0.08090423 -0.080776684 -0.083124965
0.0973516 -0.06871957 -0.061988223 -0.048645068 -0.18810831 0.030215004 0.06653847 0.01784694
0.08332883 -0.15390934 0.11913438 -0.020141162 -0.1386375 0.17612527 0.037870187 -0.047568195
-0.037769113 -0.09194767 0.029613737 0.11266618 -0.16829774 -0.02221963 0.066651516 0.0015606089
-0.1429081 0.12556057 0.14328742 -0.14388277 0.060742658 -0.15230225 -0.008692427 0.10588892
-0.041067675 -0.08527459 -0.05340557 -0.21721676 0.10385671 0.121244654 -0.11665496 -0.07670642
-0.15588394 0.012911638 -0.076167285 -0.026552428 0.0034151808 0.07507083 -0.073016986 -0.16148938
-0.10204432 -0.30273506 0.06126489 -0.15147445 0.054800153 -0.05763404 0.036275655 -0.021601863
-0.011950229 -0.20004937 0.06294103 -0.21283454 0.17017153 0.01298437 0.01051764 -0.077139676
0.034215763 0.12871477 -0.23061126 -0.035253808 -0.13562304 0.07010435 0.009921653 0.024784807
-0.08057257 0.0073253703 -0.14427316 -0.11889076 0.03859301 -0.05561285 -0.005797261 0.022468343
-0.031166071 0.02982506 -0.06662066 -0.05434196 0.009861835 -0.20982005 0.1799219 0.031082574
0.09215494 -0.23643385 -0.009085487 0.08055083 0.117397025 0.08349768 0.114802755 -0.10853654
-0.13113348 0.06611477 0.06444244 0.042623453 0.027533144 0.044105787 0.004684535 0.11337336
-0.008097747 -0.21219984 -0.06795605 -0.10186677 0.04362057 0.12968719 0.033074252 -0.13535926

lstm.weight_hh_l0 f4 [240, 60]
00000000: 6fee aabd ce0e 853d 869b f73d 987b ef3d
00000010: 2b06 cbbd 38d7 d93d c6e4 883d 48d9 c23c
00000020: fed6 ccbd 2cc1 0fbd 4a54 babd b818 4c3d
00000030: 0e6d 4fbd 6838 193d a05a 493c 2059 c4bd
00000040: 20ec 653c 7ce8 f13d ced3 50bd 70c7 9bbc
00000050: bc2c 673d a8bd 1dbc 38d0 b0bd 603c 9c3b
00000060: 86ef 863d f947 92bd 6b4b c4bd 5082 a03d
00000070: 6cd0 b8bc 96c6 b33d 09d7 dabd c290 58bd
00000080: b020 a8bc f45b adbd fd86 c0bd 275c 00be
00000090: 909b 27bc 4421 d4bc 335a f4bd 32c2 983d
000000a0: b0b6 b43c 8c4a c83d 5d73 97bd ea2f d53d
000000b0: d680 b53d 71ae 93bd b08c 21bd 737b ffbd
000000c0: fe08 853d 405d 79bb 0550 01be 30a0 f23c
000000d0: a012 863c 405c 073d dea4 cfbd 32be 8ebd
000000e0: 2c5d 253d 72f5 f93d f2ea e43d c4a9 81bd
000000f0: 4824 393d 5838 7a3d 60f1 c63c 6e02 dbbd
00000100: ba11 d13d 4e2e fb3d c863 efbd 7f74 003e
00000110: ac30 123d 906d 1f3d 0066 b939 0b95 9bbd
00000120: 1c8a e2bd 4850 c4bd 2811 57bd 0caa a7bc
00000130: 71ea 80bd f4a5 f1bd 3268 0dbd a094 b5bd
00000140: 4a00 29bd 8409 c03d c4ed 80bd b2a2 0dbd
00000150: 00df 643b 9089 2bbc 8ebd 853d 04c9 01be
00000160: 2ce0 bb3d ba2a 7dbd 484c c73c a363 debd
00000170: dc80 60bd fa1f 893d 751c 03be aff2 f4bd
00000180: e0a4 8a3c 22a4 9abd 4715 013e de5f 9c3d
00000190: 689f a1bd 04d2 503d 0ea8 e93d 5830 ea3c
000001a0: 6dc1 bdbd 7cbd c83d 066e cc3d 608a 713d
000001b0: 3047 e13c dcf7 4cbd 44f2 d4bd 6a00 b63d
000001c0: 5c83 663d 8abe c83d 4820 e0bc 7b6a d1bd
000001d0: faf6 83bd c09b 4f3d df21 a7bd e44e dcbd
000001e0: ae4d 953d a0af c03d 10e4 ca3d bce8 783d
000001f0: 4a84 8fbd ce38 fe3d a482 3c3d 80d1 3d3d
00000200: 8a35 85bd 12cf eb3d 7089 503d 1a9e 823d
00000210: a4ef 543d e7ec cbbd c0a2 dcbc 8c7a a0bc
00000220: 1816 2fbc cac0 02be b0fe 6cbd 12df db3d
00000230: 6466 523d e452 3e3d a3da a3bd acb0 6abd
00000240: 0096 94bb 1808 e23c 7ac4 f73d 1895 de3d
00000250: 3062 7e3d 1875 35bc a548 bfbd c407 8fbd
00000260: 7114 ffbd 5ce0 be3d a01a 833b de43 aa3d
00000270: 107a e7bb ecfc b6bc 3c31 a53d 4027 1d3c
00000280: 2865 8d3c 74de 713d aa9f cabd 901d 133c
00000290: 702f d2bd cf17 a3bd 32ea 3ebd 80f8 173c
000002a0: 72cc 40bd a0fb 87bd 2844 8dbd 3a9b 8f3d
000002b0: c698 0ebd c8b1 6abc 1c8e e9bc 87e7 debd
000002c0: 0e34 ce3d d255 fabd 4855 babc 20de f4bd
000002d0: 0e23 aabd 7268 903d 6322 d5bd c80c 8f3c
000002e0: ae5f 31bd be26 f13d effb 01be ee4c 1bbd
000002f0: 3010 44bc b448 a63d 80b0 fb3b bad6 963d
00000300: 11c8 83bd 44b1 a0bd 168f 873d 8044 ffba
00000310: a1c5 edbd 84a5 99bd b8a7 653d 3860 2fbc
00000320: 705f 773c dc7e e13d 8835 043d 0068 cfba
00000330: e0ae 8bbc c059 533d 2ac8 d63d 3337 9abd
00000340: 768f c33d 8c1d b4bd 58f1 a73c e0a5 b53c
00000350: 62b6 e43d 26e8 66bd 38e2 8c3d a0a0 963b
00000360: 70e2 c33d c64a 873d 5907 e8bd 201c 383d
00000370: 8fa5 b2bd 8cca c5bd b4c6 9ebc b637 d6bd
00000380: 1653 8bbd 9453 673d 3128 febd b8a2 803d
00000390: 281a 9a3c b024 1e3c 7de0 edbd 943c 1d3d
000003a0: e4a5 f63d 20a2 d43b 12db c3bd d0b0 9d3c
000003b0: 3f68 d7bd fc81 92bd 8cc4 e43d 3431 86bc
000003c0: 900d 37bd d0c6 d0bc 2681 8fbd 4e4d 9abd
000003d0: 1876 50bc 0046 2e3a fadf e6bd 6b31 03be
000003e0: 1851 6c3d 4416 3e3d 7a3a b3bd e28d da3d
000003f0: 266e 89bd 8e0d d93d 58b7 49bd 7202 de3d
-0.08346259 0.064969644 0.120902106 0.116934955 -0.09913286 0.10636753 0.0668426 0.023785248
-0.10001944 -0.035096332 -0.09098108 0.04982826 -0.050641112 0.03740731 0.012289673 -0.09587312
0.014033347 0.11811921 -0.050983243 -0.019015998 0.056439146 -0.009627737 -0.086334646 0.0047679394
0.06588654 -0.07142634 -0.09584697 0.07837355 -0.02256032 0.08778112 -0.10685546 -0.052872427
-0.0205234 -0.08464804 -0.09400747 -0.12535153 -0.01022996 -0.025894769 -0.11931267 0.07458915
0.022059768 0.09779844 -0.07395051 0.104095295 0.08862464 -0.072110064 -0.03944081 -0.12474718
0.06495856 -0.0038049966 -0.12628181 0.029617399 0.016366303 0.03304696 -0.10138868 -0.069698706
0.04037206 0.12205018 0.11177625 -0.06331208 0.045200616 0.06108889 0.024285018 -0.10693823
0.10208459 0.12264691 -0.11688954 0.1254444 0.03569095 0.038922846 0.00035361946 -0.07596787
-0.110614985 -0.09585625 -0.052506596 -0.020466827 -0.06294716 -0.11799231 -0.034523197 -0.088662386
-0.04126004 0.09376815 -0.0629535 -0.034578986 0.0034922957 -0.010469809 0.06530295 -0.12674338
0.09173617 -0.061808325 0.024328366 -0.10858848 -0.05481039 0.06695552 -0.12803824 -0.11960351
0.016924322 -0.07550837 0.12605773 0.07635473 -0.078917325 0.050981537 0.11409007 0.028587505
-0.09265409 0.09801766 0.09981923 0.058969855 0.027499765 -0.050041065 -0.10397771 0.08886798
0.056277618 0.098019674 -0.027359143 -0.10225388 -0.064435914 0.050685644 -0.08160757 -0.10757235
0.07290207 0.09408498 0.09906781 0.060768828 -0.07007654 0.124131784 0.046023026 0.046342373
-0.065043524 0.11514105 0.05091232 0.06377812 0.05198635 -0.09957295 -0.026933074 -0.019589685
-0.01068642 -0.12768856 -0.057860076 0.10735907 0.05136718 0.04646577 -0.08000686 -0.057297394
-0.004534483 0.02759175 0.12098022 0.10868281 0.062105358 -0.011075281 -0.09340028 -0.06983903
-0.12455071 0.09320137 0.0040009767 0.08313726 -0.0070641115 -0.0223374 0.08066031 0.009591877
0.01726015 0.05905004 -0.09893735 0.008979216 -0.10262954 -0.079635255 -0.046610065 0.009275556
-0.047069974 -0.066397905 -0.068977654 0.07012029 -0.034813665 -0.014324613 -0.028510146 -0.10884004
0.100685224 -0.122234 -0.022745743 -0.119564295 -0.083074674 0.07051171 -0.10406949 0.01746215
-0.043304138 0.117749676 -0.12693761 -0.037915163 -0.01196675 0.08119336 0.0076809525 0.073651746
-0.06434644 -0.07846311 0.06619088 -0.0019475371 -0.1160996 -0.07502273 0.056068152 -0.010704093
0.015098438 0.11010525 0.032277614 -0.0015823841 -0.01705116 0.051599264 0.10487397 -0.0753006
0.095488474 -0.08794698 0.020500824 0.022173822 0.11167599 -0.056373738 0.06879085 0.0045967847
0.09564674 0.06606059 -0.113295265 0.044948697 -0.08722984 -0.096577734 -0.019381858 -0.10459845
-0.06802957 0.05647619 -0.1241001 0.06281036 0.0188113 0.009652302 -0.11615083 0.03838785
0.1204336 0.0064890534 -0.09563269 0.01924935 -0.1051793 -0.07153699 0.11170301 -0.016380884
-0.04469067 -0.025485426 -0.07007055 -0.07534276 -0.012723468 0.0006648004 -0.11273189 -0.1281182
0.057694525 0.046407953 -0.08751388 0.10671593 -0.06710462 0.105982885 -0.049247116 0.1084031

lstm.bias_ih_l0 f4 [240]
00000000: df83 2c3d ab3e 633e 0ac6 5abd 6afa 6bbd
00000010: 97ff 2dbe 1bd9 4bbe b926 da3d bfc9 5ebc
00000020: 8519 dc3c 2015 08be bf3d 92bd f2b2 6bbd
00000030: ad7a cb3c e683 ccbd 9448 cdbd 955e 1ebe
00000040: 504c 823c a187 8ebd a0c0 a93b 9e4a 50bc
00000050: 3145 e53c e582 973d a41f 82bd 2f94 eebc
00000060: e98b b63d b927 023e dc6f b4bd c796 a7bb
00000070: d646 c3bc 2b14 e03c fa81 8fbc 8ccc cd3c
00000080: cc78 9bbc 535a 08be 34e0 953d f135 5dbd
00000090: dc7a a13d f9ff a43d f3f7 4abe 2f0a adbd
000000a0: 7e7d 103d 25c4 c0bd 0d01 b63d 5723 7ebd
000000b0: 64fa b03c 4b99 12be af95 90bd 4ea5 1e3e
000000c0: a9b3 e43c bf4d 21bd ca3c 91bd 1f0d ce3d
000000d0: 02fe 14be 1079 f8bd 32f9 41bc 3a48 2ebe
000000e0: c343 91bd 89f6 12be 8b3d b93d 0dbe 90bd
000000f0: 3e75 b0bd 74b2 c3bd 7036 0f3d 00db d73d
00000100: 10cd febb f12f 033e bdf1 fabd e8d9 27bc
00000110: 28f8 06bd 3638 6fbd ccfd 48bd 1c7b dc3d
00000120: 981b cc3c 405f 263c f4e0 15bd 9e76 adbd
00000130: 4919 babd df35 003e 8002 a83a f1d8 a3bd
00000140: 44dd 333d 2602 9cbd 7eb6 55bd 22e3 b63d
00000150: b89a a83c b3e5 02be ac3f cabd beb8 b7bd
00000160: a013 1cbc b166 ebbd e363 91bd e83b 67bc
00000170: 0872 9e3d 9c4d b03d f6f4 f43d 3062 153c
00000180: 0000 e039 00d9 94bd ee99 96bd 2211 7cbd
00000190: c264 ce3d 2473 dc3d 04d9 ce3d 340c b23d
000001a0: 007d 883b 4c85 0e3d c603 67bd ddef b2bd
000001b0: 5094 263d 98d5 22bd b81a a13c 32df c13d
000001c0: 6a2d 973d 7e39 d53d 106b f6bc f028 603c
000001d0: 9000 b23d dc2d 943d 780b 27bc 6a02 bd3d
000001e0: 4d01 2d3e cedc 27be 34a9 aebd c72e cb3c
000001f0: dae8 b4bc db47 5a3d 2839 b73d e3d6 e33d
00000200: 23c9 493d e2ee 92bd 6396 97bd 6829 463d
00000210: c2cf 873c eea4 36be 4411 bbbd 4fc9 9fbd
00000220: 29fc 393e 808c ed3d cbb7 363e b8b8 973d
00000230: 3522 b13c 82ba e73d 967a 09be 379d d0bc
00000240: 0340 98bd d113 00be fdc2 b23b b8f3 abbc
00000250: 2532 b0bd 3e87 9b3c f747 113d e7c8 883d
00000260: 86fc b83d 3ecf 403c cd2c fa3c 4177 8dbc
00000270: 2ba2 c5bd 5fdd 9b3d cd3d 22be d367 95bd
00000280: cb18 423d 5e39 cc3d 39ec 9a3c 04c0 34bd
00000290: c304 20be 949b 34bd fd7b 363e e25f d33d
000002a0: 6fc7 9fbd 5b78 c13d eef1 15bd f379 80bd
000002b0: eed9 573c 19e6 26bd f572 eabd a61a 1abd
000002c0: 055b efbd 59f1 29be d733 af3d 7274 a6bc
000002d0: 8e0c 0e3e 98b0 a63d e618 12be afad 67bd
000002e0: 33f9 383e 265d 1cbe 8c6d 8a3c 834b e43d
000002f0: 7345 093e fdec 7a3d 2a5a 5a3d 79b7 fd3d
00000300: 7a3f 0f3d 99d1 0c3d 309e 8dbc 3c9e 20be
00000310: 5d6e 9dbd bf99 c73c cd49 423d 62b3 593d
00000320: 99bb b7bd 4f6b 853d 86c1 2bbd 90a7 4f3d
00000330: 5ae5 083e adc7 7dbd 05da 8f3d 70e3 40bd
00000340: 24e5 2cbd e917 c63c ad4d 3dbc 48af f83d
00000350: 9067 0abe 715d 093e a22a 093e c0c5 69bc
00000360: 07df 49bd cdb0 b4bd f261 1cbe 6fa0 0a3e
00000370: 394b 1c3e 74a9 21be 8219 55bd 57f4 2ebd
00000380: 8956 05be 879e ccbd 8c2e c93c 47c0 793e
00000390: b60e 26be a602 e23c 0165 aebd 56a3 c0bd
000003a0: f1fc 29bd 1b47 a5bd a534 68bd f096 cbbc
000003b0: 2e0e 3dbe 0b61 433e 3d61 ea3d 08bc b6bd
0.04211795 0.22191875 -0.05341152 -0.05761186 -0.16992031 -0.19907038 0.10651917 -0.013597905
0.026867637 -0.13289309 -0.071406834 -0.057543702 0.02483877 -0.09986095 -0.10023609 -0.15465768
0.01590553 -0.06959463 0.0051804334 -0.012713103 0.027987095 0.07398013 -0.06353691 -0.029123394
0.089134045 0.12710465 -0.08810398 -0.0051144096 -0.023837488 0.027353367 -0.017518032 0.02512195
-0.018978499 -0.13315706 0.07318154 -0.05400652 0.07884762 0.080566354 -0.19821148 -0.08449208
0.03527593 -0.094124116 0.08886919 -0.06204542 0.02160377 -0.14316289 -0.070598 0.15492746
0.0279177 -0.039380785 -0.07091673 0.100610964 -0.14550021 -0.12132466 -0.011839198 -0.1701974
-0.07093003 -0.14351858 0.090449415 -0.07067499 -0.08616112 -0.095555216 0.034964025 0.10539818
-0.00777591 0.12811257 -0.12253139 -0.010244824 -0.032951504 -0.058403216 -0.049070165 0.10765669
0.024915501 0.010154545 -0.036591485 -0.0846989 -0.09086854 0.1252055 0.0012818128 -0.08000363
0.043912187 -0.07617597 -0.05217599 0.08930041 0.020581588 -0.12782936 -0.09875426 -0.08970784
-0.009526163 -0.11494196 -0.0709913 -0.014113404 0.077365935 0.08608553 0.11960785 0.009117648
0.0004272461 -0.07267952 -0.073535785 -0.061539777 0.10077812 0.10764149 0.10099986 0.08693734
0.004165292 0.03479509 -0.056400083 -0.087371565 0.040668786 -0.03975448 0.01966606 0.09466399
0.07381709 0.104113564 -0.030080348 0.013681635 0.086915135 0.072353095 -0.010195605 0.09228976
0.16895027 -0.16392824 -0.08528367 0.024802579 -0.022083689 0.053291183 0.089464486 0.11124971
0.049264085 -0.071744695 -0.07401731 0.04837933 0.016578559 -0.17836353 -0.091341525 -0.078020684
0.18162598 0.11599064 0.17843549 0.07408279 0.021622756 0.113148704 -0.13425669 -0.02546559
-0.07434084 -0.1250756 0.0054553733 -0.020990238 -0.08603314 0.018985387 0.03546902 0.06678944
0.0903254 0.01176816 0.03053894 -0.017268779 -0.09650072 0.076105826 -0.15843888 -0.072951935
0.047386926 0.099718794 0.018911468 -0.044128433 -0.15626816 -0.044093683 0.17820735 0.103210226
-0.07801711 0.09446784 -0.036607675 -0.0627326 0.013174517 -0.040746782 -0.114477076 -0.03762307
-0.116872825 -0.16595973 0.085548095 -0.020319197 0.13871977 0.08139151 -0.1426731 -0.056562122
0.18063812 -0.15269908 0.01689794 0.11147215 0.13405399 0.061261166 0.053308643 0.1238851
0.034972645 0.034379575 -0.017287344 -0.15685362 -0.07687066 0.024365304 0.047433663 0.05314959
-0.08971328 0.06514608 -0.041932605 0.05069691 0.1336874 -0.061958004 0.07024006 -0.0470919
-0.042210713 0.024181323 -0.011554164 0.12142807 -0.13516068 0.13414551 0.1339517 -0.014268339
-0.04928496 -0.088227846 -0.15271738 0.13537763 0.1526307 -0.15787297 -0.05202628 -0.04271349
-0.13021292 -0.09991174 0.024558328 0.24389754 -0.1621655 0.027589153 -0.08515359 -0.09406154
-0.04150099 -0.08070203 -0.05669083 -0.024852246 -0.1846244 0.19079988 0.11444328 -0.08922583

lstm.bias_hh_l0 f4 [240]
00000000: d434 d7bc 9f7e 383e 12ee 9ebd 8ec7 35be
00000010: ea0d 89bd a5b2 85bd e736 a1bd ffca 2fbe
00000020: dc46 173d d091 3ebd f901 a1bd f997 833d
00000030: c17b 3ebd c340 423d 3e3c 0cbd d1df 0abd
00000040: f50b a2bc 86c5 7abd 18c5 f3bd 4e10 bf3d
00000050: 5a02 ad3c 123c c53c d8b1 6ebe 0972 3bbd
00000060: f13c 913d 0b52 093d b0e2 d8bd 61d9 313d
00000070: 4379 ed3d 5f28 dcbd 69c4 113e 47a6 4bbd
00000080: 7e69 e0bd 6290 25bc 8ccf 1d3c 9ead 81bc
00000090: b898 6fbd 457e c7bd e8d4 eebd 2223 af3c
000000a0: ee7a 71bc 33af 143d f5f2 2d3d 4550 12be
000000b0: 2438 2fbe b944 3dbe 72a8 b1bd 28ee 243e
000000c0: 6990 12be 3ad4 123d 0699 85bd 1ea2 12bc
000000d0: 0f0a b6bd a8c5 473b a3f2 503d 5651 49bd
000000e0: bfb2 a6bd 6a7f 08bd 7602 9f3d c828 a33d
000000f0: 40c4 0cbc 8869 033d 204a a03b 1220 fd3d
00000100: 7aa6 f7bd 308e 173c 1f86 d8bd e0d5 793d
00000110: 963c b63d 82c9 c63d 104c 96bd 20fa a13c
00000120: 3a65 ee3d 62cd f13d 7865 9b3c 6870 03bc
00000130: 4002 fcbd 7408 0b3d 187b e33c d895 c43c
00000140: b81b a23c 5870 693d 104d ef3c 5035 d7bc
00000150: 3949 023e 04c8 393d 1479 e63d 2e06 ec3d
00000160: 2042 00bc 8048 e73b 401e c1bc e447 b3bc
00000170: 7257 abbd 804a c1bd 02bc 9b3d 20a8 803d
00000180: 109a e2bb 1851 523d c84a 45bd a785 89bd
00000190: 547e 55bd e6d4 9f3d 07d3 eabd c084 4cbb
000001a0: 0ca3 afbd 469b 57bd d4b0 c1bd 7eb9 90bd
000001b0: 10c4 a5bd d474 0a3d 30b3 fb3c 24c7 aa3d
000001c0: 3498 3b3d d291 d23d 6cdd 6fbd 0009 e53c
000001d0: 000f a23b d2b4 b23d 4e9a d5bd 4c76 9d3d
000001e0: 7b9f 0d3e a70a 3fbd 4094 3abe fefa 60bd
000001f0: 809e 04be 2087 413d 483d 493c 02cd 663b
00000200: 1fef 58bd 6f61 e2bd b6a6 8f3d 06a3 eb3d
00000210: 4581 e33d 1eca 50be d4ab 623d 47e2 3c3d
00000220: 2953 c23c bc8e 3dba ff8d 713d 9eed 8e3d
00000230: 866a cc3d ec26 36bd fa34 5cbd fbbe 113c
00000240: 4c69 573c d97c dcbd edbb 033e 12e3 ecbb
00000250: e585 853d aedc a83d 02dd 463d 19a2 c73c
00000260: f58c 1cbd b740 bf3d 34e6 f13c 3b58 873c
00000270: 990e 183d 5ed3 ae3d 909e c6ba 1428 31bd
00000280: 53ce bc3a e9cc d0bc fdb5 8a3d 158a af3d
00000290: eb88 4cbd a6b4 383e 6ec4 083e 056c a13d
000002a0: a99b ac3d e143 91bd b608 e83d 6d0c 133e
000002b0: 1676 cf3d e2d0 34bc 5095 d6bd a280 073c
000002c0: 6b7a 8dbd d7d7 49be a841 2dbc 4c2c 7f3c
000002d0: ff34 173e 0aca 243e 290e f93c d2fa 04be
000002e0: ad24 593e 5025 06bd 10a7 b53b 8fb4 023d
000002f0: 8dad 8e3d 578b 89bc 2b34 5bbc d029 143e
00000300: ad9e 213c e911 15be 7297 213d 2d0c 923a
00000310: 8c79 e5bd a7c5 1cbe 3389 ea3c 4bf4 ebbc
00000320: 1afe 4a3d 3406 95bd 7a33 b33d 494c a93d
00000330: 5faf 78bd 6f81 a13d a7ae 533d dc65 553d
00000340: 812a d7bd baaa 03bd 1037 dc3d aa8f 883d
00000350: 2a97 1bbe d23c 37bb b995 8d3c fbf6 a2bd
00000360: 519f 0c3e 5b32 0dbd 338c 62bd 9e6f 173e
00000370: 5b0e 883c 9586 cabd 4598 babd d141 ebbc
00000380: 2ded efbd d2e4 4cbe 4272 da3d b547 bb3d
00000390: 773e 1abe 5c35 b4bd ed9e ee3c 1f8d adbd
000003a0: fc43 10be 7bdc 6cbe 82af 0dbd 7d0e 6d3c
000003b0: 304a dbbd 96c4 6d3a 9cb2 91bc 5ae4 d4bd
-0.026270308 0.18017052 -0.07760252 -0.17751905 -0.06692107 -0.06528214 -0.078718 -0.1716728
0.03693281 -0.046525776 -0.078617044 0.06425471 -0.04650474 0.047425043 -0.03423714 -0.033904854
-0.019781092 -0.06122353 -0.11902827 0.09329282 0.021119285 0.024076495 -0.2331003 -0.04576305
0.07091702 0.033525508 -0.10590112 0.0434202 0.115953945 -0.10749888 0.14235081 -0.04971912
-0.10957621 -0.010105224 0.009632003 -0.015829857 -0.058495253 -0.09740881 -0.116617024 0.021379057
-0.014738781 0.036299895 0.04246803 -0.14288433 -0.1711126 -0.18483247 -0.086747065 0.16106474
-0.143129 0.035846926 -0.065233275 -0.008949785 -0.08888637 0.0030482803 0.051012646 -0.049149834
-0.08139562 -0.033324637 0.07764141 0.07966763 -0.0085917115 0.032083064 0.004891649 0.123596326
-0.120923 0.009250209 -0.105724566 0.060994983 0.088982746 0.09706403 -0.073387265 0.01977259
0.11640401 0.11806752 0.018969283 -0.008022405 -0.12305117 0.03394361 0.027768657 0.023997232
0.019788608 0.056991905 0.029211551 -0.026270539 0.12723245 0.045356765 0.112535626 0.11524616
-0.007828265 0.007058203 -0.023573995 -0.021884866 -0.08366288 -0.09438038 0.07604219 0.06282067
-0.0069153383 0.05134687 -0.04816702 -0.06714945 -0.05212243 0.07804279 -0.114660315 -0.0031207055
-0.085760206 -0.052638315 -0.094575554 -0.0706663 -0.080940366 0.033802822 0.030725092 0.08338764
0.04579945 0.10281719 -0.058560774 0.027958393 0.004945636 0.08725895 -0.10429822 0.07688579
0.13830368 -0.04664102 -0.18220615 -0.054926865 -0.12951088 0.047248006 0.012282677 0.003521741
-0.05296242 -0.1105374 0.070142195 0.11505704 0.111086406 -0.20389602 0.05533965 0.046114232
0.023721294 -0.0007231047 0.05897331 0.06978916 0.09981255 -0.044470713 -0.05376146 0.008895631
0.013147663 -0.10766 0.12864657 -0.0072292173 0.06519679 0.08245216 0.048550613 0.024369286
-0.038220365 0.09338515 0.029528715 0.016521564 0.037123296 0.08536409 -0.0015153456 -0.043251112
0.0014404751 -0.025488334 0.06772993 0.08571259 -0.049935263 0.18037662 0.13356182 0.07881931
0.08428127 -0.07093025 0.113297865 0.14360209 0.10129945 -0.01103613 -0.10477698 0.008270415
-0.06908115 -0.19711243 -0.010574736 0.015574526 0.1476631 0.16092697 0.03040226 -0.12986305
0.21205397 -0.032750428 0.005543597 0.031910475 0.06966696 -0.016790075 -0.013379137 0.14469075
0.009864491 -0.14557613 0.03945107 0.0011142545 -0.11204824 -0.15309773 0.028629875 -0.028803011
0.049558736 -0.07276574 0.08750053 0.08266503 -0.060714122 0.078860156 0.051680233 0.052099094
-0.10506154 -0.03214524 0.1075269 0.06668027 -0.15194383 -0.0027959836 0.017283307 -0.07957264
0.1373265 -0.03447185 -0.055309486 0.14788672 0.016608408 -0.09888951 -0.09111074 -0.028717907
-0.117151596 -0.20009163 0.10666324 0.091445364 -0.15062891 -0.0879924 0.029128516 -0.08474182
-0.14088434 -0.23130982 -0.034591205 0.014468786 -0.107075095 0.0009070126 -0.017785363 -0.10395117

lstm.weight_ih_l1 f4 [240, 60]
00000000: 296a 893c 70ef 8fbe 4045 33bc 4afd 30bb
00000010: 29e1 f33c 98a8 b1bc 8fac 8e3c 6178 d43d
00000020: 6c18 573e 63fb 2cbe 892d 943d 836b 2c3d
00000030: 37da b8bd 6b0c b53d 48d4 6b3c 0a27 d0bd
00000040: 0b33 4f3e b717 cdbb f00b b73d 5a24 aa3d
00000050: a45f 433d 34f4 333d bb1e d9bd d660 473b
00000060: ade3 23be cf50 3cbd 174b 0f3c c1f2 863d
00000070: 7494 4a3e 5016 103d 6dc9 1b3e 3922 153c
00000080: d820 84be 57eb 893b 419d 3dbe 00e9 3abd
00000090: 2ed0 47be 41ec 72bc 832e c13d 4e7f 603d
000000a0: 7e46 3fbe 903b 87bd f2e5 df3d 832a c5bd
000000b0: 7b68 883d 48b7 423e 2822 333e c517 b63e
000000c0: e87e d43c 5a9a 6f3d f6a7 ea3d 8333 1abc
000000d0: 26ec 67bc 5842 1d3b 2cff d93d e8ee 9fbd
000000e0: 96d1 1e3d 4f9f 1dbe 1a0d b4be 8060 eebd
000000f0: 8280 3bbd 8a7d f83c d045 7b3d be0f afbc
00000100: 2a8e 263d 0524 04be a32c 7c3b 832e 33be
00000110: 3708 c13c 0a6e 123d 17a2 1cbe cbe7 e93c
00000120: aa69 d53d ddb0 953e e950 183d 9e0e 203d
00000130: ff9f e4bc 67a0 eb3c 7a4d bb3d 258c 08be
00000140: 92e8 62bc a0dd f43d 4337 253d 2942 33be
00000150: d202 f6bd 52be 003d 6b46 32bd c844 88bd
00000160: 482d 48bd 804e 54bb 8a5e cf3d a3e7 9abb
00000170: eb29 f0bd e181 47be e80d ff3c 1fde e23d
00000180: 048b 14be c577 49be 5851 d53d 5c59 f8bd
00000190: ddb1 99be 1e6c d73d 2deb 7f3d fdae 07be
000001a0: 24b3 063e 0e05 ac3c 2064 a1bd e14b 283e
000001b0: 3866 3ebe c4db b53d 5a4a bf3d 4321 513e
000001c0: 49af 943d 9284 423e 5c64 dc3c b631 183d
000001d0: 33dc 28be bd11 613e 2e2d 32be 4802 083e
000001e0: f8f9 12be ac23 7a3e a727 4d3d 400d 243e
000001f0: 2c5f 403e dfbc 583d 3e6e 2e3d 1414 aabd
00000200: 6008 b1bd b5dc d03d cc08 d6bd 19d2 4fbd
00000210: c2f6 803d 8b83 f53d 6d66 09be ee57 9f3d
00000220: 1091 1f3e 9616 9ebc 2e4b 463e 3346 1a3e
00000230: 1e2f 46be caee e6bd 4b9f 2f3e e784 393c
00000240: 0be0 553d cdd9 9cbc 8719 8c3b a9c4 e7bd
00000250: 60c4 d03c 2e31 cabd b2c6 50bb 6ae6 843c
00000260: db43 613c f488 bd3d e73f 423d a01d 8e3c
00000270: 8ed4 103d 2f9a 0dbe d2e1 d3bd 3a31 9bbd
00000280: a056 0e3e 443a 213d 015a e2bd ebf0 c0bc
00000290: 2f47 80bd 530d c2bc d3cf 67bd d7ad 72bd
000002a0: 1fd9 c03b db5a 47bd 6140 f33d 5063 fa3c
000002b0: fa40 f63c 2109 7ebc d162 0fbd e368 0abe
000002c0: e9a6 813d dabb 203d 3fd3 c03d 6507 72bc
000002d0: 2596 42bc 3add 963d d8a2 9a3c c118 003e
000002e0: 2da6 c8bc ce7e 1c3d 0fb7 cebd 7f78 4dbe
000002f0: abdc 04be aba7 b4bd 7bf4 f93b 3dfc 08be
00000300: ff3b afbd 32cd f83d d364 30bc d681 b63d
00000310: a66b ee3d f444 39bd 9f52 d7bd fed6 37be
00000320: 1282 72bd db67 9abd 31d2 283d 4008 adbd
00000330: da38 1b3d ba76 a43d ae25 84bd 7d7b 3fbd
00000340: 724c 093b 462d 833d 6636 a8bc 1282 09be
00000350: b330 3b3e f482 7a3d 292a 253e 097e 9d3d
00000360: 2955 24bc 9bc6 443d 51d4 283e 5cbb 2dbe
00000370: 6c77 eb3d 8b9b 0e3e 262f f33d 7d69 e43d
00000380: 271e 6e3d 96c2 c23c 044b 9f3d 036b 02be
00000390: 26c2 bdbd 43d3 e5bd 083a d83d 38db 4c3d
000003a0: 506a e8bd baec 95bd fe72 6cbd aa32 07be
000003b0: 73a7 35bd b29f 91bb 39ed 22bd 2924 aa3d
000003c0: a477 bebd b62e d4bc 9716 ee3c 18c2 4abd
000003d0: 5f51 41bd bbfa 2fbe 94ea e5bd 1474 c33b
000003e0: a488 10be 4963 4f3d ed44 ebbd 34de f5bd
000003f0: bae3 ddbc e07b 393e f816 f4bd 2c63 1a3e
0.016774254 -0.28112364 -0.010941803 -0.002700644 0.02977045 -0.021686837 0.017416267 0.10374523
0.2100541 -0.16892771 0.07235248 0.04209472 -0.09025996 0.08840259 0.0143938735 -0.10163696
0.20234315 -0.0062589305 0.08937824 0.08307715 0.047698632 0.043934062 -0.106015645 0.003042271
-0.1600482 -0.045975503 0.00874593 0.065892704 0.19783193 0.03517753 0.15213557 0.009102398
-0.25806308 0.004208963 -0.18517019 -0.045632362 -0.19513008 -0.014826835 0.094326995 0.054808907
-0.18679234 -0.066031575 0.109325305 -0.09627249 0.06660553 0.19015229 0.17493498 0.3556501
0.02593942 0.05849681 0.11457817 -0.009411695 -0.014155423 0.0023995843 0.10644373 -0.078092396
0.038774095 -0.15392803 -0.35166246 -0.116395 -0.04577685 0.0303333 0.061345875 -0.021369811
0.040662922 -0.12904365 0.0038478754 -0.17498212 0.023563487 0.035749473 -0.15296207 0.02855291
0.104205444 0.29236498 0.037186537 0.03907644 -0.027908323 0.02876301 0.09145637 -0.13334711
-0.013849394 0.11956334 0.040335905 -0.17505707 -0.12012257 0.031431504 -0.043524187 -0.06653744
-0.04887131 -0.0032395422 0.10125454 -0.0047273203 -0.11726745 -0.19483139 0.03113456 0.110775225
-0.14506155 -0.19674595 0.10415906 -0.12126419 -0.3001851 0.105186686 0.06248014 -0.13250346
0.13154274 0.020998504 -0.078804255 0.16435196 -0.18593681 0.088798076 0.09340353 0.20422845
0.072599955 0.18995884 0.026903324 0.037156783 -0.1649025 0.21979423 -0.17400047 0.1328212
-0.14353168 0.2442767 0.050086644 0.1602068 0.18786305 0.052914497 0.042585604 -0.08304611
-0.086441755 0.101983465 -0.104508966 -0.050737474 0.06297065 0.119879805 -0.13417979 0.07780443
0.1558268 -0.01929788 0.19364616 0.15065841 -0.19353911 -0.11276014 0.17150609 0.01132319
0.052215617 -0.019146824 0.004275504 -0.11316807 0.025484264 -0.098726615 -0.0031856713 0.016223151
0.013749088 0.09254637 0.047424223 0.01734811 0.035358958 -0.13828348 -0.10345806 -0.075777486
0.13900232 0.039362207 -0.11052323 -0.023552379 -0.06263577 -0.023687994 -0.05659468 -0.059247818
0.005885258 -0.04867063 0.11877514 0.030564934 0.03006028 -0.015505106 -0.035006348 -0.13516574
0.06330664 0.03924165 0.09415292 -0.014772271 -0.011876618 0.07366414 0.018876478 0.12509443
-0.024493301 0.038206868 -0.100935094 -0.20065497 -0.12974803 -0.088210426 0.0076280213 -0.13377471
-0.08556365 0.12148513 -0.010766226 0.08911483 0.11641626 -0.045231774 -0.105138056 -0.17953107
-0.059206076 -0.0753934 0.04121608 -0.08448839 0.037896015 0.08030458 -0.06452499 -0.046748627
0.0020950106 0.064051196 -0.020533752 -0.13428524 0.18280296 0.061160043 0.16129364 0.07690055
-0.010030069 0.048040967 0.16487242 -0.16966003 0.11497387 0.13926522 0.11874227 0.11152933
0.058134224 0.023774426 0.0777798 -0.12736134 -0.092655465 -0.112219356 0.105579436 0.05001375
-0.113484025 -0.07320543 -0.057726853 -0.1320292 -0.044349145 -0.004444086 -0.039777014 0.08307678
-0.093001634 -0.02590118 0.029063506 -0.04950151 -0.047196742 -0.1718549 -0.11226383 0.0059647653
-0.14114624 0.050631795 -0.11487756 -0.120052725 -0.027086128 0.18113661 -0.119184434 0.15076894

lstm.weight_hh_l1 f4 [240, 60]
00000000: 68a9 7dbd b415 d53d 586e dcbd 9c23 aebd
00000010: 7862 91bd a634 f93d a468 aabd 3459 5b3d
00000020: 20fe 8e3d c0dc 64bc 8ce3 733d 281d 52bd
00000030: e85d ad3d 9956 fdbd 6c9f b5bd 5058 6b3c
00000040: bea2 c93d d07b 05bd f6d9 dc3d 7ad6 f1bd
00000050: 90f0 1c3d 7d2a a7bd fd91 b3bd aa43 abbd
00000060: ae30 8fbd 5c9f 8fbd ce4e 7bbd f74f acbd
00000070: a87a f5bd 1e0e 9dbd e66f 8b3d 22b7 bfbd
00000080: 9a66 34bd 40cc e93b 562b e4bd 6a0c 8e3d
00000090: c85d 9a3c 0c9f 6d3d 6872 d6bc 6bc8 84bd
000000a0: 4c6b 19bd c1bd fcbd 2009 8b3d ea09 c4bd
000000b0: a51d 96bd 2ae9 ce3d 8cfc cebc dc2e a73d
000000c0: 4ab1 b3bd 7458 d3bd b7f2 cabd 7e10 afbd
000000d0: 245d 43bd a898 d13c 2890 cf3d 3cea 80bc
000000e0: 20f5 f83b d4bd 963d f8dc eb3d f888 89bd
000000f0: bc6b 4a3d 00e8 473b 3278 c73d e779 d9bd
00000100: 1ccc 03bd c05c 053b 368f b5bd a060 9e3b
00000110: 00b0 e03a 18f5 cc3d 08ef 27bd 74d2 a63d
00000120: 9626 833d 3c9f 8f3d 7cb9 4fbd c061 2d3b
00000130: 80b1 9a3b 6434 693d 8069 8a3d 76c9 93bd
00000140: d3d1 a1bd 8eb9 58bd 7052 c83d 6e23 37bd
00000150: 68dc 8f3d 2057 bcbc 61ae f2bd c8ca ddbc
00000160: 90a6 8e3c a068 9d3d c265 ffbd 843f ce3d
00000170: 388c 02bc e6f5 cbbd 8a44 fe3d 3411 093d
00000180: 7f02 8fbd 70db 31bc f8a5 c53d 2493 dbbd
00000190: f08a 123c f6c2 f33d 546b 2b3d f83b d33c
000001a0: 3a68 e73d fc9a ec3d 3077 f33d 72c6 45bd
000001b0: 8634 dc3d 402e 103b 5897 563d 8889 89bd
000001c0: 4e2b b63d 601a 723c 8cbb 7dbd 9b3e 023e
000001d0: f0b0 573c 14b0 ec3d 74b3 8ebd 2023 2c3d
000001e0: beb8 853d c4c4 863d a656 bf3d c8d7 66bc
000001f0: 942d 3f3d fb07 013e 100f 063d 1c76 463d
00000200: b160 cfbd e47d 7ebd 44df a63d 5c1b e73d
00000210: 08b8 313d e7af c5bd 90f5 79bd 78cc 853d
00000220: dde2 a6bd 00ef 5bbb d6a0 01be 82ad ab3d
00000230: 4543 003e 1e2f babd e433 71bd ce9f 34bd
00000240: 4447 80bd bc61 6c3d 049b 763d 2820 933d
00000250: 3036 b13d 30e7 a33c 789f 92bd ec32 573d
00000260: de06 4abd ea8f bebd 81e8 8fbd 7cc6 0a3d
00000270: 00cd 003c 0085 b23b 3767 f4bd b85a 4dbc
00000280: 9230 e0bd 683e 2f3d 40d5 c93c 0057 083d
00000290: 700e cdbb 19e5 efbd b810 cfbc e33f eabd
000002a0: 691d 033e c899 e23d d02e ec3d 8297 fcbd
000002b0: 86e2 e9bd dcff 093d 8851 f63d 786d 213d
000002c0: d258 de3d 9a5b c3bd 4431 2c3d 4c90 da3d
000002d0: b54d 00be 7436 ce3d 7cce b33d 20fa 0a3d
000002e0: 2686 40bd 8004 553d f1c9 023e 602f 983b
000002f0: 7ccc 98bc 0c62 a0bc 9253 6dbd 2648 993d
00000300: 944a ef3d e8e5 a53c e4cb e3bc 28d8 f0bc
00000310: 22bb 963d 60bb b93d 9898 9cbd b45c 913d
00000320: 702d e13c badd ed3d e8c8 30bd 540a d33d
00000330: e8aa 503d 40e7 a1bd d899 4cbc 1651 6ebd
00000340: bca8 b3bd dab3 a93d 0085 193c 58e6 5a3d
00000350: 51da cabd e4ec 923d b5d5 023e cc24 a43d
00000360: 8091 ac3b 2866 04bc ffa9 e6bd f0c1 983c
00000370: 327d 0bbd 2edb ac3d 5117 82bd e8e5 89bd
00000380: 144e 0cbd eade 6dbd 80cd deba 800d 8b3c
00000390: d2a0 fb3d 3ec5 e0bd be21 da3d 0e7f bf3d
000003a0: 0cd8 8a3d ce7d e33d ae92 943d a8c4 073d
000003b0: 2205 d93d ee89 ed3d ea46 96bd da4a 4dbd
000003c0: 6ccd 653d f035 8c3c 083b 723d 1800 ec3c
000003d0: 988f 26bd dc6e 2fbd d8f9 32bc 968d ec3d
000003e0: 343a 8cbc ce75 e3bd 9408 1fbd 8f5e bbbd
000003f0: 50bc b0bd 5862 40bc 16f5 aa3d ccd6 f0bc
-0.061929137 0.1040453 -0.10763234 -0.08502886 -0.070988595 0.12168245 -0.0832074 0.053551868
0.06982064 -0.0139686465 0.059543177 -0.051297337 0.08465177 -0.12370033 -0.08868298 0.014364317
0.09845494 -0.03258878 0.1078376 -0.11808486 0.038315356 -0.08162401 -0.087680794 -0.08362515
-0.06991707 -0.07012817 -0.06135445 -0.084136896 -0.119862854 -0.07668708 0.06808452 -0.09361102
-0.04404316 0.007134944 -0.11141078 0.069359615 0.018843547 0.058013007 -0.0261776 -0.06483539
-0.037455842 -0.1234088 0.0678885 -0.095722035 -0.07329873 0.10103066 -0.025266908 0.081632346
-0.087740496 -0.103196055 -0.099095754 -0.085480675 -0.047696248 0.025585487 0.101349175 -0.015736692
0.0075975806 0.073604256 0.11516756 -0.06715578 0.04941915 0.0030503273 0.09739722 -0.10618954
-0.032177076 0.0020349473 -0.08865206 0.004833296 0.0017142296 0.100076854 -0.040999442 0.081456095
0.06403844 0.070127934 -0.050714 0.0026455969 0.0047208667 0.05693473 0.06758404 -0.0721616
-0.07901349 -0.052911334 0.09781349 -0.044711523 0.07024461 -0.022990763 -0.118496664 -0.027074233
0.017413408 0.07685971 -0.12470581 0.100707084 -0.007968001 -0.09959011 0.124154165 0.03346367
-0.06982898 -0.010855541 0.09650797 -0.10721424 0.008944258 0.1190242 0.041850403 0.025785431
0.112991765 0.115529984 0.118879676 -0.048284955 0.107522056 0.0022000223 0.052390426 -0.06715685
0.088949785 0.014776796 -0.061946437 0.12719195 0.013164744 0.11557022 -0.06967822 0.042025685
0.065293774 0.06580499 0.09342699 -0.014089532 0.046674326 0.126007 0.03272921 0.04845248
-0.10125864 -0.062131777 0.08148053 0.11284515 0.043388397 -0.09652691 -0.061025202 0.0653314
-0.081487395 -0.0033559203 -0.1265901 0.08382703 0.12525661 -0.09091018 -0.058887377 -0.044097714
-0.06263593 0.057710394 0.06020643 0.07183868 0.086529136 0.0200077 -0.071593225 0.052538797
-0.049322955 -0.09304793 -0.070267685 0.033880696 0.007861376 0.0054479837 -0.11933749 -0.012533836
-0.10946764 0.042784125 0.024637818 0.033286095 -0.0062578246 -0.11713619 -0.025276527 -0.11437967
0.12804188 0.11064488 0.11532366 -0.12333585 -0.11420159 0.033691272 0.120272696 0.03941104
0.10856785 -0.09538956 0.04203917 0.10672054 -0.12529643 0.1006898 0.08779618 0.033929944
-0.047002934 0.052006245 0.12772347 0.0046443194 -0.018652193 -0.019578002 -0.057941027 0.07484464
0.116841465 0.02025123 -0.027807184 -0.029399946 0.073599115 0.09068942 -0.076462924 0.0709776
0.027487487 0.116145566 -0.04316035 0.10304704 0.05094424 -0.079054356 -0.012487851 -0.0581828
-0.08772418 0.08286257 0.009370089 0.05344233 -0.09904922 0.071740896 0.12776835 0.08014831
0.0052663684 -0.008080997 -0.11262893 0.018647164 -0.034054942 0.08440243 -0.063521035 -0.06733304
-0.03425415 -0.058073916 -0.00169985 0.01697421 0.122865334 -0.10975121 0.10650967 0.09350406
0.06779489 0.1110798 0.072545394 0.03314653 0.10596682 0.115985736 -0.073377445 -0.050120212
0.05610411 0.017115563 0.059138328 0.028808638 -0.040664285 -0.042830333 -0.010923825 0.11550443
-0.017117597 -0.11106454 -0.03882654 -0.09148895 -0.08629668 -0.011742197 0.08347528 -0.029399298

lstm.bias_ih_l1 f4 [240]
00000000: 3ddd d4bc da57 1dbe bc9d 61be 11ea 093d
00000010: 4332 0dbc 053d c3bd 7f66 0fbe eb63 2e3e
00000020: f756 bbbd b0e8 0dbe f3e4 0abd 0b4a c6bd
00000030: 9ede febc 73f2 8cbd f29a 813c 08eb 2d3d
00000040: 70e2 ccba 6091 a63c 72cc a4bc 6c90 7ebc
00000050: e583 813d bf17 21be 88d2 b4bd 8a95 1a3e
00000060: f750 663d 600a bd3d a039 763c 8ea0 b8bd
00000070: 03ca 9abd f569 883d e49b 9b3d 466d be3d
00000080: 2a26 c73b d09d ab3d e6e6 893e 5235 213e
00000090: 9979 15be 993b 0f3e 44cd 073e da28 ee3d
000000a0: 8af9 c03d 3e61 29be dc1c 333e 6c80 3fbe
000000b0: 1e59 1fbe a1dd 0ebe 6d8a 753e abfa 323d
000000c0: b9c6 6e3d eae0 2abc 2073 b13d 29c6 493e
000000d0: 9fa5 163b 57f8 1c3e 8547 d33d 1402 42bd
000000e0: 1b06 2ebe d080 613e ec2c f03d bcb1 a6bd
000000f0: 0016 bdb9 d168 003e 0013 2ebd c320 f7bd
00000100: 00c4 653a 4086 1ebb 5c24 00be 6af2 06bd
00000110: 0051 6e3a 5cfc 41bd 8e52 3cbd 884c b93c
00000120: c621 b33d 61d8 96bd bf4f 8bbd 7056 b1bb
00000130: 2a32 05bd c0e5 903c 04ed 6cbd 8b1c 02be
00000140: d66b b63d 6a91 843d 987c d03d 70ab df3d
00000150: 0817 053d 666b 95bd 78d5 373d 115c 8bbd
00000160: 3044 68bd 3f87 cfbd a8df 293d 52e7 60bd
00000170: 22e8 bbbd 8c99 85bc 0b63 febd f09d a4bd
00000180: 8a97 a4bd 0233 b4bd d905 b6bd 9d16 debd
00000190: 24e0 28bd d234 58bd f83a b23d 80da 453b
000001a0: 8c7e 3b3d 9a79 8c3d 887f bbbc f68b a43d
000001b0: 3898 823c a03e 84bb 0626 c1bd a43c 793d
000001c0: 4024 92bc e427 c7bd d000 99bd f636 01be
000001d0: 5cdb bdbc 8817 d1bc 7a34 44bd c4ff bebc
000001e0: d1e5 5ebc 7131 87bc 18d8 32bd e82c a9bc
000001f0: b348 2b3e 7ae1 493e 6a85 fb3c d7c7 ec3d
00000200: ecea b33c e9ff fabd d354 cc3d efde d33c
00000210: 2aab 9c3d 3d24 2fbe 336a 2cbe fd0d b53c
00000220: 95cc 433e fdcd 9fbc e318 683e fcaf 9d3b
00000230: 9434 d7bd d4b4 fa3d ac96 463e 387f 83bd
00000240: f65b 86bc d073 bc3c 0b6e c93d 9aa2 943e
00000250: a88e c7bd aefa b23d 0618 1e3e d961 bb3c
00000260: 9138 9cbd 7ed8 99bd bd51 983d a15b 10bd
00000270: cdb9 4bbd 25e4 c73d 109e 8d3d 3d39 c63d
00000280: 5420 163e 8a21 b53c df2f 1e3e e2ef 973c
00000290: 4c3c eb3d 33af 8ebd cc1c 67bd 224e 413e
000002a0: 3d23 7ebd e1ce 043e 9412 983c f872 35bd
000002b0: adfd 41bd 575e 9d3d d468 e83c a43e 44be
000002c0: 0b82 233d 76a9 2cbd 4ee2 be3d 3e68 243e
000002d0: a3d3 dd3d d55f 933c 515e 953c bad4 31be
000002e0: 7207 a23c 286e f13d cbec d0bd ecf0 6fbd
000002f0: a1f3 07bc 94c8 e93a 3a26 dc3d bc28 a6ba
00000300: e202 f23c d44c c6bc 4a0e c43d df2a efbc
00000310: 6646 0c3c 438d f73d 9b79 f33d f75c 88bc
00000320: 61a3 b43d 010a 4a3b 4500 46be 91d4 533e
00000330: 3b08 bd3c e09a d6bc 5050 523a f129 5b3d
00000340: cefc 6ebe beea 3b3d 0d08 8b3e 34a7 65bb
00000350: d571 5abc f4f3 f63d fefa 273e 72b0 75bd
00000360: b213 02bd d0a3 dc3d eeb4 14bb 3436 ad3c
00000370: 239b 8bbd 1000 103d 87a8 d0bc d16f 23be
00000380: 6a04 873c 740c dfbd 30b4 873e 1fec 8abd
00000390: d9a3 443d 6686 02be 6a22 e6bc d040 babc
000003a0: ea4c b3bd 8d04 963d 705a 663d d9af 463e
000003b0: 9d3a abbd 3677 383e 4d6e b23b d570 7fbd
-0.0259844 -0.15365544 -0.22032827 0.03367049 -0.00861794 -0.09533123 -0.14003943 0.17030303
-0.091474466 -0.13858294 -0.03390975 -0.09682091 -0.031112012 -0.06882181 0.015820954 0.04246047
-0.0015631448 0.020332992 -0.020117018 -0.015537363 0.06323985 -0.15731715 -0.08829218 0.15096107
0.056229558 0.092304945 0.015028387 -0.090149984 -0.07558062 0.06660835 0.07598093 0.09298186
0.0060775476 0.0837971 0.26933974 0.15742996 -0.14597167 0.13987578 0.13261896 0.116288856
0.09422596 -0.16541001 0.17491478 -0.18701333 -0.1556134 -0.13951732 0.23978586 0.043696087
0.058294985 -0.0104296 0.086645365 0.19704498 0.0022986901 0.15329109 0.10316376 -0.047365263
-0.16994517 0.22021794 0.11727318 -0.08139369 -0.0003606528 0.12539984 -0.04249859 -0.12066796
0.0008764863 -0.0024188906 -0.1251387 -0.032946028 0.00090910494 -0.04735981 -0.045977168 0.0226195
0.08746676 -0.0736549 -0.0680232 -0.0054119155 -0.032518543 0.017687678 -0.057843223 -0.12706201
0.08907287 0.06473048 0.10180014 0.10921371 0.032492667 -0.07295875 0.044881314 -0.0680467
-0.056705654 -0.10133218 0.04147306 -0.054908104 -0.09175135 -0.016308568 -0.12421235 -0.08037937
-0.08036716 -0.087987915 -0.08887834 -0.10844157 -0.041229382 -0.05278475 0.08702654 0.003019005
0.04577498 0.06859131 -0.02288796 0.08034508 0.015941724 -0.004035786 -0.094310805 0.060848847
-0.017839551 -0.097244054 -0.07470858 -0.12618622 -0.023175888 -0.025523916 -0.047901608 -0.023315318
-0.013604597 -0.016503068 -0.043663114 -0.020651296 0.16726951 0.19714919 0.030703265 0.11561554
0.021962605 -0.12255842 0.099771164 0.025863139 0.076498345 -0.17103668 -0.16837387 0.022101397
0.1912101 -0.019507403 0.22665744 0.0048122387 -0.10508075 0.122415215 0.19393414 -0.064207494
-0.016401272 0.023004442 0.09835442 0.29030305 -0.097440064 0.087392196 0.15438852 0.022873806
-0.07627977 -0.07511996 0.07437465 -0.035243634 -0.04973774 0.09760312 0.06914914 0.09678886
0.1466077 0.02211072 0.15447949 0.018547002 0.1148611 -0.0696701 -0.056423947 0.18877462
-0.062045325 0.12969543 0.018563546 -0.044299096 -0.047361065 0.076840095 0.028370298 -0.1916452
0.03991894 -0.042153798 0.09320508 0.1605539 0.10831382 0.017990032 0.01823345 -0.17366305
0.01977894 0.11788589 -0.10201415 -0.05857937 -0.008297832 0.0017836266 0.10749479 -0.0012676935
0.02954239 -0.024206556 0.09573038 -0.029195247 0.008561706 0.120874904 0.11888429 -0.016645892
0.088202246 0.0030828717 -0.1933604 0.20686556 0.023075214 -0.026196897 0.0008022832 0.053506795
-0.23338625 0.045878164 0.2715458 -0.0035042288 -0.013332804 0.12058249 0.1640434 -0.059982724
-0.031757064 0.10773432 -0.002269085 0.02114401 -0.06816699 0.03515631 -0.025470985 -0.15960623
0.016481597 -0.10891047 0.2650466 -0.06783318 0.04800782 -0.12746581 -0.028092582 -0.022735983
-0.087549046 0.07325087 0.05623859 0.19403018 -0.08360789 0.18014225 0.005445278 -0.062363464

lstm.bias_hh_l1 f4 [240]
00000000: 5fa9 e93d 03b3 243d 75d7 4d3c df57 2abd
00000010: 56aa 34be 57af 33bd c9ff 47bc 2089 60bb
00000020: 1c42 9cbd dce0 01be b96f 8b3d a324 dbbd
00000030: 25aa 0d3e 6398 9c3d a3ca bc3d d23b 003d
00000040: 7ef0 543d 4494 59bc f592 b93d 2d32 5a3d
00000050: 5421 053e 76a1 a1bd d7e6 5dbd cd1c 1e3e
00000060: d927 70bd d2a9 90bd be86 023e 7d8f 1fbd
00000070: 060e 6fbe 8b34 383e 5204 0b3e f3fc 44bd
00000080: 6029 f5b9 7260 b73d e2cb 5b3e d1fe f1bb
00000090: 9f90 8e3d b0b3 4a3e 2869 a23d d0aa 643c
000000a0: 2edb b93d 14f1 26bd 53d5 913c ba10 17be
000000b0: 1892 253d 4c33 f0bd 6e01 ae3d 367c 213e
000000c0: 5130 c7bc 3991 2bbd 3f4e 673d 7623 af3d
000000d0: 3584 e9bd c767 e33d 74b2 b33d fd57 033e
000000e0: aa42 93bd ca57 3e3e 6ed6 d9bd a1bb 93bd
000000f0: 40dd 633c d04f 9bbb b862 c5bd ec9a 853d
00000100: 087f 4a3d f7be 83bd 4ef2 00bd b860 8e3c
00000110: 4a32 1bbd 4068 473d f30d ddbd c4d8 c3bc
00000120: b0dc cd3c 3626 d93d c2ee dc3d 007e 303d
00000130: d040 ac3d be44 3cbd a884 9a3d 30ad b0bc
00000140: 3cd4 9b3d ca44 80bd 1a60 59bd 627d b03d
00000150: 7659 9bbd c2ff 8dbd 9ef2 9abd 2ed9 b4bd
00000160: 1a43 72bd d8b1 a5bc d80f 4cbc 76c4 70bd
00000170: f585 85bd 1dcf 80bd 3a4f a73d 6cbb 5d3d
00000180: 2e5f 83bd 04f4 ac3d 5a0e 913d e0ae d53b
00000190: b8c5 0c3d 3416 5d3d 5a3e 84bd 500c 103c
000001a0: 20d4 2ebc 3670 983d 46aa 7cbd 2698 ff3d
000001b0: 055d aebd 076b 91bd c082 08bd 94b1 e0bd
000001c0: 1497 bfbc 5eb9 f5bd 10a4 9b3d 4f43 d7bd
000001d0: 74e0 9a3d f0aa 753d 3037 64bc e8cb 183d
000001e0: 944e 29bd b337 77bd 9ea7 173c 0ae9 d23b
000001f0: 2b37 e63d ec82 2a3e 94f8 d4bd e2da 7abd
00000200: c746 683d bf82 b1bb 63aa 253e 60f5 023d
00000210: 1421 923d 0d07 75bd aee8 cdbd ec06 253d
00000220: 7dc7 f63d 3b60 8e3d e6b9 9a3d 44de 823d
00000230: 1afe 93bd 7ec2 b33d f4fb 273e 1002 e0bd
00000240: cc20 d43d f7f2 0b3e a929 9e3d f6c0 853e
00000250: 8b44 d2bd b0ac 543e 15d6 b03d 1991 5f3e
00000260: 2be5 8bbc ceb0 d5bc 4aa6 2ebc 6ae6 053d
00000270: e43f 513d 84ca 193e 5d95 5d3e 3f5e a7ba
00000280: 153f 84bd a28e 27bc e77c 623e 3586 b13d
00000290: 8501 8bbd 9667 09bd 0c68 19bd e642 c13c
000002a0: 6403 cc3a dc75 cdba 2a51 1ebe e7b8 14be
000002b0: fa5f 4a3e 2690 26bb 99a5 1f3e 6e94 793b
000002c0: 8276 023d d10a 833d 9644 583e cc76 2f3e
000002d0: 0d0f e33d 0e80 88bd 0cf9 1e3c 2c01 013d
000002e0: e9fc 43be b3b8 1d3d 3e19 16bc a8e5 cb3d
000002f0: 0ac0 40bd c395 6ebd 9130 0fbd 105d 2fbe
00000300: 2257 ff3d c4c9 923d 7c95 2d3e da36 513e
00000310: 4412 f03d 9153 e93c 8dff cabd 3d84 c93c
00000320: 8cb6 ec3a a037 bebd a5fe f7bd 123d 4c3e
00000330: f206 193e 3230 acbd 1ba0 cd3d 008c 913d
00000340: 9580 8dbe 8353 85bd 1a41 8c3e db72 a13c
00000350: 3b99 2fbd b0cc 033e 876a 843e 5ac9 75bd
00000360: 6d6e 833d 02e1 a73d 0771 043e d16e 1e3e
00000370: 6c47 84bd 0945 913c fbf1 163e 0c85 15be
00000380: 0324 023d bc97 91bd d33c 6f3e e80b 363e
00000390: d538 743c 0dea ebbd 3e1c 043e 08ef 5d3e
000003a0: 009a 8cbd d027 4d3d e26d 13bd 83f7 023e
000003b0: 7c73 533c d5eb 083e 4357 233d 27fc e7bd
0.11409258 0.04020978 0.012563576 -0.041587707 -0.17643103 -0.04386839 -0.01220698 -0.003426142
-0.07629797 -0.12683433 0.06808419 -0.10700347 0.13834436 0.07646253 0.092183374 0.03130705
0.051987164 -0.013279978 0.09061233 0.053270508 0.13000995 -0.07892124 -0.054175224 0.15440674
-0.05863175 -0.07063641 0.12746713 -0.0389552 -0.23345193 0.17988794 0.13575867 -0.048092794
-0.00046760868 0.08953942 0.21464494 -0.007385113 0.06961178 0.19795108 0.07930213 0.0139567405
0.09075008 -0.040757254 0.017801916 -0.14752474 0.04042253 -0.11728534 0.084963664 0.15770039
-0.024315031 -0.041886542 0.056471106 0.085516855 -0.114021696 0.11103778 0.087742716 0.12826534
-0.071904495 0.18588176 -0.10636602 -0.07213522 0.013907731 -0.004739739 -0.0963797 0.0652369
0.049437553 -0.06432908 -0.03148108 0.017380103 -0.037889756 0.048683405 -0.10793676 -0.023907073
0.025129646 0.10602991 0.10787727 0.043088913 0.084107995 -0.045963995 0.075448334 -0.021566957
0.0760884 -0.062631205 -0.053070165 0.08617665 -0.07585423 -0.069335476 -0.07565807 -0.08830486
-0.059146024 -0.020226404 -0.012454949 -0.05878111 -0.06519691 -0.06289504 0.08169408 0.054133818
-0.064146385 0.0844498 0.070828155 0.006521091 0.034368247 0.053976253 -0.06457205 0.008791998
-0.010670692 0.074432775 -0.061685823 0.12480192 -0.08513836 -0.07100492 -0.033327818 -0.1097137
-0.02338747 -0.119982466 0.07599652 -0.10510885 0.07562342 0.05997747 -0.013929173 0.037303835
-0.041334704 -0.060355853 0.009256272 0.006436472 0.11240991 0.16651505 -0.10398975 -0.0612439
0.056708124 -0.0054171975 0.16178279 0.03197229 0.071352154 -0.059821177 -0.10054146 0.040289804
0.12049768 0.06951948 0.075549886 0.0639005 -0.072262004 0.08777331 0.16404706 -0.109378934
0.10357818 0.13666902 0.0772279 0.2612378 -0.1026698 0.20769 0.08634583 0.21832694
-0.01707705 -0.026085284 -0.010659764 0.032690443 0.05108632 0.1501866 0.21639009 -0.0012769176
-0.064573444 -0.010226877 0.22117959 0.08668176 -0.06787399 -0.033546053 -0.037452742 0.02359147
0.0015564975 -0.0015675384 -0.15460649 -0.1452366 0.19763175 -0.002541551 0.15590514 0.0038082856
0.0318513 0.063985474 0.21119913 0.17135161 0.11086855 -0.066650495 0.009702932 0.03149526
-0.19139446 0.03850622 -0.009161292 0.09955913 -0.047058143 -0.058248293 -0.034958426 -0.17125344
0.12467791 0.0716739 0.16951555 0.2043108 0.11722234 0.02848223 -0.09912024 0.024599189
0.0018059774 -0.092879534 -0.121091165 0.19945171 0.14944056 -0.0840763 0.10040303 0.07106781
-0.27637163 -0.06510069 0.2739342 0.019708088 -0.04287074 0.12871051 0.25862524 -0.060006477
0.064175464 0.08197214 0.12933742 0.1547196 -0.06458935 0.017733114 0.14740746 -0.14601535
0.031772625 -0.07109019 0.23363046 0.1777798 0.014906128 -0.11519251 0.12901399 0.21673214
-0.06865311 0.050086796 -0.035993464 0.1278973 0.012905952 0.13371213 0.03987814 -0.11327391
