audio-classification/rnn.pth (torch_old, 317727 bytes, 20 tensors)

lstm.weight_ih_l0 f4 [240, 13]
00000000: 90c9 a63d c0b6 bdbd 5d7a 083f 3063 263e
00000010: 8345 b7bc 26aa 533c c0ae 21be b38f 663d
00000020: 1305 94bd eed9 b3be f77f a53e 2e1a 603c
00000030: 6b2d 8d3e a480 883e 7f73 86be 44d3 26bd
00000040: 9d22 ab3a ec17 3bbe 077b cf3e 50bc 1ebe
00000050: 0a4a 6b3c 9cf3 28be bd2b d93c 1fd7 dc3d
00000060: eb14 ae3d c512 863e eecd aabd b645 2dbe
00000070: 7a7c b83d 92e6 a83e 4816 ad3e 52a6 353e
00000080: 5d61 90bd f864 b1be 6a14 a2be fdc9 ec3e
00000090: 568b 6ebe 22c5 e53e 09f6 0c3e 4659 483e
000000a0: 91e3 efbd c281 06bd 5b8c 743e 8ab2 96bd
000000b0: bc06 683f 18ee 6b3c 6a27 953e 216a 51be
000000c0: f814 193e b2b6 f4bd 57c8 4b3e c8ab 18bf
000000d0: 09af cf3d 5508 023d 7455 a2bb 776c 323e
000000e0: cfab 3abe 72e6 a03e 1619 8bbe 6415 c73e
000000f0: d6eb 53be ae62 673f 430c 8b3e f160 0f3f
00000100: 9957 903e 7494 8a3e b8fe fabe f595 f03e
00000110: a720 54be 006d 66be e452 34be 109d 093f
00000120: 4c44 f13e 74fd a83d 0403 07bf 31ab 4cbe
00000130: 8271 9fbd b147 34be 8cc6 c53e a85c 75be
00000140: f644 083e 69c8 383f be3e 903e 95dc a8bd
00000150: d242 bf3e d241 5f3e bd56 0f3f 7759 e8bd
00000160: 7442 54be 6794 6e3d 9491 45be 2794 fd3d
00000170: bc18 c4be cfd1 d3be 00bf c2be 7f83 d2be
00000180: 12dc 003d 9491 63bd c447 943d 2056 6bbe
00000190: 2e9e 99be 4044 4b3c 7519 123e 871a ee3e
000001a0: ba10 923e 59cc 5bbe 8970 ea3d 273e cb3d
000001b0: a635 f23d d2e6 cf3e 78d5 e43d e0d6 79bd
000001c0: c81a 7bbe 637a 9ebe 5912 8fbc 208a bb3c
000001d0: 4e3f 78be b0dc 7f3e 4322 86bd 73ca 47be
000001e0: 0168 0d3f 0baa b13d fadd 123e 0cf1 093e
000001f0: 7557 f33d ae6a 1dbf 2b8d 753e acc6 a33e
00000200: e92b f93e 9add 60be 98c0 9fbd 81ad 51be
00000210: f892 b5be 1d69 1fbf 39f3 dd3c d462 f1bd
00000220: 6ad1 e33c 8f6b 7cbd 2943 123e 5b51 41be
00000230: 6aec 8d3e 2c56 223e 2cfc 353d dc99 c1be
00000240: dd8c f83e 1579 7bbd 62b2 203e 2208 3dbd
00000250: 7fcd c03d 56bd 81be 3c50 c53e cbba 3fbf
00000260: 6dde 5c3e da6b 0dbe afc4 f13d 33c0 30be
00000270: de94 4fbe a074 bc3e ae82 cfbd 6917 afbe
00000280: 490b 2ebe 8faf 6a3e 7760 373d 459a 20bf
00000290: 4222 90be 000b c1bd 2af5 d13e e997 7e3e
000002a0: b21d 023f 393b 3f3d 3c81 41be 1f29 d0be
000002b0: 3aac 723c 20c3 a6be 9ad3 0b3e 8eb0 29be
000002c0: 5d14 cc3d d29c a83e a0df 6cbe 290c 90be
000002d0: f6ee 683d 4755 2ebe 91ec 303f 3336 07be
000002e0: c3e4 513e 4147 45bd 45ad 42be d801 573e
000002f0: 7da9 163e faec ccbd bc12 8cbd 7043 0abf
00000300: d6ed 32be bdf3 9dbe 9a1f 8abd abaa 37be
00000310: 590f 113d ef74 0abe d51e ca3e 8186 a63e
00000320: 2e3a 47bf f460 353e 146b 2e3e d23e 243f
00000330: c54c f3bb 24a5 43be a0a8 a6be 2d18 f53d
00000340: 210f b6bd e8ab 0fbe cbea 1bbe 01b0 1b3e
00000350: b491 a9be 5136 d73d 51ba c4be 5b29 2c3f
00000360: e8fa 4abe d3db ed3e 53d9 acbe d1bd 85be
00000370: 2bb8 69bd 3f32 0b3e ed26 5ebe 3a3a e4be
00000380: cfa7 573e 498f 873e 552c 2dba 8d17 fbbd
00000390: 9695 ce3b cb81 863d 83d9 1f3e fe12 16bf
000003a0: 4ad7 d33e 92c9 a8bd 61b2 143e 4746 133f
000003b0: 9bd1 73bd b200 f1bd f5bc 86be b738 1cbc
000003c0: 228b 38be 7ab3 f8bd 995f ca3b 4d26 69be
000003d0: 27c4 89be 576a c6be 46f9 143f 9639 83be
000003e0: 72f2 293e 5b85 8a3e b9b9 e8be 24b6 a93b
000003f0: 9b9f 42bd 5e5e 543d 66f8 c6be 2146 143f
0.08143914 -0.092633724 0.5331171 0.16248775 -0.022372013 0.0129189845 -0.15789318 0.056289386
-0.0722753 -0.35127205 0.32324192 0.013678117 0.27573714 0.26660645 -0.26259992 -0.040728822
0.001305658 -0.18270844 0.4052355 -0.15501523 0.014360914 -0.1649918 0.026510114 0.107832186
0.085000835 0.26186195 -0.08340059 -0.16921124 0.09008117 0.3298841 0.33806062 0.17739227
-0.070498206 -0.34647346 -0.316562 0.46247855 -0.2329534 0.44876963 0.1376573 0.19565305
-0.11713327 -0.03283859 0.23881666 -0.073582724 0.90635276 0.014400028 0.29131633 -0.20450641
0.14949405 -0.11948909 0.19900642 -0.5963712 0.10140807 0.031746227 -0.0049540345 0.17424189
-0.18229602 0.31425816 -0.27167577 0.38883507 -0.20695433 0.9038495 0.27157792 0.56007296
0.28191832 0.27066386 -0.4902246 0.46989408 -0.20715581 -0.22502518 -0.17609745 0.53755283
0.4712242 0.08251467 -0.52738976 -0.1998718 -0.07785322 -0.17605473 0.38628042 -0.23961127
0.13307557 0.721808 0.28172868 -0.08245198 0.37355667 0.21802452 0.5599173 -0.11345189
-0.20728475 0.058246996 -0.19293815 0.123817734 -0.3830012 -0.4137101 -0.38036346 -0.4111595
0.031459875 -0.055558756 0.07240251 -0.22982073 -0.30003494 0.012406409 0.14267524 0.46504614
0.28528386 -0.21464671 0.11447246 0.09923964 0.11826639 0.4060579 0.111735284 -0.060995936
-0.24521935 -0.3095275 -0.017464804 0.022893012 -0.24242899 0.2498653 -0.06549504 -0.19510822
0.5523682 0.08675011 0.1434249 0.13470858 0.118819155 -0.61490905 0.23979633 0.31987512
0.48666313 -0.21959534 -0.07800406 -0.20476343 -0.3546369 -0.62269765 0.027093517 -0.11786428
0.027809817 -0.061626013 0.14283432 -0.18878691 0.27719432 0.15853184 0.044429943 -0.37812698
0.4854497 -0.06139477 0.15693048 -0.046150334 0.09414195 -0.25339764 0.38537776 -0.748944
0.21569224 -0.13810673 0.118050925 -0.17260818 -0.20271632 0.36807728 -0.10132347 -0.34197548
-0.16996492 0.22918533 0.04476973 -0.62735397 -0.28151137 -0.09425926 0.41007358 0.24862637
0.5082656 0.04668734 -0.18896955 -0.40656373 0.01481157 -0.32570744 0.13654938 -0.16571257
0.099648215 0.32932144 -0.23132181 -0.28134277 0.056868516 -0.17024718 0.6911097 -0.13204269
0.20497422 -0.048163656 -0.1901141 0.20996797 0.14713092 -0.10006137 -0.06839511 -0.5400915
-0.1747354 -0.3085002 -0.06744309 -0.17936198 0.035415027 -0.13521169 0.39476648 0.32524493
-0.7782315 0.17712766 0.17033035 0.64158356 -0.007424923 -0.19105965 -0.32550526 0.11967502
-0.08889604 -0.14030421 -0.15226285 0.15203859 -0.33118975 0.10508407 -0.38423398 0.67250603
-0.19822276 0.46456775 -0.33759555 -0.2612138 -0.057060402 0.13593386 -0.21694537 -0.44575673
0.21060108 0.26476505 -0.0006606032 -0.12260351 0.006304453 0.06567725 0.15610318 -0.5862273
0.4137519 -0.082415715 0.14521171 0.5752911 -0.059526067 -0.11767711 -0.26316038 -0.009535006
-0.18021825 -0.121436074 0.006175947 -0.22768517 -0.26907465 -0.38753006 0.5819286 -0.25629872
0.16596392 0.27054867 -0.45454195 0.0051791836 -0.047515493 0.051847808 -0.38861388 0.5791951

lstm.weight_hh_l0 f4 [240, 60]
00000000: 6400 e03d 0006 acbd baae b7bd b8c6 e9bc
00000010: 8a72 93bd d215 58bd 5459 a33d 6451 683d
00000020: f707 81bd fac9 83bd 4ebb ffbd a082 8b3d
00000030: 38fa b43d ec57 473d 8472 cfbc 1eda 6bbd
00000040: d0b2 b9bb b2cd ee3d 9ec8 89bd 2084 583c
00000050: 8826 b93d 50e7 c13c d4e9 103d 0071 68bd
00000060: 30f0 1f3c 847b d5bd 69eb a3bd 8049 a13c
00000070: bcb7 3ebd eb94 00be a8de 283d 98e3 9e3d
00000080: fb3b e4bd 8e42 9dbd d426 53bd f0bf 503d
00000090: e0be febc b8e3 03be 80f8 ddba d09e 5b3c
000000a0: 60b1 ecbc 3c28 c1bd e737 a6bd 78ab 90bd
000000b0: 9e9c 8a3d 7aa2 abbd 50b2 983c e2a4 b4bd
000000c0: ec1a 80bd 4ea2 9a3d 8ecd f43d f853 9b3c
000000d0: b17d e2bd 2a3d 80bd 9cbd fbbd b7e9 dabd
000000e0: c84c abbd 2992 c5bd 5e1d 8a3d 2263 c03d
000000f0: 3978 8cbd c011 cfbd 820f 803d 52a3 01bd
00000100: 75c6 dbbd 4274 993d 4c60 7b3d 6075 4cbc
00000110: 30c3 a3bd 203e 2e3c 902f da3d 40af 0b3c
00000120: a488 0f3d 48c0 b7bc c1b3 bebd b2f6 fc3d
00000130: 626a fa3d c6d1 afbd 5a43 f43d 7814 dd3c
00000140: c90c 86bd cc29 4d3d 34c1 343d 6188 e7bd
00000150: e273 fa3d 6c7f f5bc 088a 823d 00f6 f9ba
00000160: 2083 4c3d 40ba ea3c c2ef ee3d 38b8 8a3c
00000170: c870 95bc 207b c33c 142e 373d 8aa3 adbd
00000180: 5893 7c3d 767c 9abd 20aa 333c 9e2b 03bd
00000190: dc23 a03d e978 c4bd 0abf 8c3d e0f6 62bc
000001a0: 8733 013e 8c34 593d 8028 973a fe0a fcbd
000001b0: bada 44bd 049f 993d 48de 26bd 0053 1a3b
000001c0: 1c0c a4bc 4c83 283d 5479 ee3d 4878 9ebd
000001d0: 3098 f2bc 5b1b bdbd 3ad8 06bd f2bf 1cbd
000001e0: 409a 0b3c 5079 f3bb 3641 e23d 08c7 e7bd
000001f0: c854 5d3d 78c0 2b3d aef3 8fbd 3c9a c0bc
00000200: e334 e0bd 98cd 583d c2eb fc3d 104d f5bc
00000210: 007b a33a 0217 e4bd 8e48 22bd ca15 8a3d
00000220: a8ee 113d e0c5 ff3c e458 083d 80b6 683d
00000230: 8ca6 dd3d ca8b 23bd 90ef a83c c5a5 d3bd
00000240: a45d 383d 80ba 78bc 1636 ddbd 40c1 233d
00000250: 3c4c e43d 8047 d83d 08b1 ca3d 59f7 ebbd
00000260: 8092 a53c 10c8 cdbc db3c b1bd 8c47 3abd
00000270: 8c4c b1bd f201 4ebd 887a 643d 18af 35bd
00000280: 2cba f53d ec19 cbbd dafd f53d accc e73d
00000290: 003a cabd f166 e1bd 6345 99bd 54a8 3b3d
000002a0: 0ce3 debd be5b fcbd 9f4e 003e 0c52 85bc
000002b0: 380f 53bd 57ee cfbd 8003 8d3a a5a7 9abd
000002c0: d43e 42bd 4c80 173d 0004 b43b 84a2 e63d
000002d0: c081 993c dc02 a1bd 80e9 87ba fcec 4a3d
000002e0: 80bd b03d 1a5a e1bd 0e8b c43d c878 5f3d
000002f0: 0ce9 fdbc ea38 e03d 4e79 44bd 3c9f b23d
00000300: a63e b9bd b08b 96bb f203 d1bd da6f 44bd
00000310: 96f7 bb3d 57e5 bbbd f028 d33c 9992 f9bd
00000320: 90cf e83d 2211 d13d 9046 973c a775 a2bd
00000330: 166a 873d 6064 023d a66a fbbd 0e77 e7bd
00000340: 0eff b03d 70d0 583c 30d9 4b3d ce65 b5bd
00000350: b048 f53d 2f54 edbd 1fc4 fdbd 5699 acbd
00000360: 0010 4dbd 10a5 10bc 8149 b8bd 8099 49bb
00000370: d026 913d 3ac9 a9bd 20db bc3b 72e6 e3bd
00000380: a019 ecbb f8ee ab3c 8415 c73d 08b5 e9bd
00000390: c287 943d 1050 253d 0421 e8bc 78ac 46bc
000003a0: 883e 583d d387 c3bd fae3 863d d832 bd3c
000003b0: fcc7 d3bc 9d32 86bd 14c5 073d c0f7 56bd
000003c0: 0089 dfbb c627 cf3d 3e93 e6bd 1b05 ecbd
000003d0: 7cfd f5bc 80c7 a6bb aa7a 8c3d c80b 8cbd
000003e0: f862 983c e0cd d0bb b8d5 c13c aed4 e73d
000003f0: 0016 f93c d45e ce3d d0c1 543d f005 9bbc
0.109375745 -0.08399582 -0.08968873 -0.02853714 -0.07199581 -0.052755184 0.07976022 0.056718245
-0.06300347 -0.06435008 -0.124868974 0.06812024 0.08836788 0.048667833 -0.02532316 -0.05758106
-0.005667068 0.11660327 -0.06727718 0.013215095 0.090405524 0.023669869 0.035379246 -0.05674839
0.009761855 -0.10423949 -0.08003885 0.019688368 -0.04656194 -0.12556808 0.041227967 0.07758254
-0.11144253 -0.0767871 -0.0515507 0.050964296 -0.031096876 -0.12879837 -0.0016935021 0.013404563
-0.028893173 -0.09431502 -0.08116131 -0.07063955 0.067681536 -0.08380599 0.018639714 -0.088205114
-0.06255135 0.075504884 0.11953269 0.018960938 -0.1105913 -0.06261666 -0.122920245 -0.10689109
-0.08364254 -0.096470185 0.067438826 0.09393908 -0.06858868 -0.101108074 0.06252958 -0.031649895
-0.10731212 0.074928775 0.061371133 -0.012479156 -0.079962134 0.010634929 0.10653603 0.00852567
0.03504242 -0.022430554 -0.09311629 0.12351741 0.12227322 -0.08584933 0.11926909 0.0269873
-0.06545407 0.05008869 0.044129565 -0.11305309 0.12229134 -0.029967986 0.063739836 -0.0019070506
0.049929738 0.028653264 0.11666824 0.016933545 -0.018242255 0.023862422 0.044721678 -0.08478458
0.061663955 -0.0754327 0.010965854 -0.03202402 0.0781934 -0.09593374 0.06872375 -0.013852805
0.12617312 0.05302863 0.0011532456 -0.12306784 -0.048060156 0.07501033 -0.040739328 0.0023548007
-0.020025305 0.04114084 0.11644235 -0.077377856 -0.029613584 -0.09233733 -0.032921053 -0.03826899
0.008520663 -0.007430233 0.11047594 -0.11317259 0.05403593 0.0419316 -0.070289 -0.023511045
-0.10947587 0.052930444 0.12349655 -0.029943973 0.001247257 -0.11137201 -0.039619975 0.06742437
0.03562799 0.031222284 0.033287898 0.05681467 0.10822782 -0.039928235 0.020622045 -0.103343524
0.045011178 -0.015181184 -0.10801332 0.03997922 0.11147353 0.105605125 0.09897047 -0.11521787
0.020211458 -0.025119811 -0.086541854 -0.04547839 -0.08657178 -0.050294824 0.055780917 -0.044356436
0.119984 -0.099170536 0.12011309 0.11318335 -0.09874344 -0.11005963 -0.074839376 0.045814827
-0.108831495 -0.12322186 0.12529992 -0.016274475 -0.051528186 -0.101528816 0.0010758489 -0.07551507
-0.0474232 0.036987588 0.005493641 0.11261466 0.018738627 -0.078618735 -0.0010369271 0.049542412
0.08629894 -0.11003514 0.09596835 0.054558545 -0.030994914 0.109483555 -0.047967248 0.08721778
-0.09045152 -0.0045942888 -0.10205831 -0.047958232 0.09178083 -0.091746025 0.025776356 -0.121861644
0.113677144 0.10208346 0.018466264 -0.07932597 0.06612031 0.031834006 -0.12276201 -0.11302005
0.08642398 0.013233289 0.049767673 -0.08857308 0.11976755 -0.11588322 -0.12390923 -0.08427684
-0.050064087 -0.0088284165 -0.08998395 -0.003076166 0.07087481 -0.08290334 0.0057634264 -0.11127938
-0.007205203 0.020987973 0.09720901 -0.11411482 0.07252456 0.040359557 -0.028336056 -0.012126081
0.05279401 -0.09547391 0.06586452 0.023095533 -0.025852196 -0.065526225 0.033146933 -0.052482367
-0.0068217516 0.10115008 -0.11258553 -0.11524411 -0.030028097 -0.0050897 0.06859334 -0.068381846
0.01860188 -0.0063721985 0.02366148 0.11319862 0.030405998 0.10076681 0.051942647 -0.01892373

lstm.bias_ih_l0 f4 [240]
00000000: 925a 883d 80d3 d13e 330e 133d eeff 363e
00000010: 0f1a 973d fce2 cd3e b412 c83e a656 0b3e
00000020: a994 803e af87 613c b512 99be 04a4 7ebe
00000030: dd31 7bbe 17c8 ed3c 433f 3e3f ec40 56be
00000040: d714 14bd 9b06 db3d 0003 273e 1044 a1be
00000050: b101 1ebe ce4d 65bd f26d 453e 32be 443e
00000060: dbb4 dbbe cc2b 8a3e 067b a23e 2fcd b63e
00000070: d30d 9d3c 7f2c 853e d79f b13c ae4d b7bd
00000080: 6131 ebbd 8ad5 a13d dece 00bc 867b b0be
00000090: 83a9 103f f86f f93d 8385 03bf f84f c4be
000000a0: fb9b 1f3e 24a4 50be ca72 fd3e 586f 40bf
000000b0: 5f1d 56bc 8295 51be 06dc f2bc 4885 c1be
000000c0: 79bd 60be 24f8 8dbe ebd6 ea3c 4e5c 313e
000000d0: 2f94 ca3c f3d8 8a3d 8fe6 3f3e f215 e0bd
000000e0: ee9a 013e bd02 bb3e 126c d9be 4040 0cbf
000000f0: 7669 ff3d e692 1ebd 009b e73b 8407 e4bd
00000100: 4c7e 33bd a0ca 533d f095 d1bd b085 58bc
00000110: d6e9 a03d 6e61 f83d 3050 a5bc 00a9 9cbb
00000120: f0af ee3c 381d 623d 7f0e 99bd d670 f53d
00000130: a0c5 be3d f2a1 db3d 6133 babd 085c 96bc
00000140: eb79 83bd 99e6 f5bd 3aed 18bd 7911 e2bd
00000150: ee01 f23d 26af ae3d 6835 b63c b051 423c
00000160: f70d 043e cc1b acbc ba02 813d 65e8 ccbd
00000170: db54 023e 2853 b23c 0cd4 613d 16a1 44bd
00000180: 724d 8b3d c7ad 00be 8eca a73d e09f 65bc
00000190: f89a dd3c 0057 443c dc75 af3d e2d5 dd3d
000001a0: b6ee de3d 0a9b 74bd c4e2 16bd 1c53 083d
000001b0: da43 c33d 3c97 91bc 081f a13c 16a1 d03d
000001c0: e822 bebc 4f26 d9bd 081e d3bc 523f 48bd
000001d0: caa0 e33d 687c b23c 0052 dc3a 8c54 0c3d
000001e0: 4074 a93d fa1c d1be 0cd8 9e3e eb7b acbd
000001f0: 33b4 b0be 6db0 5b3e 8f1d 97bd 24b2 a0bd
00000200: f7b8 863e c576 f9bc 8994 c43e 4bac 9a3e
00000210: ad73 7ebe 5a38 d53c 05b3 523e 1daf 3ebe
00000220: 5343 ea3c 959a a1bc 1caa 0a3e 9b4d 043c
00000230: ef29 88bd aa02 2b3e becb 3ebe dc29 c1bd
00000240: 5d1a 43be d1ea 1fbe 2958 debd 0dc8 f7be
00000250: 04fa 8f3e 18a7 15be d1e1 b23e 33e0 ec3d
00000260: 81c0 923e b1f7 a63e 4649 6a3e bc40 e8bc
00000270: 389a 9d3e c7e6 95bd 0f7b 8cbe 6a07 51bb
00000280: 0b34 2cbe 400a 033d 1c69 123c 342e f3bc
00000290: 4bd5 03be a4c6 9cbd 2a82 edbe 1ebe 1c3e
000002a0: 36ab ee3d 6ea6 d93e 9a03 4b3e 4601 ab3e
000002b0: 554c 3f3e 7281 ba3c b0f2 8f3e 0afc 34be
000002c0: e7af 3f3e f7f9 ad3e 20a6 5c3d 9472 2e3e
000002d0: 3018 a0be fab4 73be 7e8a 963e 8836 e93e
000002e0: 67d0 b03d d707 933d 015b 25bd e2f3 87be
000002f0: 5ecd a63e cfeb 06be f26c 773c f73c 8cbd
00000300: a69a 5e3d bfcf 2f3e e2f2 f43e cfd0 0e3e
00000310: 0644 ddbd b710 1bbe 9cb7 3d3e dfc5 ccbd
00000320: b2ea a2be 557e 12be 0a2e da3e 2f46 84bd
00000330: 7217 88bd b62f 323e 5288 3cbd 479c 603e
00000340: 629e 153f a2f1 983e f68c db3d bab0 dfbe
00000350: adf8 cfbe 2640 a5bd 57f1 1d3c 699c 14ba
00000360: 6569 643e b84b 363e 56d3 a9be c2a3 efbd
00000370: 695a 8d3e ab17 d5be 1e0a b1bd 6172 eebd
00000380: 5223 18bf 75e3 003d b3eb 8cbe b7f0 8bbe
00000390: 2944 893d be94 65be 3059 9f3e e5f0 343d
000003a0: 659c 08bf 1307 b7be eab2 0c3e d194 a13e
000003b0: 45fa 84be 0869 803e c129 54be f612 eabc
0.066579 0.40981674 0.035902213 0.17871067 0.07378017 0.40212238 0.3907677 0.13607273
0.2511342 0.01376526 -0.29897085 -0.24867254 -0.2453074 0.029026074 0.7431528 -0.20923203
-0.036152687 0.10694619 0.16309738 -0.3149724 -0.15430333 -0.055982403 0.19280222 0.19213179
-0.4291142 0.2698654 0.31734484 0.35703418 0.019171631 0.2601051 0.021682663 -0.08950363
-0.11484028 0.079020575 -0.007861821 -0.3446924 0.56508654 0.121795595 -0.513756 -0.3834226
0.15586846 -0.20375115 0.4950164 -0.751699 -0.013068526 -0.20467189 -0.029645931 -0.37796998
-0.21947278 -0.2772838 0.028666934 0.17320368 0.024728863 0.06779661 0.18740295 -0.10941686
0.12656757 0.36525527 -0.42465264 -0.5478554 0.12471287 -0.038714312 0.007068038 -0.11134246
-0.043821618 0.05170691 -0.102336764 -0.013215467 0.07857101 0.12127958 -0.020179838 -0.0047808886
0.029136628 0.055203646 -0.07473468 0.11984412 0.09315038 0.10724248 -0.09091831 -0.01835443
-0.064197384 -0.12006874 -0.037335612 -0.11038489 0.11816774 0.08529501 0.022242263 0.011860296
0.12895952 -0.021009348 0.06299348 -0.10005263 0.12727682 0.021768168 0.055133864 -0.048005186
0.06801881 -0.12566291 0.08192931 -0.014015168 0.027051434 0.011983633 0.08567402 0.108318105
0.10885374 -0.05971817 -0.036837354 0.033282384 0.09534426 -0.01777231 0.019668117 0.10186975
-0.023210004 -0.1060301 -0.025771156 -0.048888512 0.111146525 0.021787837 0.0016809106 0.034260318
0.08274126 -0.4084242 0.31024206 -0.08422073 -0.3451248 0.2145402 -0.07378685 -0.07846478
0.26312992 -0.030452142 0.38394573 0.30209574 -0.24848814 0.026027847 0.20576103 -0.18621488
0.028596556 -0.01972703 0.13541454 0.008075143 -0.06648623 0.16700235 -0.18632409 -0.09431812
-0.19053026 -0.15616919 -0.10856659 -0.48394814 0.28120434 -0.14614522 0.3493791 0.115662
0.28662494 0.3261085 0.22879514 -0.02835118 0.30781722 -0.07319408 -0.27437636 -0.0031895288
-0.16816728 0.031992197 0.008936193 -0.029685117 -0.12874334 -0.07655075 -0.4638837 0.15306899
0.1165375 0.42509788 0.19825593 0.3339941 0.18681462 0.022766802 0.28114843 -0.1767427
0.18719445 0.3397977 0.053869367 0.17035896 -0.31268454 -0.23799506 0.29402536 0.45549417
0.086334996 0.0717923 -0.04036999 -0.26553255 0.32578558 -0.13175891 0.015101658 -0.068475656
0.054346703 0.17169093 0.47841555 0.13946842 -0.1080399 -0.15143095 0.18527073 -0.099986784
-0.31819683 -0.14306004 0.4261325 -0.06458699 -0.06645097 0.17401013 -0.046028443 0.21934615
0.584448 0.2987185 0.107202455 -0.4368952 -0.40619412 -0.08068876 0.009640059 -0.0005669059
0.2230583 0.17802322 -0.3316905 -0.11701156 0.2760804 -0.4161962 -0.08644508 -0.1164291
-0.59428895 0.03146692 -0.27523574 -0.27332088 0.06702454 -0.22420022 0.31122732 0.044175047
-0.5336364 -0.35747585 0.13740125 0.3155885 -0.2597219 0.25080132 -0.20719053 -0.028573494

lstm.bias_hh_l0 f4 [240]
00000000: 6331 173e 8fea 823e 57bd 86bd dbe1 183d
00000010: 7fe6 053c a6b4 a13e 433b b63e 6c12 a13e
00000020: 2414 263e 5140 843d edc9 9fbe 5335 c5be
00000030: a879 adbd 75bc 3a3d b3a7 133f 58d0 4cbe
00000040: 4463 00be 8db1 853c 3bf9 a33d d90b a2be
00000050: e376 23be 9b4a 26be 8734 903e be0b d43d
00000060: d8b3 91be d05a 4f3e eb0a e93e 8bfe d03e
00000070: ed76 1d3e 90ae e83e 64bd 01be a7ef 0bbc
00000080: f239 95bd 3a6c 6c3c 04ae 76bd 96fd e6bd
00000090: 9d3f ee3e 1bce a33d cb20 cbbe 7b32 3ebe
000000a0: 1f56 d03d e544 3abd 5828 f13e c471 16bf
000000b0: 9e8e b13d 073f 2cbe 7d85 2e3c fa31 9cbe
000000c0: bf19 70bd d64e d2be 12e4 503c 4457 b83d
000000d0: 1214 863d 3376 4a3d af5a e23d 3a5a 98be
000000e0: d96d 923e 6b40 993e f841 05bf eaa0 e8be
000000f0: 58be a6bd 9c9f e2bd 5072 6e3c 185f da3d
00000100: a8b5 3cbd 206f e13c db3c d0bd c5c3 03be
00000110: c0cc d43c d826 bc3d 50df 8cbb 50a0 db3c
00000120: 4df2 f9bd a88f 03bc 802d cbbb c06b edbd
00000130: 08b5 1f3d 3f69 e6bd 1ac0 ca3d 7652 e83d
00000140: 3411 143d 5538 c5bd 84a3 a5bc 801c d1bc
00000150: 7c1d 85bd c00b f63b 58bd b4bc a8de 00bc
00000160: 342a a53d 3c32 763d 0eec ad3d b8a0 ebbc
00000170: 5d9c 023e 386d 9d3c 9e34 e1bd ea0f e33d
00000180: a306 fbbd cd81 eebd c666 a63d 6fec b2bd
00000190: 88b1 b43d 6950 c9bd a0fb 9abd 540c e73d
000001a0: 70f7 94bb 5009 d9bd d810 983c f2e1 f83d
000001b0: 3175 013e 3a18 e33d 6eba a0bd 28cb d83c
000001c0: bcaa 22bd 2402 a23d 3010 aebd a24c 19bd
000001d0: c9d4 d3bd c0cd 033d 7093 983d 3077 903c
000001e0: 3849 77bd 1a95 8ebe 7310 bf3e bf86 8ebc
000001f0: 206d dcbe 10d7 3c3d fd80 98be a04f 79be
00000200: 84a9 b33e 4868 99bd 61fd ef3e 7910 893e
00000210: 507d 65be b904 8abd 88b0 523e ee0d 2ebe
00000220: c0d0 27be cd8c 41be 490e 283e c510 b3bd
00000230: 9437 12bd 339d c53e f030 e0be f88f 0dbe
00000240: 4089 28bc a7a2 8cbe 456b a9bd 8ddb cfbe
00000250: 4881 9e3e 0cde 6ebe 4aa6 293e 2cf8 843e
00000260: e110 973e 03bd c53d 2793 803e 64d9 acbd
00000270: 130d db3e 46a5 d1bc 4180 9bbe ad94 383e
00000280: f7db b6bd a236 6e3e 98d3 23bb fbc4 b23d
00000290: 60ce 6ebe 1962 3fbe 6260 14bf e5b3 9f3e
000002a0: 6339 843d db7b d43e ed96 043e 5601 2b3e
000002b0: 0c36 8b3d 8b62 2a3d 3721 883e ce7d 36be
000002c0: b8aa 743c 707e af3e 0e4c 27bc 1088 493b
000002d0: e088 a2bd 201f b3be f18c 893e c6fa 1d3f
000002e0: 8a2a 14bd 2b80 ec3d 0f92 323e e004 91be
000002f0: fe62 e93e b50a 09bc 6abd 193e a763 88bc
00000300: db62 1a3d d92c 833e d0d3 a83e b2b0 f83d
00000310: 6f89 02bd 4e51 7cbe 7d6f 093e 1286 983d
00000320: 877f 83be 33f5 07be 0687 6b3e 489b 87bd
00000330: cef4 18be c7a2 7e3d c774 97bd 619d 2d3e
00000340: 7097 033f d33c b53e 01f0 b0bc 67c2 89be
00000350: c0e5 ddbe 4b0a 833d 5451 4dbe 815a 3dbd
00000360: 90e8 803e 1e47 813e 8aa5 51be 8733 8d3d
00000370: dc76 5f3e 01e5 c0be 55c8 a9bd 4938 33be
00000380: 1d9c 15bf 31a5 41be c8c9 9cbe 4f67 48be
00000390: dc85 023e 1146 80bd 2277 8a3e 37e2 c23d
000003a0: d24f afbe 4504 b0be 2256 873e c033 313e
000003b0: 3c8e 8ebe fda0 453e 7758 2cbe e6ab 79be
0.14764933 0.2556958 -0.065790825 0.037324768 0.00817263 0.31583136 0.35592088 0.31459367
0.1621862 0.0645758 -0.31208745 -0.38517246 -0.0847047 0.045589883 0.57677764 -0.20001352
-0.12537867 0.016320014 0.08006521 -0.31649664 -0.1596332 -0.16239397 0.28165075 0.10353802
-0.28457522 0.20249486 0.45516142 0.408192 0.15377398 0.4544568 -0.12669903 -0.008541024
-0.07286443 0.0144301 -0.060224548 -0.112788364 0.46532908 0.07998296 -0.39673457 -0.18573944
0.10172676 -0.04547586 0.47101092 -0.5876734 0.0866978 -0.16820918 0.010651943 -0.3050688
-0.058618303 -0.41075772 0.012749689 0.090010196 0.06546797 0.04942913 0.11052453 -0.29756337
0.28599432 0.2993196 -0.52053785 -0.45435268 -0.08141774 -0.11065599 0.014553621 0.10662669
-0.04607168 0.027518809 -0.10167857 -0.12867649 0.025976539 0.09187096 -0.004299082 0.026809841
-0.12204418 -0.008029856 -0.0062004924 -0.11592817 0.038991004 -0.11250543 0.09899922 0.11343853
0.03614922 -0.09629885 -0.020219572 -0.025526285 -0.06499764 0.007508725 -0.022062942 -0.007865585
0.0806469 0.0601065 0.084922895 -0.02876316 0.1275496 0.019217119 -0.10996364 0.1108702
-0.12257125 -0.11645851 0.08125071 -0.087365024 0.08822924 -0.0982979 -0.07567525 0.11281648
-0.0045460984 -0.10597479 0.01856272 0.12152471 0.12642361 0.11088605 -0.07848059 0.02646406
-0.039713606 0.079105645 -0.08499181 -0.0374266 -0.1034332 0.03217864 0.074499965 0.017634958
-0.06037256 -0.2784813 0.37317237 -0.017398236 -0.43052006 0.046103537 -0.2978591 -0.24346781
0.35090268 -0.07490593 0.46873 0.2677038 -0.22411084 -0.06739182 0.20575154 -0.16997501
-0.16388226 -0.18901367 0.164117 -0.08743433 -0.035697535 0.38596496 -0.43787336 -0.13824451
-0.010286629 -0.27467844 -0.08272413 -0.4059719 0.3095801 -0.23326892 0.1656734 0.2597059
0.29505065 0.09655192 0.25112268 -0.084399015 0.42783412 -0.025591504 -0.30371287 0.18025465
-0.08928674 0.23263028 -0.0024997946 0.08728977 -0.23320913 -0.18689765 -0.5795957 0.31191936
0.06456258 0.41500744 0.12948199 0.16699728 0.06797418 0.041597884 0.2658784 -0.17821428
0.014933281 0.34276152 -0.010211004 0.0030751266 -0.07936263 -0.34984684 0.26865342 0.61710775
-0.03617338 0.115478836 0.1743853 -0.28324032 0.45583338 -0.008364369 0.15013662 -0.01664908
0.037691932 0.25620154 0.329741 0.12143077 -0.03186935 -0.2464039 0.13421436 0.07447447
-0.25683233 -0.1327713 0.23000726 -0.066214144 -0.14937136 0.062166955 -0.073953204 0.16954567
0.5140295 0.35397968 -0.021598818 -0.2690613 -0.43339348 0.063984476 -0.20050555 -0.04622889
0.2517743 0.2524957 -0.20473304 0.06894594 0.21822685 -0.37674716 -0.082901634 -0.1750194
-0.58441335 -0.18910672 -0.30622697 -0.19570659 0.12746376 -0.06263364 0.27044016 0.09515803
-0.34240586 -0.34378257 0.26432902 0.17304897 -0.2784289 0.19299693 -0.16830622 -0.2438198

lstm.weight_ih_l1 f4 [240, 60]
00000000: bb77 17bf 2ce2 8b3e 5080 1dbf 62a5 443f
00000010: 036a 103e 0ca7 ad3e 6d1b 8ebd 0717 183f
00000020: a7fd 82bf 784d 9e3e c3d3 a93e 6466 d83e
00000030: 431a f03e 857b 803d 70b8 3d3e e45c 14bc
00000040: f368 883e 8388 47bd d06d 8ebe 76c6 ae3d
00000050: 8261 dc3e d082 96be 303b 10bf b403 d7bd
00000060: 13b9 323e da33 3e3f 7592 45be 56cd 5b3f
00000070: 3a1d a8be 0725 12bf 45fc 743e 3494 32bf
00000080: 93f4 043f eef8 c83e 0f2c 583b 2d2c c13e
00000090: ad76 3e3e eb31 193f ab86 d7be da23 7cbe
000000a0: 6d5a ad3e 89f1 f63e 5d67 80bd fbdc 8fbe
000000b0: 0e50 b53e 64b2 2f3f 1d57 f7bd 17cc bbbe
000000c0: 0823 393e 26fb 28bd 3d5f a8bd 1a0f 963e
000000d0: a628 403f 730b 243f ee9a ed3d 2b99 f1bd
000000e0: 7bfd 46bc 703a 20bf 38e2 323d b071 9a3e
000000f0: 475c 4cbf 4ae8 c1bd 6c08 e3be be4f 153f
00000100: ffca b43e 43a5 fbbb 4708 cdbd ee89 16bf
00000110: 9248 3cbd a5ea 833e 5636 8b3e a5b6 1d3e
00000120: 6fdc 0d3e 9d0e 07be e30b d23e 7ea6 71bd
00000130: 75a8 cb3e 5295 22be 4cd6 83bd ea19 c93c
00000140: c18a 563d cb0e 943e 4014 4dbe 680f babe
00000150: 90b5 893d 5cf2 943e 9cc6 4c3e eeb6 213e
00000160: 97c9 393e d254 3ebf 3a74 8abe 0bb6 85be
00000170: 8a1a f03e ef43 6abe 5afe ea3d 5734 9d3c
00000180: 9b0a d8bd 62b1 2dbe f933 963e 23c8 713d
00000190: f9ee 24bd 6e77 913e 6365 cc3e 29db fabd
000001a0: 6156 493e 7324 53be b716 ed3e 4fa2 89be
000001b0: 9774 0b3c 966a e33e e0a7 e8bd b421 c0be
000001c0: f1a2 c0bd 3bf4 4d3e c83e 673e 6409 3e3e
000001d0: a831 013d 253a afbe 506c ad3d 60c3 19bd
000001e0: 74e9 62be 0583 813e 5a70 8abe 9ef4 3bbe
000001f0: 210e 163e a253 453d 365d b7bd 31cd 95be
00000200: 39c1 a1be 07ed 91be 23d2 1f3e 4c64 3ebe
00000210: 3da3 d8bc 1d97 993e fdd0 b53e 2c85 b43e
00000220: 1265 2b3e 4ac1 c13d 0add 8ebe 0858 083e
00000230: 22c1 27be 8da9 9f3e 534e 6abe a4f0 60be
00000240: 6cca d43d 04ce b43e d1fb d23e 0f92 8f3e
00000250: a522 303e 7ffe 08bd 99df 03be dbb5 f7be
00000260: 1471 d23e c89c 36be e0a6 83be 3585 973d
00000270: 0767 03bc baab 953e 94da 0a3e 5c1c d5bd
00000280: cd01 373e 1e9a 673e e728 fb3d 2c21 c2bd
00000290: d8e5 663e 0136 e8be a334 623e 0ae6 92be
000002a0: 4b63 d93c 87a9 dcbc 92bf 943d 5670 0e3e
000002b0: b26d c6bb c1cc e43d 43bf df3c c59c 38be
000002c0: c813 a8bd c614 22bf 98b0 23be b9a6 bebe
000002d0: 1f9a bc3d a00d 0d3e b742 a2be c43d d53e
000002e0: fd85 813e 31ca 70be be1b a9bd 70c9 a2bd
000002f0: 1603 39be 187e 4f3e 0b37 41be b5e4 a83e
00000300: 21c2 533e 54af ef3d c165 583d 5c0f 973e
00000310: 0e74 453e 6fb6 44bd 0214 3dbe 63d2 96bc
00000320: 5bd1 033f beee 9c3d 591f 003e bcf9 0d3d
00000330: 821e c3be 4a41 ae3e 0cf4 e23c 61f4 e63e
00000340: 3ced 243e a6ee 3b3e e371 ad3d 0e09 db3d
00000350: b629 f8bc 37b3 2bbe 9376 afbd 6356 3c3d
00000360: 9e2b fe3d 2a3f f9bd 0919 ac3e f4c6 f2bd
00000370: ac8c 023f 1013 be3c ed2a fe3c beda 723e
00000380: d947 7c3e b3fc 7f3e c2a0 33be 90b8 99be
00000390: f632 60bd 4a93 e33d e351 983e f4dc 433e
000003a0: a339 d03e 81d3 07bd 8c1e 6b3c 5251 2ebc
000003b0: a3ed 503e 0b83 b3be a6dc ee3d c079 17bd
000003c0: f9f1 3abf c8e6 f53b ca27 2fbe 2b15 183c
000003d0: ed85 b8be ba1d 82bd 07ea 01be ecb1 113c
000003e0: fc7d b2bd f281 63be 1e80 9fbc e94e 40be
000003f0: 1015 18be 31d4 a9be 7f8f 0fbf f406 b5bd
-0.5916707 0.27320993 -0.61523914 0.76814854 0.1410294 0.3391651 -0.06938825 0.59410137
-1.0233659 0.3091848 0.33169374 0.42265618 0.46895036 0.062735595 0.18527389 -0.00905535
0.2664257 -0.048714172 -0.27818155 0.08533947 0.43043143 -0.29396677 -0.5634031 -0.10498753
0.17453413 0.7429787 -0.1929415 0.8586019 -0.32834798 -0.5708775 0.23924358 -0.6975739
0.5193569 0.39252418 0.0032985245 0.37729016 0.18599959 0.59841794 -0.4209493 -0.24623051
0.33858052 0.48231152 -0.06269715 -0.28098282 0.3541264 0.6863158 -0.120771624 -0.36679146
0.1807977 -0.04125514 -0.0822129 0.29308397 0.75062025 0.6407997 0.11601816 -0.117967926
-0.012145395 -0.6258917 0.04367277 0.30164862 -0.79828304 -0.09468134 -0.44342363 0.583248
0.35311124 -0.007679613 -0.100113444 -0.58804214 -0.045967646 0.25764957 0.27189893 0.15401705
0.1385362 -0.13189168 0.41024694 -0.05899667 0.3977696 -0.15877274 -0.06437358 0.02454849
0.05237842 0.28917536 -0.20027256 -0.3633988 0.067240834 0.29091156 0.19997638 0.15792438
0.18143307 -0.74348176 -0.270418 -0.2611545 0.46895248 -0.22877477 0.11474295 0.019189997
-0.10548898 -0.16962197 0.29336527 0.059028756 -0.040266965 0.2841143 0.39921102 -0.12248833
0.19661857 -0.20619373 0.46306393 -0.26881644 0.008511684 0.44417256 -0.113601446 -0.37525713
-0.094060786 0.20112698 0.22582543 0.1855827 0.031541497 -0.34224048 0.084679246 -0.03753984
-0.22159368 0.25295272 -0.27038842 -0.18355033 0.14653827 0.04817546 -0.089533255 -0.2925811
-0.3159273 -0.2850115 0.15607505 -0.18592948 -0.026445026 0.29998103 0.35511008 0.35257852
0.16737774 0.09460695 -0.27903014 0.13314831 -0.16382268 0.31184044 -0.22881441 -0.21966797
0.103901714 0.35313427 0.41207746 0.2804112 0.17200716 -0.03344583 -0.12878264 -0.48380932
0.41101897 -0.17833245 -0.25713253 0.07398454 -0.008020169 0.2923258 0.13559943 -0.104058
0.1787178 0.22617385 0.12263661 -0.09478983 0.22548616 -0.45353702 0.22090392 -0.2869113
0.026536604 -0.026936306 0.07263102 0.1391004 -0.006055557 0.11171866 0.02731288 -0.18028553
-0.08206898 -0.6331295 -0.15985334 -0.37236574 0.09209084 0.13774729 -0.31691524 0.41648686
0.25297537 -0.2351463 -0.082572445 -0.079485774 -0.18067583 0.20262945 -0.18868653 0.3298699
0.20679523 0.11703363 0.052831415 0.29503906 0.19282553 -0.048025545 -0.18464664 -0.018410867
0.51491326 0.07662724 0.12511958 0.034661993 -0.38109213 0.34034187 0.027704261 0.4510832
0.16106123 0.18352756 0.08468988 0.106950864 -0.030293327 -0.16767584 -0.08567538 0.045980822
0.12410663 -0.12170251 0.3361285 -0.118543535 0.509959 0.02320245 0.031026328 0.23716256
0.24636783 0.24998741 -0.17541793 -0.30023623 -0.0547361 0.111120775 0.29749975 0.19127256
0.40668973 -0.03316069 0.014350545 -0.010639505 0.20403151 -0.35060915 0.11663179 -0.036981344
-0.7302547 0.007504318 -0.17105022 0.009282391 -0.36039677 -0.06353326 -0.1268693 0.008892518
-0.08715436 -0.22217539 -0.01947027 -0.18780102 -0.14851785 -0.33169702 -0.5607833 -0.08839217

lstm.weight_hh_l1 f4 [240, 60]
00000000: f403 b5bd c01b 27bb 5ceb b63d 6295 9a3d
00000010: 0422 cbbd e008 9d3c ce57 863d 80fa f33b
00000020: 044e c6bd f2d0 90bd 0870 18bd d491 afbd
00000030: fec5 48bd 0041 6fbb ca64 87bd 0a5c 943d
00000040: 8031 5bbb 9ce5 93bc a72c 013e 00ec dabc
00000050: eed8 5ebd e896 3e3d 1c42 24bd 2cfe 64bd
00000060: 0c3d d63d 4c49 58bd 0468 d23d 00f2 c53d
00000070: a6b8 64bd ca16 ee3d e2fc e73d 62b6 e03d
00000080: 02c7 c73d b594 fabd 50d1 95bd cfbe e1bd
00000090: 3a22 cfbd 7e3c e3bd 2cd1 3b3d 8cbc 6e3d
000000a0: e478 633d 204d aebd 8070 98bd 0a41 13bd
000000b0: 5cf3 8e3d a44f 903d 40af 993c 1044 d8bd
000000c0: 409c 453b e43e fbbc 5594 b8bd 088f d1bd
000000d0: e424 f8bd ae07 f73d 9c57 d3bc 9cde a93d
000000e0: 8028 eb3a 4c91 a2bd e09d 183d b830 8ebc
000000f0: 26ec abbd d0a5 2b3d d832 45bc ec84 193d
00000100: 4040 87bc d40c f23d c48a 8bbd 70b7 d2bb
00000110: fadd 46bd d076 20bd c850 5cbc 90c4 403c
00000120: 2287 b33d d211 c9bd 4fe0 a7bd 64ef 9cbc
00000130: 0424 593d 5085 bc3c e0a9 18bd 4893 eb3d
00000140: 9430 85bc 289d e23c 38db 3d3d f20a f5bd
00000150: bae9 b8bd 6802 00bc 002b 7c3b 5882 733d
00000160: 4c56 a8bd 9729 e4bd 2c07 0c3d 8847 58bc
00000170: e86d a2bd 247c d1bc f87f 5f3d 1686 44bd
00000180: 5c17 eebd b8bd 78bc b8a0 ecbd 4041 4a3d
00000190: f6bb 88bd 8690 b2bd 1895 f8bd 7c6d d2bc
000001a0: 9eb1 b7bd 88b3 8f3d e44b 4abd f8bd e03d
000001b0: 0a28 98bd 6f3a e3bd 1c66 dcbc 78fb 6d3d
000001c0: 192b 8fbd 4043 a1bd 54a6 39bd c864 c53d
000001d0: 988b d23d bbac e0bd b166 f8bd 20a0 6b3d
000001e0: c5f4 b6bd 805e d7bc f4db 1ebd 68fc 323d
000001f0: 3ce0 333d 19a6 8bbd 1460 c7bc 640f 84bd
00000200: 0869 e1bc 3696 97bd 9c4b a5bd 4129 013e
00000210: 666e db3d 3e6f fb3d d8f5 41bc 1084 483d
00000220: 76b7 9c3d 4deb afbd 08d3 de3c de2d b53d
00000230: 4c3d dbbd 242b ef3d 8a73 ff3d c050 673d
00000240: b433 9b3d c0a6 cebc 05de dfbd c0ca 78bb
00000250: caea 9bbd 080d e13d a454 c33d d4fe 4cbd
00000260: 0260 96bd f60c 83bd dc0e eabd 4613 27bd
00000270: 248c 863d b18f d6bd dc28 c63d acd9 d73d
00000280: 803c e03a aafa b3bd 1c69 a6bc 6416 d2bd
00000290: c8e5 e3bc 0c9e 92bc 4830 8abd e7af eabd
000002a0: 2820 073d c850 823c 76d5 88bd 2066 fdbb
000002b0: 286d d73c 1413 343d 7462 aebc c043 e8bc
000002c0: 128f 12bd b3c1 003e 20cb 903c d450 c13d
000002d0: 42db 9c3d 72c7 7fbd 475b fbbd 80cd 293d
000002e0: e602 56bd f0bc 6c3d fee5 cb3d 1864 adbc
000002f0: a16e d7bd 80a6 463d 8089 78bd 1e96 ba3d
00000300: 98dd e5bc eec3 dd3d a878 e9bc 10f0 1b3d
00000310: 6a63 a93d 7acd 47bd 54f2 223d 9f7e 8cbd
00000320: 60d2 1ebc 3b23 c1bd 4ea9 afbd 6049 bc3b
00000330: dcc9 923d 0456 67bd c076 993c 9e0d 40bd
00000340: eacf 73bd 0a0a 9e3d 5c24 693d c676 c7bd
00000350: 5cfe afbd 182c 8e3d 909f fdbd 845d 563d
00000360: 24f3 723d 6c59 3a3d ec2c 82bd 9008 ed3d
00000370: 8c18 233d 666a f33d b401 14bd 303e 6f3c
00000380: 18c8 913c 202a d1bd dae5 fc3d 9fa2 86bd
00000390: 5019 a2bc c0b6 213b 508c 03bd ae7b 813d
000003a0: f855 a1bd 106b 27bd 980f dd3c 36b0 fdbd
000003b0: 8832 a33c 00e7 4abd 4837 d53c 46e3 56bd
000003c0: ee04 d7bd 11bd e9bd 0a6d b83d cb80 e9bd
000003d0: 3260 cd3d 6ea0 ec3d c4c1 8f3d c070 14bc
000003e0: e80f 91bc 4208 b03d 8aa1 b8bd e025 0d3c
000003f0: 8e9b 863d 6692 c83d f87d 2e3d 72e3 df3d
-0.088386446 -0.0025498718 0.0893161 0.07548024 -0.09918597 0.019169271 0.06559716 0.0074456334
-0.09682849 -0.07071103 -0.037216216 -0.085727364 -0.049016945 -0.003650725 -0.06611021 0.072441176
-0.0033446252 -0.018053822 0.1261469 -0.026723862 -0.0544061 0.046530634 -0.04010211 -0.05590646
0.104608625 -0.052804276 0.10273746 0.096652985 -0.055840157 0.116254404 0.113275304 0.10972287
0.097547546 -0.12235395 -0.07315314 -0.11022722 -0.1011395 -0.11095522 0.04585378 0.05828528
0.055535212 -0.08510804 -0.07443333 -0.035950698 0.06980011 0.0704644 0.018760324 -0.10559857
0.0030152947 -0.030669637 -0.09012667 -0.10232359 -0.12116411 0.12062012 -0.025798611 0.082944125
0.0017941147 -0.079378694 0.037259936 -0.017357215 -0.08394651 0.041906178 -0.012036048 0.03748028
-0.016510129 0.11818853 -0.06813577 -0.006430559 -0.048551537 -0.03917581 -0.013446994 0.011765614
0.08766009 -0.09817852 -0.0819708 -0.01915712 0.053012863 0.023012787 -0.03727138 0.11502701
-0.016258515 0.027662829 0.04635164 -0.11964978 -0.09028955 -0.007813074 0.0038477778 0.059450477
-0.08219585 -0.11140745 0.034186527 -0.013200648 -0.07931119 -0.02557189 0.0545654 -0.047979437
-0.11625549 -0.015181951 -0.11554092 0.049378633 -0.06676476 -0.08718972 -0.121378124 -0.025686972
-0.08969425 0.07016665 -0.04938878 0.10973734 -0.07429512 -0.1109513 -0.026904158 0.058101147
-0.06990642 -0.07874155 -0.04532464 0.09638363 0.10280532 -0.10970446 -0.12128962 0.057525754
-0.08933405 -0.026290178 -0.038783982 0.043697745 0.04391502 -0.0681879 -0.024337806 -0.06448248
-0.027515903 -0.07401697 -0.08071062 0.12613393 0.10714416 0.12277077 -0.011838399 0.04895407
0.0765218 -0.08589802 0.027200237 0.08846639 -0.10705051 0.1167815 0.12473209 0.056473494
0.07578221 -0.025225997 -0.10931019 -0.0037962645 -0.07613142 0.10988814 0.09537628 -0.05004771
-0.07342531 -0.063989565 -0.114286155 -0.040789865 0.065696985 -0.10476626 0.09675762 0.105395645
0.0017107874 -0.08788045 -0.020313792 -0.10258177 -0.02781953 -0.017897628 -0.0674749 -0.11459332
0.03298965 0.01590766 -0.066813394 -0.0077331215 0.026297167 0.043963507 -0.02128718 -0.028352618
-0.035780974 0.1257389 0.017674983 0.09439245 0.076590076 -0.062446065 -0.12273269 0.041455746
-0.052248858 0.057797372 0.09955977 -0.021165892 -0.10519148 0.04849863 -0.060678005 0.09110664
-0.028059766 0.10828386 -0.028499916 0.03807074 0.08270915 -0.048779942 0.039781883 -0.068600886
-0.009693712 -0.09430548 -0.08577214 0.0057460517 0.07167408 -0.056478515 0.018733382 -0.046887986
-0.059524454 0.077167585 0.05691944 -0.09739451 -0.08593437 0.06942004 -0.1238395 0.052335277
0.05931391 0.045495436 -0.063562244 0.11573899 0.03981833 0.11885528 -0.036134437 0.014602229
0.017795607 -0.10213113 0.12348528 -0.06573986 -0.01978746 0.0024675578 -0.032116234 0.06322418
-0.07877725 -0.040873587 0.026984975 -0.12387125 0.019921556 -0.049536705 0.026027337 -0.05246284
-0.10498987 -0.11413015 0.090051726 -0.114015184 0.100281134 0.11554037 0.0701938 -0.009060085
-0.01770778 0.08595325 -0.09015186 0.008614987 0.065726385 0.09793548 0.042600602 0.109320536

lstm.bias_ih_l1 f4 [240]
00000000: 5103 1abf 72e5 623c d450 adbe dcae 70be
00000010: e580 86bd ac1c d1be 86fc b5be 29b3 cfbe
00000020: ef82 b4be 4855 7f3d 5262 c8be 1d7a 2bbc
00000030: c6fd 36be 825c 28bd 0ce7 40be 3f5e 7e3d
00000040: c9b1 afbe 8679 00be 3dea 11bf fa05 893d
00000050: 6bc7 6fbd a69e e5be 3e8e 00bf dc62 98bd
00000060: 8f8f 26be 211e 95bd 0251 80be e144 a9be
00000070: cb6c 163e 99c8 183e eb1b 2fbe 0ee3 cb3d
00000080: f8e5 28bf dea9 b4bd 6068 ccbe 624a a63e
00000090: e557 aabe fb27 dbbe 3c6c aabe 8664 96be
000000a0: 66c2 83be 93a2 5abd 3818 683b 2e13 fbbe
000000b0: d0f2 fe3e 7424 e9bd 28d4 40be 3b13 47bd
000000c0: 91ee edbe f032 09bf 0647 bdbe 192d 80bd
000000d0: bf06 40bf e931 cb3c e7e2 89be 087a c7be
000000e0: 2ffe e6bd ba3a 4cbd 4145 75be f6fa b6be
000000f0: 90a0 c8bb 7ad6 c03d 3077 873d a85d b13d
00000100: 20a9 ab3d 80a3 723b 616d 023e 25c9 fabd
00000110: 6003 bd3d 385c c73c ec9d 16bd 3cef 6f3d
00000120: 9955 ecbd 3036 a53c 6648 d03d 5717 eabd
00000130: f4ff 413d 38ec 763d 3a71 fb3d e290 a83d
00000140: e090 01be a031 ac3b 589b 52bc c63a 98bd
00000150: 351e 88bd 3467 753d 1091 a23c ee79 34bd
00000160: 405c dd3b ad8d fdbd 0cf4 0ebd f758 bcbd
00000170: bbb6 9fbd 0c92 b8bc 10ac 983d c031 1e3c
00000180: 8612 eabd 1473 053d 3fad edbd 3ce0 593d
00000190: 58bf 99bd f8ed 52bc b447 553d 003d 92bc
000001a0: 9e9d a0bd dc2c af3d b651 adbd e8a4 7c3d
000001b0: e2cf a1bd a0a9 5d3d 4a1c 35bd 3efe cc3d
000001c0: d666 9ebd c08b 04bb dc6d 643d 00b6 fc3c
000001d0: f626 23bd 2c66 713d 9216 c23d b61c 85bd
000001e0: c4b9 c13d 841e 73be 8d14 2abe 7d7b 253e
000001f0: 63e5 893e 2ba7 42be 2ef5 4ebe 1947 3c3e
00000200: 50a0 b13e 45a1 1d3a 57f6 a0bc fea1 363d
00000210: 8638 0bbe d826 32be 9377 7fbe ca0b 753e
00000220: 906f 2cbd 505e 4d3e 4367 c4bc a256 7b3d
00000230: 6fd8 703e 5088 853d 2f4c 0c3c 96c2 e73c
00000240: 4fe1 eebd 9242 19be 00c2 d93d fa6d 07bc
00000250: 5ea7 2cbe 8391 553e ccf3 0b3e 843b 04bf
00000260: 791d 2dbe e0bf b43d 90ea 273d 1be6 023f
00000270: 5671 ea3d e723 85be 78ae b83d d81b 8abc
00000280: 1d93 b13e 26c5 47be 0b4b 54be b4de 393e
00000290: 0ed6 e7be 343d 44be b0b0 64be 0056 163e
000002a0: d184 0ebe a575 9cb9 54f0 02be b937 2e3e
000002b0: ce62 2d3e d01f 553e e214 063e fdf2 6dbe
000002c0: b54e b2bc a0bb e0bd 6a94 59be 371c 113e
000002d0: 50dc 13bf 8d0b f2bd b0ec 50be 93d6 77be
000002e0: 5d09 91be 1e39 e3be 4783 4abe e56f 8fbe
000002f0: 5396 633d cf96 8bbd e245 aabe 0625 07be
00000300: bf86 b2be a14d a73d 74f8 a5bd f6e1 c4bd
00000310: 8665 c5be 6fa5 98be 5bd0 1bbf 52b5 9cbd
00000320: 8b81 00be 47a7 84be ffe4 1dbf ade4 a0bd
00000330: ccc8 a1be 22b3 d4bd 19db 16bf 4a53 21be
00000340: 5cab b83a f5ea 9a3d 2de0 21be 25a2 5fbd
00000350: efa5 54bf ec29 7e3d 930d dabe c79c a13e
00000360: 7ab5 b0be a910 88be 8a7b 9ebe e1cf 01bf
00000370: be87 3ebe 83d0 1ebe 843e 87be bb20 ccbe
00000380: 0431 c63e a329 9fbd f9ee 42be f221 0abd
00000390: 5d9b cbbe 682c eabe 0f02 abbe 090d 2abd
000003a0: 2725 f7be 5c7c a6bd 3a20 6fbe 2d4d 96be
000003b0: 85cc f4bd 14ff 1b3e 9837 e8be 91d2 ffbe
-0.6016131 0.013848649 -0.3385073 -0.23504204 -0.065675534 -0.40842187 -0.35544223 -0.40566376
-0.35256144 0.06233719 -0.39137512 -0.010466126 -0.17870244 -0.041103847 -0.18838137 0.0621016
-0.34315327 -0.12546358 -0.56998044 0.06690593 -0.05853979 -0.44847602 -0.50217044 -0.07440731
-0.16265701 -0.07281137 -0.25061804 -0.33060363 0.14689939 0.14920272 -0.17100494 0.099554166
-0.65975904 -0.08821462 -0.39923382 0.32478625 -0.33270183 -0.4280394 -0.332857 -0.29373568
-0.25734252 -0.0533777 0.0035414826 -0.4903807 0.49794626 -0.11383906 -0.18830931 -0.048602324
-0.46471074 -0.5359335 -0.3696825 -0.06258602 -0.75010294 0.024804072 -0.26930925 -0.3896029
-0.112789504 -0.049860694 -0.239522 -0.35738343 -0.006122656 0.09415908 0.0661453 0.08660442
0.083818674 0.0037023723 0.12737037 -0.122453965 0.09229159 0.024335966 -0.0367717 0.05857776
-0.11539764 0.02016744 0.10170059 -0.11430233 0.047363237 0.06028387 0.12277456 0.08230759
-0.12652922 0.005254939 -0.01285442 -0.07433085 -0.066463865 0.059912875 0.019844562 -0.044061594
0.006755382 -0.12380538 -0.03490071 -0.09196656 -0.07798525 -0.022530578 0.07454693 0.009655416
-0.11429314 0.03258045 -0.1160531 0.053192362 -0.07507199 -0.012874119 0.052070335 -0.017851353
-0.07842563 0.08553478 -0.08462851 0.061680704 -0.079009786 0.054116845 -0.04421643 0.1000943
-0.07734458 -0.00202249 0.055768833 0.030848503 -0.039832078 0.05893533 0.09476961 -0.06499617
0.0945926 -0.2374211 -0.16609402 0.16160388 0.2693282 -0.19009082 -0.20210716 0.18386497
0.3469262 0.0006013106 -0.019648714 0.04458808 -0.1359578 -0.1739763 -0.24947958 0.23930278
-0.04209858 0.20055509 -0.02397502 0.061361916 0.23520063 0.0652014 0.008563085 0.028291028
-0.11664068 -0.14966801 0.10632706 -0.008265967 -0.1686072 0.2085629 0.1366722 -0.51653314
-0.16905774 0.0882566 0.04099518 0.51132363 0.11447398 -0.26003954 0.09017652 -0.01685898
0.3468255 -0.195088 -0.20731752 0.18151361 -0.45280498 -0.19163972 -0.22333026 0.14681244
-0.13917853 -0.0002984229 -0.1278699 0.17013444 0.16932222 0.20812917 0.13093904 -0.23237224
-0.021766046 -0.10973287 -0.21248022 0.1417092 -0.57758045 -0.118186094 -0.20402789 -0.24202947
-0.28327456 -0.44379514 -0.19776641 -0.28015056 0.055563282 -0.06815874 -0.3325644 -0.13197717
-0.34868428 0.081691034 -0.08104029 -0.09613411 -0.3855402 -0.29813716 -0.608648 -0.076517716
-0.12549417 -0.25908872 -0.61677545 -0.078561164 -0.31598508 -0.10385729 -0.58928066 -0.15754429
0.0014089155 0.07564346 -0.15808173 -0.054597992 -0.83065695 0.0620517 -0.4258848 0.31564924
-0.34513456 -0.2657521 -0.30953628 -0.50707823 -0.18606469 -0.15509228 -0.26414883 -0.3986872
0.3870927 -0.077716134 -0.19036473 -0.03372378 -0.3976697 -0.45737004 -0.33400008 -0.041516338
-0.48270532 -0.081291884 -0.23352137 -0.29355755 -0.119530715 0.15234023 -0.45354915 -0.49965337

lstm.bias_hh_l1 f4 [240]
00000000: 40d7 25bf 3c23 26be 9da3 5bbe 056f 47be
00000010: 28fd 15be bd15 b9be 2650 8cbe 5081 85be
00000020: b4b0 2cbe 978b e8bd 7639 05bf eed0 83be
00000030: e20e 24be d432 c0bd 8ed5 c0bd 1fb1 9abd
00000040: ecd2 8ebe ef31 00be 9055 17bf 4201 843c
00000050: 860f 4c3c 9b50 afbe 31a7 00bf 6265 95be
00000060: 3870 19be ead8 77be 89c2 94be d026 67be
00000070: 9b9b 023e 49b1 853e 16e5 60be 000d 363e
00000080: f601 32bf f1a5 67be 320d 84be 1ccb cf3e
00000090: d99d 65be 7e3d 8cbe ccce b9be ad34 8cbe
000000a0: 2b56 efbd 827d 55bd 4e24 943d f8b9 fdbe
000000b0: 3700 e63e 020f cfbd 4c71 6cbe 1065 ad3d
000000c0: 272d c4be 66bb f7be 9b70 babe 3cf4 51be
000000d0: 44fa 02bf cd36 353d ebf1 7ebe cf41 99be
000000e0: 55fd 9cbe 1fd4 b8bd f33d 6bbe a3a4 abbe
000000f0: 163a 953d 592b ebbd 8092 973d 12a8 9a3d
00000100: 6083 223d 1ae4 cd3d 6032 833b d889 373d
00000110: 2cef dbbd 328e 803d fab5 ca3d 4aed e53d
00000120: 808c 8abd 586b c13d feff e6bd 467a fd3d
00000130: 9090 17bd 2cd8 d6bd 66a3 84bd 7e39 69bd
00000140: f099 0c3c e29d 47bd c7f9 01be a04e 833d
00000150: 9011 79bc 2ac3 9e3d 6622 6dbd 0cab 233d
00000160: 01f4 e6bd a7a5 bbbd 5c91 8a3d f88c 653d
00000170: b10c 04be 64c9 6c3d b437 b63d 406c 703c
00000180: 0a0a 0fbd a4a0 973d 6ede 20bd ea90 e83d
00000190: 180a c5bc 2a4e 803d 24e9 7fbd 64e3 44bd
000001a0: bad2 e83d 4235 b53d f458 a0bd dc58 b13d
000001b0: b052 533d 3430 81bd 74c2 2d3d f6c3 32bd
000001c0: be6e 52bd 0bbd 023e 2ea6 06bd 8097 da3d
000001d0: 88d4 af3c 6a3a f1bd bc1b 303d 9046 b03d
000001e0: d4fb 8bbd 00b4 6fbd 71ca 3fbe 6d82 f23d
000001f0: b6ef 833e 608d c2be 53e0 a0bd 4c9d db3d
00000200: 2426 8f3e 3f02 36bd 9753 98bd 3815 66bd
00000210: 965b b3bd 15cd 2fbe af34 a6bd aabf b73e
00000220: 9905 253e 41c7 743d 49ff 0d3d b3d9 8e3d
00000230: 7655 3a3e e593 083e ab1f 443e 7420 093e
00000240: 974f 7fbd d57c c5bd 5062 813e 7029 9a3d
00000250: cd85 fdbc 04aa 8e3e a27b 343e 7fe5 ffbe
00000260: 073d 2bbe 0419 893e 00a2 fbbd e00a fe3e
00000270: af3e f63d 4d5e 89be 260d 11be cb39 bf3d
00000280: c48d 483e 3439 e1bd 2d39 d4bd 7b21 6b3e
00000290: 7a78 f2be b992 96be 214a c93c ee84 743c
000002a0: 08f7 51be d328 813c d665 c1bd a1b6 763e
000002b0: d6a6 413e 0384 af3d 359f 093e b468 60be
000002c0: 07e2 2d3d 0ebf a6bd bf69 6bbe 41af 163e
000002d0: 60d9 10bf 9dc0 3ebe 083e ddbe 67ac 83be
000002e0: bac2 a7bd 5774 eabe 7934 74be 8542 e0be
000002f0: 1ea3 02bd d3be 29bd 04db e6be 26b0 cebd
00000300: 84f9 85be 7bd0 babd e75e ddbd a315 99bd
00000310: c918 fabe 355a 3dbe 09aa 20bf 5148 8cbd
00000320: 82aa f53c 8bce cdbe 72ad ffbe 3c65 6abe
00000330: c8b2 febe ec77 b8bd 801e d0be 99bf 78be
00000340: 80bc 5dbd 039f 69bd 27a6 7dbe c867 b6bc
00000350: 09aa 1cbf 3b12 1c3d 29dc 9fbe 73fc 343e
00000360: e1c8 2abe 11c8 e4be 3f4e 88be b30a c6be
00000370: 2773 4bbe 6a4d 08be f114 16be a7d4 cbbe
00000380: 8bad ff3e 869b 73be e1c7 d1be c1b2 16bc
00000390: 7556 e1be faee e8be d26a 94be 6ed8 16bb
000003a0: f208 0fbf 22d0 cb3d 5ca3 33be ad36 cdbe
000003b0: a29c 4fbe 231d 8fbd 7854 edbe f4fb d3be
-0.6478157 -0.16224378 -0.21449132 -0.19475944 -0.14647353 -0.36149397 -0.27404898 -0.2607522
-0.16864282 -0.1135475 -0.52040803 -0.25745338 -0.16021302 -0.09384695 -0.09415732 -0.075533144
-0.27895296 -0.12519048 -0.59114933 0.016113881 0.012454873 -0.34241185 -0.50255114 -0.2917891
-0.14984214 -0.2420384 -0.2905467 -0.225734 0.12754671 0.2611182 -0.2196239 0.17778397
-0.6953424 -0.22621895 -0.25791317 0.40584648 -0.22423495 -0.27390665 -0.36290586 -0.27383938
-0.11686357 -0.052121647 0.07233487 -0.49555945 0.4492204 -0.101102844 -0.23090094 0.08466542
-0.38315699 -0.4838516 -0.36414036 -0.20503324 -0.51163125 0.044241715 -0.24896972 -0.2993302
-0.30662027 -0.09024834 -0.2297285 -0.33524045 0.0728647 -0.11482877 0.074009895 0.07551588
0.03967607 0.100532725 0.004003808 0.044809192 -0.10738978 0.062771216 0.098979905 0.112269
-0.067650795 0.09444302 -0.112792954 0.123768374 -0.0370031 -0.1049045 -0.06476478 -0.056939594
0.008581623 -0.048734553 -0.12692939 0.06411481 -0.015201941 0.07752068 -0.057894133 0.039958045
-0.11277009 -0.09162455 0.06766006 0.05604264 -0.12895466 0.05780925 0.08897343 0.014674246
-0.034921683 0.07403687 -0.039274625 0.11355765 -0.024052665 0.062649086 -0.0624782 -0.04806842
0.11368318 0.08848049 -0.078294665 0.08659527 0.05159253 -0.06308022 0.042421773 -0.043643914
-0.051375143 0.12767427 -0.032873325 0.106734276 0.021463647 -0.1177872 0.0429952 0.08607209
-0.06835142 -0.05852127 -0.18729569 0.11841283 0.25768822 -0.37998486 -0.078552864 0.107233614
0.27958786 -0.044435736 -0.074378185 -0.05617258 -0.08757703 -0.17168076 -0.08115517 0.35888416
0.16115417 0.059760336 0.034667287 0.069751166 0.18196663 0.13337667 0.19152705 0.13391286
-0.062331762 -0.096429504 0.2527032 0.07527435 -0.03094759 0.27864087 0.17625287 -0.4997978
-0.16722499 0.26776898 -0.122867584 0.49617672 0.12023675 -0.26829758 -0.14165172 0.09337195
0.1958533 -0.10997239 -0.10362468 0.2296199 -0.4735754 -0.29408816 0.02457148 0.014924271
-0.20504391 0.015766537 -0.09443252 0.24093105 0.18911299 0.08570101 0.13439639 -0.21914941
0.042451885 -0.081419095 -0.22989558 0.14715292 -0.5658169 -0.18628164 -0.4321139 -0.2571747
-0.08191438 -0.45791885 -0.23848142 -0.4380075 -0.031893842 -0.04144175 -0.4508897 -0.100921914
-0.26166928 -0.09121796 -0.10809117 -0.0747483 -0.48847035 -0.18491443 -0.62759453 -0.06849731
0.029988531 -0.40196642 -0.49937016 -0.2289018 -0.49745774 -0.09007248 -0.4064827 -0.24291839
-0.054134846 -0.05703641 -0.24770413 -0.022266284 -0.61196953 0.038103323 -0.31222656 0.17674427
-0.16678192 -0.4468389 -0.26622197 -0.38680038 -0.19868146 -0.13310781 -0.14656426 -0.39810678
0.4993709 -0.23789796 -0.40972808 -0.009197892 -0.44011274 -0.45494825 -0.28987747 -0.0023017186
-0.55873024 0.099518076 -0.17542785 -0.40080777 -0.20274594 -0.06987979 -0.46353507 -0.41403162
